…
      sampler {
        min_scale: 0.3
        max_scale: 1
        min_aspect_ratio: 0.5
        max_aspect_ratio: 2
      }
      sample_constraint {
        min_jaccard_overlap: 0.9
      }
      max_sample: 1
      max_trials: 50
    }
    batch_sampler {
      sampler {
        min_scale: 0.3
        max_scale: 1
        min_aspect_ratio: 0.5
        max_aspect_ratio: 2
      }
      sample_constraint {
        max_jaccard_overlap: 1
      }
      max_sample: 1
      max_trials: 50
    }
    label_map_file: "data/VOC0712/labelmap_voc.prototxt"
  }
}
layer {
  name: "stem1"
  type: "Convolution"
  bottom: "data"
  top: "stem1"
  convolution_param {
    num_output: 32
    bias_term: false
    pad: 1
    kernel_size: 3
    stride: 2
    weight_filler {
      type: "xavier"
    }
    bias_filler {
      type: "constant"
    }
  }
}
layer {
  name: "stem1/bn"
  type: "BatchNorm"
  bottom: "stem1"
  top: "stem1"
  batch_norm_param {
    moving_average_fraction: 0.999
    eps: 0.001
  }
}
layer {
  name: "stem1/scale"
  type: "Scale"
  bottom: "stem1"
  top: "stem1"
  scale_param {
    filler {
      value: 1
    }
    bias_term: true
    bias_filler {
      value: 0
    }
  }
}
layer {
  name: "stem1/relu"
  type: "ReLU"
  bottom: "stem1"
  top: "stem1"
}
layer {
  name: "stem2a"
  type: "Convolution"
  bottom: "stem1"
  top: "stem2a"
  convolution_param {
    num_output: 16
    bias_term: false
    pad: 0
    kernel_size: 1
    stride: 1
    weight_filler {
      type: "xavier"
    }
    bias_filler {
      type: "constant"
    }
  }
}
layer {
  name: "stem2a/bn"
  type: "BatchNorm"
  bottom: "stem2a"
  top: "stem2a"
  batch_norm_param {
    moving_average_fraction: 0.999
    eps: 0.001
  }
}
layer {
  name: "stem2a/scale"
  type: "Scale"
  bottom: "stem2a"
  top: "stem2a"
  scale_param {
    filler {
      value: 1
    }
    bias_term: true
    bias_filler {
      value: 0
    }
  }
}
layer {
  name: "stem2a/relu"
  type: "ReLU"
  bottom: "stem2a"
  top: "stem2a"
}
layer {
  name: "stem2b"
  type: "Convolution"
  bottom: "stem2a"
  top: "stem2b"
  convolution_param {
    num_output: 32
    bias_term: false
    pad: 1
    kernel_size: 3
    stride: 2
    weight_filler {
      type: "xavier"
    }
    bias_filler {
      type: "constant"
    }
  }
}
layer {
  name: "stem2b/bn"
  type: "BatchNorm"
  bottom: "stem2b"
  top: "stem2b"
  batch_norm_param {
    moving_average_fraction: 0.999
    eps: 0.001
  }
}
layer {
  name: "stem2b/scale"
  type: "Scale"
  bottom: "stem2b"
  top: "stem2b"
  scale_param {
    filler {
      value: 1
    }
    bias_term: true
    bias_filler {
      value: 0
    }
  }
}
layer {
  name: "stem2b/relu"
  type: "ReLU"
  bottom: "stem2b"
  top: "stem2b"
}
layer {
  name: "stem/pool"
  type: "Pooling"
  bottom: "stem1"
  top: "stem/pool"
  pooling_param {
    pool: MAX
    kernel_size: 2
    stride: 2
  }
}
layer {
  name: "stem/concat"
  type: "Concat"
  bottom: "stem/pool"
  bottom: "stem2b"
  top: "stem/concat"
  concat_param {
    axis: 1
  }
}
layer {
  name: "stem3"
  type: "Convolution"
  bottom: "stem/concat"
  top: "stem3"
  convolution_param {
    num_output: 32
    bias_term: false
    pad: 0
    kernel_size: 1
    stride: 1
    weight_filler {
      type: "xavier"
    }
    bias_filler {
      type: "constant"
    }
  }
}
layer {
  name: "stem3/bn"
  type: "BatchNorm"
  bottom: "stem3"
  top: "stem3"
  batch_norm_param {
    moving_average_fraction: 0.999
    eps: 0.001
  }
}
layer {
  name: "stem3/scale"
  type: "Scale"
  bottom: "stem3"
  top: "stem3"
  scale_param {
    filler {
      value: 1
    }
    bias_term: true
    bias_filler {
      value: 0
    }
  }
}
layer {
  name: "stem3/relu"
  type: "ReLU"
  bottom: "stem3"
  top: "stem3"
}
layer {
  name: "stage1_1/branch1a"
  type: "Convolution"
  bottom: "stem3"
  top: "stage1_1/branch1a"
  convolution_param {
    num_output: 16
    bias_term: false
    pad: 0
    kernel_size: 1
    stride: 1
    weight_filler {
      type: "xavier"
    }
    bias_filler {
      type: "constant"
    }
  }
}
layer {
  name: "stage1_1/branch1a/bn"
  type: "BatchNorm"
  bottom: "stage1_1/branch1a"
  top: "stage1_1/branch1a"
  batch_norm_param {
    moving_average_fraction: 0.999
    eps: 0.001
  }
}
layer {
  name: "stage1_1/branch1a/scale"
  type: "Scale"
  bottom: "stage1_1/branch1a"
  top: "stage1_1/branch1a"
  scale_param {
    filler {
      value: 1
    }
    bias_term: true
    bias_filler {
      value: 0
    }
  }
}
layer {
  name: "stage1_1/branch1a/relu"
  type: "ReLU"
  bottom: "stage1_1/branch1a"
  top: "stage1_1/branch1a"
}
layer {
  name: "stage1_1/branch1b"
  type: "Convolution"
  bottom: "stage1_1/branch1a"
  top: "stage1_1/branch1b"
  convolution_param {
    num_output: 16
    bias_term: false
    pad: 1
    kernel_size: 3
    stride: 1
    weight_filler {
      type: "xavier"
    }
    bias_filler {
      type: "constant"
    }
  }
}
layer {
  name: "stage1_1/branch1b/bn"
  type: "BatchNorm"
  bottom: "stage1_1/branch1b"
  top: "stage1_1/branch1b"
  batch_norm_param {
    moving_average_fraction: 0.999
    eps: 0.001
  }
}
layer {
  name: "stage1_1/branch1b/scale"
  type: "Scale"
  bottom: "stage1_1/branch1b"
  top: "stage1_1/branch1b"
  scale_param {
    filler {
      value: 1
    }
    bias_term: true
    bias_filler {
      value: 0
    }
  }
}
layer {
  name: "stage1_1/branch1b/relu"
  type: "ReLU"
  bottom: "stage1_1/branch1b"
  top: "stage1_1/branch1b"
}
layer {
  name: "stage1_1/branch2a"
  type: "Convolution"
  bottom: "stem3"
  top: "stage1_1/branch2a"
  convolution_param {
    num_output: 16
    bias_term: false
    pad: 0
    kernel_size: 1
    stride: 1
    weight_filler {
      type: "xavier"
    }
    bias_filler {
      type: "constant"
    }
  }
}
layer {
  name: "stage1_1/branch2a/bn"
  type: "BatchNorm"
  bottom: "stage1_1/branch2a"
  top: "stage1_1/branch2a"
  batch_norm_param {
    moving_average_fraction: 0.999
    eps: 0.001
  }
}
layer {
  name: "stage1_1/branch2a/scale"
  type: "Scale"
  bottom: "stage1_1/branch2a"
  top: "stage1_1/branch2a"
  scale_param {
    filler {
      value: 1
    }
    bias_term: true
    bias_filler {
      value: 0
    }
  }
}
layer {
  name: "stage1_1/branch2a/relu"
  type: "ReLU"
  bottom: "stage1_1/branch2a"
  top: "stage1_1/branch2a"
}
layer {
  name: "stage1_1/branch2b"
  type: "Convolution"
  bottom: "stage1_1/branch2a"
  top: "stage1_1/branch2b"
  convolution_param {
    num_output: 16
    bias_term: false
    pad: 1
    kernel_size: 3
    stride: 1
    weight_filler {
      type: "xavier"
    }
    bias_filler {
      type: "constant"
    }
  }
}
layer {
  name: "stage1_1/branch2b/bn"
  type: "BatchNorm"
  bottom: "stage1_1/branch2b"
  top: "stage1_1/branch2b"
  batch_norm_param {
    moving_average_fraction: 0.999
    eps: 0.001
  }
}
layer {
  name: "stage1_1/branch2b/scale"
  type: "Scale"
  bottom: "stage1_1/branch2b"
  top: "stage1_1/branch2b"
  scale_param {
    filler {
      value: 1
    }
    bias_term: true
    bias_filler {
      value: 0
    }
  }
}
layer {
  name: "stage1_1/branch2b/relu"
  type: "ReLU"
  bottom: "stage1_1/branch2b"
  top: "stage1_1/branch2b"
}
layer {
  name: "stage1_1/branch2c"
  type: "Convolution"
  bottom: "stage1_1/branch2b"
  top: "stage1_1/branch2c"
  convolution_param {
    num_output: 16
    bias_term: false
    pad: 1
    kernel_size: 3
    stride: 1
    weight_filler {
      type: "xavier"
    }
    bias_filler {
      type: "constant"
    }
  }
}
layer {
  name: "stage1_1/branch2c/bn"
  type: "BatchNorm"
  bottom: "stage1_1/branch2c"
  top: "stage1_1/branch2c"
  batch_norm_param {
    moving_average_fraction: 0.999
    eps: 0.001
  }
}
layer {
  name: "stage1_1/branch2c/scale"
  type: "Scale"
  bottom: "stage1_1/branch2c"
  top: "stage1_1/branch2c"
  scale_param {
    filler {
      value: 1
    }
    bias_term: true
    bias_filler {
      value: 0
    }
  }
}
layer {
  name: "stage1_1/branch2c/relu"
  type: "ReLU"
  bottom: "stage1_1/branch2c"
  top: "stage1_1/branch2c"
}
layer {
  name: "stage1_1/concat"
  type: "Concat"
  bottom: "stem3"
  bottom: "stage1_1/branch1b"
  bottom: "stage1_1/branch2c"
  top: "stage1_1/concat"
  concat_param {
    axis: 1
  }
}
layer {
  name: "stage1_2/branch1a"
  type: "Convolution"
  bottom: "stage1_1/concat"
  top: "stage1_2/branch1a"
  convolution_param {
    num_output: 16
    bias_term: false
    pad: 0
    kernel_size: 1
    stride: 1
    weight_filler {
      type: "xavier"
    }
    bias_filler {
      type: "constant"
    }
  }
}
layer {
  name: "stage1_2/branch1a/bn"
  type: "BatchNorm"
  bottom: "stage1_2/branch1a"
  top: "stage1_2/branch1a"
  batch_norm_param {
    moving_average_fraction: 0.999
    eps: 0.001
  }
}
layer {
  name: "stage1_2/branch1a/scale"
  type: "Scale"
  bottom: "stage1_2/branch1a"
  top: "stage1_2/branch1a"
  scale_param {
    filler {
      value: 1
    }
    bias_term: true
    bias_filler {
      value: 0
    }
  }
}
layer {
  name: "stage1_2/branch1a/relu"
  type: "ReLU"
  bottom: "stage1_2/branch1a"
  top: "stage1_2/branch1a"
}
layer {
  name: "stage1_2/branch1b"
  type: "Convolution"
  bottom: "stage1_2/branch1a"
  top: "stage1_2/branch1b"
  convolution_param {
    num_output: 16
    bias_term: false
    pad: 1
    kernel_size: 3
    stride: 1
    weight_filler {
      type: "xavier"
    }
    bias_filler {
      type: "constant"
    }
  }
}
layer {
  name: "stage1_2/branch1b/bn"
  type: "BatchNorm"
  bottom: "stage1_2/branch1b"
  top: "stage1_2/branch1b"
  batch_norm_param {
    moving_average_fraction: 0.999
    eps: 0.001
  }
}
layer {
  name: "stage1_2/branch1b/scale"
  type: "Scale"
  bottom: "stage1_2/branch1b"
  top: "stage1_2/branch1b"
  scale_param {
    filler {
      value: 1
    }
    bias_term: true
    bias_filler {
      value: 0
    }
  }
}
layer {
  name: "stage1_2/branch1b/relu"
  type: "ReLU"
  bottom: "stage1_2/branch1b"
  top: "stage1_2/branch1b"
}
layer {
  name: "stage1_2/branch2a"
  type: "Convolution"
  bottom: "stage1_1/concat"
  top: "stage1_2/branch2a"
  convolution_param {
    num_output: 16
    bias_term: false
    pad: 0
    kernel_size: 1
    stride: 1
    weight_filler {
      type: "xavier"
    }
    bias_filler {
      type: "constant"
    }
  }
}
layer {
  name: "stage1_2/branch2a/bn"
  type: "BatchNorm"
  bottom: "stage1_2/branch2a"
  top: "stage1_2/branch2a"
  batch_norm_param {
    moving_average_fraction: 0.999
    eps: 0.001
  }
}
layer {
  name: "stage1_2/branch2a/scale"
  type: "Scale"
  bottom: "stage1_2/branch2a"
  top: "stage1_2/branch2a"
  scale_param {
    filler {
      value: 1
    }
    bias_term: true
    bias_filler {
      value: 0
    }
  }
}
layer {
  name: "stage1_2/branch2a/relu"
  type: "ReLU"
  bottom: "stage1_2/branch2a"
  top: "stage1_2/branch2a"
}
layer {
  name: "stage1_2/branch2b"
  type: "Convolution"
  bottom: "stage1_2/branch2a"
  top: "stage1_2/branch2b"
  convolution_param {
    num_output: 16
    bias_term: false
    pad: 1
    kernel_size: 3
    stride: 1
    weight_filler {
      type: "xavier"
    }
    bias_filler {
      type: "constant"
    }
  }
}
layer {
  name: "stage1_2/branch2b/bn"
  type: "BatchNorm"
  bottom: "stage1_2/branch2b"
  top: "stage1_2/branch2b"
  batch_norm_param {
    moving_average_fraction: 0.999
    eps: 0.001
  }
}
layer {
  name: "stage1_2/branch2b/scale"
  type: "Scale"
  bottom: "stage1_2/branch2b"
  top: "stage1_2/branch2b"
  scale_param {
    filler {
      value: 1
    }
    bias_term: true
    bias_filler {
      value: 0
    }
  }
}
layer {
  name: "stage1_2/branch2b/relu"
  type: "ReLU"
  bottom: "stage1_2/branch2b"
  top: "stage1_2/branch2b"
}
layer {
  name: "stage1_2/branch2c"
  type: "Convolution"
  bottom: "stage1_2/branch2b"
  top: "stage1_2/branch2c"
  convolution_param {
    num_output: 16
    bias_term: false
    pad: 1
    kernel_size: 3
    stride: 1
    weight_filler {
      type: "xavier"
    }
    bias_filler {
      type: "constant"
    }
  }
}
layer {
  name: "stage1_2/branch2c/bn"
  type: "BatchNorm"
  bottom: "stage1_2/branch2c"
  top: "stage1_2/branch2c"
  batch_norm_param {
    moving_average_fraction: 0.999
    eps: 0.001
  }
}
layer {
  name: "stage1_2/branch2c/scale"
  type: "Scale"
  bottom: "stage1_2/branch2c"
  top: "stage1_2/branch2c"
  scale_param {
    filler {
      value: 1
    }
    bias_term: true
    bias_filler {
      value: 0
    }
  }
}
layer {
  name: "stage1_2/branch2c/relu"
  type: "ReLU"
  bottom: "stage1_2/branch2c"
  top: "stage1_2/branch2c"
}
layer {
  name: "stage1_2/concat"
  type: "Concat"
  bottom: "stage1_1/concat"
  bottom: "stage1_2/branch1b"
  bottom: "stage1_2/branch2c"
  top: "stage1_2/concat"
  concat_param {
    axis: 1
  }
}
layer {
  name: "stage1_3/branch1a"
  type: "Convolution"
  bottom: "stage1_2/concat"
  top: "stage1_3/branch1a"
  convolution_param {
    num_output: 16
    bias_term: false
    pad: 0
    kernel_size: 1
    stride: 1
    weight_filler {
      type: "xavier"
    }
    bias_filler {
      type: "constant"
    }
  }
}
layer {
  name: "stage1_3/branch1a/bn"
  type: "BatchNorm"
  bottom: "stage1_3/branch1a"
  top: "stage1_3/branch1a"
  batch_norm_param {
    moving_average_fraction: 0.999
    eps: 0.001
  }
}
layer {
  name: "stage1_3/branch1a/scale"
  type: "Scale"
  bottom: "stage1_3/branch1a"
  top: "stage1_3/branch1a"
  scale_param {
    filler {
      value: 1
    }
    bias_term: true
    bias_filler {
      value: 0
    }
  }
}
layer {
  name: "stage1_3/branch1a/relu"
  type: "ReLU"
  bottom: "stage1_3/branch1a"
  top: "stage1_3/branch1a"
}
layer {
  name: "stage1_3/branch1b"
  type: "Convolution"
  bottom: "stage1_3/branch1a"
  top: "stage1_3/branch1b"
  convolution_param {
    num_output: 16
    bias_term: false
    pad: 1
    kernel_size: 3
    stride: 1
    weight_filler {
      type: "xavier"
    }
    bias_filler {
      type: "constant"
    }
  }
}
layer {
  name: "stage1_3/branch1b/bn"
  type: "BatchNorm"
  bottom: "stage1_3/branch1b"
  top: "stage1_3/branch1b"
  batch_norm_param {
    moving_average_fraction: 0.999
    eps: 0.001
  }
}
layer {
  name: "stage1_3/branch1b/scale"
  type: "Scale"
  bottom: "stage1_3/branch1b"
  top: "stage1_3/branch1b"
  scale_param {
    filler {
      value: 1
    }
    bias_term: true
    bias_filler {
      value: 0
    }
  }
}
layer {
  name: "stage1_3/branch1b/relu"
  type: "ReLU"
  bottom: "stage1_3/branch1b"
  top: "stage1_3/branch1b"
}
layer {
  name: "stage1_3/branch2a"
  type: "Convolution"
  bottom: "stage1_2/concat"
  top: "stage1_3/branch2a"
  convolution_param {
    num_output: 16
    bias_term: false
    pad: 0
    kernel_size: 1
    stride: 1
    weight_filler {
      type: "xavier"
    }
    bias_filler {
      type: "constant"
    }
  }
}
layer {
  name: "stage1_3/branch2a/bn"
  type: "BatchNorm"
  bottom: "stage1_3/branch2a"
  top: "stage1_3/branch2a"
  batch_norm_param {
    moving_average_fraction: 0.999
    eps: 0.001
  }
}
layer {
  name: "stage1_3/branch2a/scale"
  type: "Scale"
  bottom: "stage1_3/branch2a"
  top: "stage1_3/branch2a"
  scale_param {
    filler {
      value: 1
    }
    bias_term: true
    bias_filler {
      value: 0
    }
  }
}
layer {
  name: "stage1_3/branch2a/relu"
  type: "ReLU"
  bottom: "stage1_3/branch2a"
  top: "stage1_3/branch2a"
}
layer {
  name: "stage1_3/branch2b"
  type: "Convolution"
  bottom: "stage1_3/branch2a"
  top: "stage1_3/branch2b"
  convolution_param {
    num_output: 16
    bias_term: false
    pad: 1
    kernel_size: 3
    stride: 1
    weight_filler {
      type: "xavier"
    }
    bias_filler {
      type: "constant"
    }
  }
}
layer {
  name: "stage1_3/branch2b/bn"
  type: "BatchNorm"
  bottom: "stage1_3/branch2b"
  top: "stage1_3/branch2b"
  batch_norm_param {
    moving_average_fraction: 0.999
    eps: 0.001
  }
}
layer {
  name: "stage1_3/branch2b/scale"
  type: "Scale"
  bottom: "stage1_3/branch2b"
  top: "stage1_3/branch2b"
  scale_param {
    filler {
      value: 1
    }
    bias_term: true
    bias_filler {
      value: 0
    }
  }
}
layer {
  name: "stage1_3/branch2b/relu"
  type: "ReLU"
  bottom: "stage1_3/branch2b"
  top: "stage1_3/branch2b"
}
layer {
  name: "stage1_3/branch2c"
  type: "Convolution"
  bottom: "stage1_3/branch2b"
  top: "stage1_3/branch2c"
  convolution_param {
    num_output: 16
    bias_term: false
    pad: 1
    kernel_size: 3
    stride: 1
    weight_filler {
      type: "xavier"
    }
    bias_filler {
      type: "constant"
    }
  }
}
layer {
  name: "stage1_3/branch2c/bn"
  type: "BatchNorm"
  bottom: "stage1_3/branch2c"
  top: "stage1_3/branch2c"
  batch_norm_param {
    moving_average_fraction: 0.999
    eps: 0.001
  }
}
layer {
  name: "stage1_3/branch2c/scale"
  type: "Scale"
  bottom: "stage1_3/branch2c"
  top: "stage1_3/branch2c"
  scale_param {
    filler {
      value: 1
    }
    bias_term: true
    bias_filler {
      value: 0
    }
  }
}
layer {
  name: "stage1_3/branch2c/relu"
  type: "ReLU"
  bottom: "stage1_3/branch2c"
  top: "stage1_3/branch2c"
}
layer {
  name: "stage1_3/concat"
  type: "Concat"
  bottom: "stage1_2/concat"
  bottom: "stage1_3/branch1b"
  bottom: "stage1_3/branch2c"
  top: "stage1_3/concat"
  concat_param {
    axis: 1
  }
}
layer {
  name: "stage1_tb"
  type: "Convolution"
  bottom: "stage1_3/concat"
  top: "stage1_tb"
  convolution_param {
    num_output: 128
    bias_term: false
    pad: 0
    kernel_size: 1
    stride: 1
    weight_filler {
      type: "xavier"
    }
    bias_filler {
      type: "constant"
    }
  }
}
layer {
  name: "stage1_tb/bn"
  type: "BatchNorm"
  bottom: "stage1_tb"
  top: "stage1_tb"
  batch_norm_param {
    moving_average_fraction: 0.999
    eps: 0.001
  }
}
layer {
  name: "stage1_tb/scale"
  type: "Scale"
  bottom: "stage1_tb"
  top: "stage1_tb"
  scale_param {
    filler {
      value: 1
    }
    bias_term: true
    bias_filler {
      value: 0
    }
  }
}
layer {
  name: "stage1_tb/relu"
  type: "ReLU"
  bottom: "stage1_tb"
  top: "stage1_tb"
}
layer {
  name: "stage1_tb/pool"
  type: "Pooling"
  bottom: "stage1_tb"
  top: "stage1_tb/pool"
  pooling_param {
    pool: AVE
    kernel_size: 2
    stride: 2
  }
}
layer {
  name: "stage2_1/branch1a"
  type: "Convolution"
  bottom: "stage1_tb/pool"
  top: "stage2_1/branch1a"
  convolution_param {
    num_output: 32
    bias_term: false
    pad: 0
    kernel_size: 1
    stride: 1
    weight_filler {
      type: "xavier"
    }
    bias_filler {
      type: "constant"
    }
  }
}
layer {
  name: "stage2_1/branch1a/bn"
  type: "BatchNorm"
  bottom: "stage2_1/branch1a"
  top: "stage2_1/branch1a"
  batch_norm_param {
    moving_average_fraction: 0.999
    eps: 0.001
  }
}
layer {
  name: "stage2_1/branch1a/scale"
  type: "Scale"
  bottom: "stage2_1/branch1a"
  top: "stage2_1/branch1a"
  scale_param {
    filler {
      value: 1
    }
    bias_term: true
    bias_filler {
      value: 0
    }
  }
}
layer {
  name: "stage2_1/branch1a/relu"
  type: "ReLU"
  bottom: "stage2_1/branch1a"
  top: "stage2_1/branch1a"
}
layer {
  name: "stage2_1/branch1b"
  type: "Convolution"
  bottom: "stage2_1/branch1a"
  top: "stage2_1/branch1b"
  convolution_param {
    num_output: 16
    bias_term: false
    pad: 1
    kernel_size: 3
    stride: 1
    weight_filler {
      type: "xavier"
    }
    bias_filler {
      type: "constant"
    }
  }
}
layer {
  name: "stage2_1/branch1b/bn"
  type: "BatchNorm"
  bottom: "stage2_1/branch1b"
  top: "stage2_1/branch1b"
  batch_norm_param {
    moving_average_fraction: 0.999
    eps: 0.001
  }
}
layer {
  name: "stage2_1/branch1b/scale"
  type: "Scale"
  bottom: "stage2_1/branch1b"
  top: "stage2_1/branch1b"
  scale_param {
    filler {
      value: 1
    }
    bias_term: true
    bias_filler {
      value: 0
    }
  }
}
layer {
  name: "stage2_1/branch1b/relu"
  type: "ReLU"
  bottom: "stage2_1/branch1b"
  top: "stage2_1/branch1b"
}
layer {
  name: "stage2_1/branch2a"
  type: "Convolution"
  bottom: "stage1_tb/pool"
  top: "stage2_1/branch2a"
  convolution_param {
    num_output: 32
    bias_term: false
    pad: 0
    kernel_size: 1
    stride: 1
    weight_filler {
      type: "xavier"
    }
    bias_filler {
      type: "constant"
    }
  }
}
layer {
  name: "stage2_1/branch2a/bn"
  type: "BatchNorm"
  bottom: "stage2_1/branch2a"
  top: "stage2_1/branch2a"
  batch_norm_param {
    moving_average_fraction: 0.999
    eps: 0.001
  }
}
layer {
  name: "stage2_1/branch2a/scale"
  type: "Scale"
  bottom: "stage2_1/branch2a"
  top: "stage2_1/branch2a"
  scale_param {
    filler {
      value: 1
    }
    bias_term: true
    bias_filler {
      value: 0
    }
  }
}
layer {
  name: "stage2_1/branch2a/relu"
  type: "ReLU"
  bottom: "stage2_1/branch2a"
  top: "stage2_1/branch2a"
}
layer {
  name: "stage2_1/branch2b"
  type: "Convolution"
  bottom: "stage2_1/branch2a"
  top: "stage2_1/branch2b"
  convolution_param {
    num_output: 16
    bias_term: false
    pad: 1
    kernel_size: 3
    stride: 1
    weight_filler {
      type: "xavier"
    }
    bias_filler {
      type: "constant"
    }
  }
}
layer {
  name: "stage2_1/branch2b/bn"
  type: "BatchNorm"
  bottom: "stage2_1/branch2b"
  top: "stage2_1/branch2b"
  batch_norm_param {
    moving_average_fraction: 0.999
    eps: 0.001
  }
}
layer {
  name: "stage2_1/branch2b/scale"
  type: "Scale"
  bottom: "stage2_1/branch2b"
  top: "stage2_1/branch2b"
  scale_param {
    filler {
      value: 1
    }
    bias_term: true
    bias_filler {
      value: 0
    }
  }
}
layer {
  name: "stage2_1/branch2b/relu"
  type: "ReLU"
  bottom: "stage2_1/branch2b"
  top: "stage2_1/branch2b"
}
layer {
  name: "stage2_1/branch2c"
  type: "Convolution"
  bottom: "stage2_1/branch2b"
  top: "stage2_1/branch2c"
  convolution_param {
    num_output: 16
    bias_term: false
    pad: 1
    kernel_size: 3
    stride: 1
    weight_filler {
      type: "xavier"
    }
    bias_filler {
      type: "constant"
    }
  }
}
layer {
  name: "stage2_1/branch2c/bn"
  type: "BatchNorm"
  bottom: "stage2_1/branch2c"
  top: "stage2_1/branch2c"
  batch_norm_param {
    moving_average_fraction: 0.999
    eps: 0.001
  }
}
layer {
  name: "stage2_1/branch2c/scale"
  type: "Scale"
  bottom: "stage2_1/branch2c"
  top: "stage2_1/branch2c"
  scale_param {
    filler {
      value: 1
    }
    bias_term: true
    bias_filler {
      value: 0
    }
  }
}
layer {
  name: "stage2_1/branch2c/relu"
  type: "ReLU"
  bottom: "stage2_1/branch2c"
  top: "stage2_1/branch2c"
}
layer {
  name: "stage2_1/concat"
  type: "Concat"
  bottom: "stage1_tb/pool"
  bottom: "stage2_1/branch1b"
  bottom: "stage2_1/branch2c"
  top: "stage2_1/concat"
  concat_param {
    axis: 1
  }
}
layer {
  name: "stage2_2/branch1a"
  type: "Convolution"
  bottom: "stage2_1/concat"
  top: "stage2_2/branch1a"
  convolution_param {
    num_output: 32
    bias_term: false
    pad: 0
    kernel_size: 1
    stride: 1
    weight_filler {
      type: "xavier"
    }
    bias_filler {
      type: "constant"
    }
  }
}
layer {
  name: "stage2_2/branch1a/bn"
  type: "BatchNorm"
  bottom: "stage2_2/branch1a"
  top: "stage2_2/branch1a"
  batch_norm_param {
    moving_average_fraction: 0.999
    eps: 0.001
  }
}
layer {
  name: "stage2_2/branch1a/scale"
  type: "Scale"
  bottom: "stage2_2/branch1a"
  top: "stage2_2/branch1a"
  scale_param {
    filler {
      value: 1
    }
    bias_term: true
    bias_filler {
      value: 0
    }
  }
}
layer {
  name: "stage2_2/branch1a/relu"
  type: "ReLU"
  bottom: "stage2_2/branch1a"
  top: "stage2_2/branch1a"
}
layer {
  name: "stage2_2/branch1b"
  type: "Convolution"
  bottom: "stage2_2/branch1a"
  top: "stage2_2/branch1b"
  convolution_param {
    num_output: 16
    bias_term: false
    pad: 1
    kernel_size: 3
    stride: 1
    weight_filler {
      type: "xavier"
    }
    bias_filler {
      type: "constant"
    }
  }
}
layer {
  name: "stage2_2/branch1b/bn"
  type: "BatchNorm"
  bottom: "stage2_2/branch1b"
  top: "stage2_2/branch1b"
  batch_norm_param {
    moving_average_fraction: 0.999
    eps: 0.001
  }
}
layer {
  name: "stage2_2/branch1b/scale"
  type: "Scale"
  bottom: "stage2_2/branch1b"
  top: "stage2_2/branch1b"
  scale_param {
    filler {
      value: 1
    }
    bias_term: true
    bias_filler {
      value: 0
    }
  }
}
layer {
  name: "stage2_2/branch1b/relu"
  type: "ReLU"
  bottom: "stage2_2/branch1b"
  top: "stage2_2/branch1b"
}
layer {
  name: "stage2_2/branch2a"
  type: "Convolution"
  bottom: "stage2_1/concat"
  top: "stage2_2/branch2a"
  convolution_param {
    num_output: 32
    bias_term: false
    pad: 0
    kernel_size: 1
    stride: 1
    weight_filler {
      type: "xavier"
    }
    bias_filler {
      type: "constant"
    }
  }
}
layer {
  name: "stage2_2/branch2a/bn"
  type: "BatchNorm"
  bottom: "stage2_2/branch2a"
  top: "stage2_2/branch2a"
  batch_norm_param {
    moving_average_fraction: 0.999
    eps: 0.001
  }
}
layer {
  name: "stage2_2/branch2a/scale"
  type: "Scale"
  bottom: "stage2_2/branch2a"
  top: "stage2_2/branch2a"
  scale_param {
    filler {
      value: 1
    }
    bias_term: true
    bias_filler {
      value: 0
    }
  }
}
layer {
  name: "stage2_2/branch2a/relu"
  type: "ReLU"
  bottom: "stage2_2/branch2a"
  top: "stage2_2/branch2a"
}
layer {
  name: "stage2_2/branch2b"
  type: "Convolution"
  bottom: "stage2_2/branch2a"
  top: "stage2_2/branch2b"
  convolution_param {
    num_output: 16
    bias_term: false
    pad: 1
    kernel_size: 3
    stride: 1
    weight_filler {
      type: "xavier"
    }
    bias_filler {
      type: "constant"
    }
  }
}
layer {
  name: "stage2_2/branch2b/bn"
  type: "BatchNorm"
  bottom: "stage2_2/branch2b"
  top: "stage2_2/branch2b"
  batch_norm_param {
    moving_average_fraction: 0.999
    eps: 0.001
  }
}
layer {
  name: "stage2_2/branch2b/scale"
  type: "Scale"
  bottom: "stage2_2/branch2b"
  top: "stage2_2/branch2b"
  scale_param {
    filler {
      value: 1
    }
    bias_term: true
    bias_filler {
      value: 0
    }
  }
}
layer {
  name: "stage2_2/branch2b/relu"
  type: "ReLU"
  bottom: "stage2_2/branch2b"
  top: "stage2_2/branch2b"
}
layer {
  name: "stage2_2/branch2c"
  type: "Convolution"
  bottom: "stage2_2/branch2b"
  top: "stage2_2/branch2c"
  convolution_param {
    num_output: 16
    bias_term: false
    pad: 1
    kernel_size: 3
    stride: 1
    weight_filler {
      type: "xavier"
    }
    bias_filler {
      type: "constant"
    }
  }
}
layer {
  name: "stage2_2/branch2c/bn"
  type: "BatchNorm"
  bottom: "stage2_2/branch2c"
  top: "stage2_2/branch2c"
  batch_norm_param {
    moving_average_fraction: 0.999
    eps: 0.001
  }
}
layer {
  name: "stage2_2/branch2c/scale"
  type: "Scale"
  bottom: "stage2_2/branch2c"
  top: "stage2_2/branch2c"
  scale_param {
    filler {
      value: 1
    }
    bias_term: true
    bias_filler {
      value: 0
    }
  }
}
layer {
  name: "stage2_2/branch2c/relu"
  type: "ReLU"
  bottom: "stage2_2/branch2c"
  top: "stage2_2/branch2c"
}
layer {
  name: "stage2_2/concat"
  type: "Concat"
  bottom: "stage2_1/concat"
  bottom: "stage2_2/branch1b"
  bottom: "stage2_2/branch2c"
  top: "stage2_2/concat"
  concat_param {
    axis: 1
  }
}
layer {
  name: "stage2_3/branch1a"
  type: "Convolution"
  bottom: "stage2_2/concat"
  top: "stage2_3/branch1a"
  convolution_param {
    num_output: 32
    bias_term: false
    pad: 0
    kernel_size: 1
    stride: 1
    weight_filler {
      type: "xavier"
    }
    bias_filler {
      type: "constant"
    }
  }
}
layer {
  name: "stage2_3/branch1a/bn"
  type: "BatchNorm"
  bottom: "stage2_3/branch1a"
  top: "stage2_3/branch1a"
  batch_norm_param {
    moving_average_fraction: 0.999
    eps: 0.001
  }
}
layer {
  name: "stage2_3/branch1a/scale"
  type: "Scale"
  bottom: "stage2_3/branch1a"
  top: "stage2_3/branch1a"
  scale_param {
    filler {
      value: 1
    }
    bias_term: true
    bias_filler {
      value: 0
    }
  }
}
layer {
  name: "stage2_3/branch1a/relu"
  type: "ReLU"
  bottom: "stage2_3/branch1a"
  top: "stage2_3/branch1a"
}
layer {
  name: "stage2_3/branch1b"
  type: "Convolution"
  bottom: "stage2_3/branch1a"
  top: "stage2_3/branch1b"
  c
I0528 06:56:23.872720    79 layer_factory.hpp:77] Creating layer data
I0528 06:56:23.872877    79 net.cpp:100] Creating Layer data
I0528 06:56:23.872892    79 net.cpp:408] data -> data
I0528 06:56:23.872920    79 net.cpp:408] data -> label
I0528 06:56:23.874328    84 db_lmdb.cpp:35] Opened lmdb examples/Pelee/trainval_lmdb
I0528 06:56:23.888552    79 annotated_data_layer.cpp:62] output data size: 16,3,304,304
I0528 06:56:23.914981    79 net.cpp:150] Setting up data
I0528 06:56:23.915011    79 net.cpp:157] Top shape: 16 3 304 304 (4435968)
I0528 06:56:23.915019    79 net.cpp:157] Top shape: 1 1 5 8 (40)
I0528 06:56:23.915024    79 net.cpp:165] Memory required for data: 17744032
I0528 06:56:23.915037    79 layer_factory.hpp:77] Creating layer data_data_0_split
I0528 06:56:23.915060    79 net.cpp:100] Creating Layer data_data_0_split
I0528 06:56:23.915067    79 net.cpp:434] data_data_0_split <- data
I0528 06:56:23.915087    79 net.cpp:408] data_data_0_split -> data_data_0_split_0
I0528 06:56:23.915102    79 net.cpp:408] data_data_0_split -> data_data_0_split_1
I0528 06:56:23.915108    79 net.cpp:408] data_data_0_split -> data_data_0_split_2
I0528 06:56:23.915115    79 net.cpp:408] data_data_0_split -> data_data_0_split_3
I0528 06:56:23.915122    79 net.cpp:408] data_data_0_split -> data_data_0_split_4
I0528 06:56:23.915128    79 net.cpp:408] data_data_0_split -> data_data_0_split_5
I0528 06:56:23.915134    79 net.cpp:408] data_data_0_split -> data_data_0_split_6
I0528 06:56:23.915395    79 net.cpp:150] Setting up data_data_0_split
I0528 06:56:23.915406    79 net.cpp:157] Top shape: 16 3 304 304 (4435968)
I0528 06:56:23.915411    79 net.cpp:157] Top shape: 16 3 304 304 (4435968)
I0528 06:56:23.915416    79 net.cpp:157] Top shape: 16 3 304 304 (4435968)
I0528 06:56:23.915421    79 net.cpp:157] Top shape: 16 3 304 304 (4435968)
I0528 06:56:23.915427    79 net.cpp:157] Top shape: 16 3 304 304 (4435968)
I0528 06:56:23.915432    79 net.cpp:157] Top shape: 16 3 304 304 (4435968)
I0528 06:56:23.915437    79 net.cpp:157] Top shape: 16 3 304 304 (4435968)
I0528 06:56:23.915441    79 net.cpp:165] Memory required for data: 141951136
I0528 06:56:23.915447    79 layer_factory.hpp:77] Creating layer stem1
I0528 06:56:23.915464    79 net.cpp:100] Creating Layer stem1
I0528 06:56:23.915472    79 net.cpp:434] stem1 <- data_data_0_split_0
I0528 06:56:23.915477    79 net.cpp:408] stem1 -> stem1
I0528 06:56:23.937362    85 blocking_queue.cpp:50] Waiting for data
I0528 06:56:24.443084    79 net.cpp:150] Setting up stem1
I0528 06:56:24.443114    79 net.cpp:157] Top shape: 16 32 152 152 (11829248)
I0528 06:56:24.443120    79 net.cpp:165] Memory required for data: 189268128
I0528 06:56:24.443135    79 layer_factory.hpp:77] Creating layer stem1/bn
I0528 06:56:24.443148    79 net.cpp:100] Creating Layer stem1/bn
I0528 06:56:24.443154    79 net.cpp:434] stem1/bn <- stem1
I0528 06:56:24.443161    79 net.cpp:395] stem1/bn -> stem1 (in-place)
I0528 06:56:24.444161    79 net.cpp:150] Setting up stem1/bn
I0528 06:56:24.444173    79 net.cpp:157] Top shape: 16 32 152 152 (11829248)
I0528 06:56:24.444195    79 net.cpp:165] Memory required for data: 236585120
I0528 06:56:24.444205    79 layer_factory.hpp:77] Creating layer stem1/scale
I0528 06:56:24.444216    79 net.cpp:100] Creating Layer stem1/scale
I0528 06:56:24.444221    79 net.cpp:434] stem1/scale <- stem1
I0528 06:56:24.444226    79 net.cpp:395] stem1/scale -> stem1 (in-place)
I0528 06:56:24.444263    79 layer_factory.hpp:77] Creating layer stem1/scale
I0528 06:56:24.444391    79 net.cpp:150] Setting up stem1/scale
I0528 06:56:24.444401    79 net.cpp:157] Top shape: 16 32 152 152 (11829248)
I0528 06:56:24.444406    79 net.cpp:165] Memory required for data: 283902112
I0528 06:56:24.444414    79 layer_factory.hpp:77] Creating layer stem1/relu
I0528 06:56:24.444422    79 net.cpp:100] Creating Layer stem1/relu
I0528 06:56:24.444428    79 net.cpp:434] stem1/relu <- stem1
I0528 06:56:24.444434    79 net.cpp:395] stem1/relu -> stem1 (in-place)
I0528 06:56:24.444758    79 net.cpp:150] Setting up stem1/relu
I0528 06:56:24.444772    79 net.cpp:157] Top shape: 16 32 152 152 (11829248)
I0528 06:56:24.444775    79 net.cpp:165] Memory required for data: 331219104
I0528 06:56:24.444780    79 layer_factory.hpp:77] Creating layer stem1_stem1/relu_0_split
I0528 06:56:24.444788    79 net.cpp:100] Creating Layer stem1_stem1/relu_0_split
I0528 06:56:24.444793    79 net.cpp:434] stem1_stem1/relu_0_split <- stem1
I0528 06:56:24.444802    79 net.cpp:408] stem1_stem1/relu_0_split -> stem1_stem1/relu_0_split_0
I0528 06:56:24.444810    79 net.cpp:408] stem1_stem1/relu_0_split -> stem1_stem1/relu_0_split_1
I0528 06:56:24.444842    79 net.cpp:150] Setting up stem1_stem1/relu_0_split
I0528 06:56:24.444850    79 net.cpp:157] Top shape: 16 32 152 152 (11829248)
I0528 06:56:24.444857    79 net.cpp:157] Top shape: 16 32 152 152 (11829248)
I0528 06:56:24.444864    79 net.cpp:165] Memory required for data: 425853088
I0528 06:56:24.444869    79 layer_factory.hpp:77] Creating layer stem2a
I0528 06:56:24.444883    79 net.cpp:100] Creating Layer stem2a
I0528 06:56:24.444890    79 net.cpp:434] stem2a <- stem1_stem1/relu_0_split_0
I0528 06:56:24.444895    79 net.cpp:408] stem2a -> stem2a
I0528 06:56:24.446331    79 net.cpp:150] Setting up stem2a
I0528 06:56:24.446346    79 net.cpp:157] Top shape: 16 16 152 152 (5914624)
I0528 06:56:24.446350    79 net.cpp:165] Memory required for data: 449511584
I0528 06:56:24.446357    79 layer_factory.hpp:77] Creating layer stem2a/bn
I0528 06:56:24.446364    79 net.cpp:100] Creating Layer stem2a/bn
I0528 06:56:24.446388    79 net.cpp:434] stem2a/bn <- stem2a
I0528 06:56:24.446394    79 net.cpp:395] stem2a/bn -> stem2a (in-place)
I0528 06:56:24.446560    79 net.cpp:150] Setting up stem2a/bn
I0528 06:56:24.446571    79 net.cpp:157] Top shape: 16 16 152 152 (5914624)
I0528 06:56:24.446576    79 net.cpp:165] Memory required for data: 473170080
I0528 06:56:24.446585    79 layer_factory.hpp:77] Creating layer stem2a/scale
I0528 06:56:24.446593    79 net.cpp:100] Creating Layer stem2a/scale
I0528 06:56:24.446599    79 net.cpp:434] stem2a/scale <- stem2a
I0528 06:56:24.446605    79 net.cpp:395] stem2a/scale -> stem2a (in-place)
I0528 06:56:24.446645    79 layer_factory.hpp:77] Creating layer stem2a/scale
I0528 06:56:24.446753    79 net.cpp:150] Setting up stem2a/scale
I0528 06:56:24.446763    79 net.cpp:157] Top shape: 16 16 152 152 (5914624)
I0528 06:56:24.446768    79 net.cpp:165] Memory required for data: 496828576
I0528 06:56:24.446775    79 layer_factory.hpp:77] Creating layer stem2a/relu
I0528 06:56:24.446781    79 net.cpp:100] Creating Layer stem2a/relu
I0528 06:56:24.446786    79 net.cpp:434] stem2a/relu <- stem2a
I0528 06:56:24.446794    79 net.cpp:395] stem2a/relu -> stem2a (in-place)
I0528 06:56:24.447120    79 net.cpp:150] Setting up stem2a/relu
I0528 06:56:24.447131    79 net.cpp:157] Top shape: 16 16 152 152 (5914624)
I0528 06:56:24.447135    79 net.cpp:165] Memory required for data: 520487072
I0528 06:56:24.447141    79 layer_factory.hpp:77] Creating layer stem2b
I0528 06:56:24.447149    79 net.cpp:100] Creating Layer stem2b
I0528 06:56:24.447155    79 net.cpp:434] stem2b <- stem2a
I0528 06:56:24.447163    79 net.cpp:408] stem2b -> stem2b
I0528 06:56:24.449589    79 net.cpp:150] Setting up stem2b
I0528 06:56:24.449604    79 net.cpp:157] Top shape: 16 32 76 76 (2957312)
I0528 06:56:24.449609    79 net.cpp:165] Memory required for data: 532316320
I0528 06:56:24.449615    79 layer_factory.hpp:77] Creating layer stem2b/bn
I0528 06:56:24.449622    79 net.cpp:100] Creating Layer stem2b/bn
I0528 06:56:24.449628    79 net.cpp:434] stem2b/bn <- stem2b
I0528 06:56:24.449635    79 net.cpp:395] stem2b/bn -> stem2b (in-place)
I0528 06:56:24.449815    79 net.cpp:150] Setting up stem2b/bn
I0528 06:56:24.449826    79 net.cpp:157] Top shape: 16 32 76 76 (2957312)
I0528 06:56:24.449831    79 net.cpp:165] Memory required for data: 544145568
I0528 06:56:24.449837    79 layer_factory.hpp:77] Creating layer stem2b/scale
I0528 06:56:24.449844    79 net.cpp:100] Creating Layer stem2b/scale
I0528 06:56:24.449851    79 net.cpp:434] stem2b/scale <- stem2b
I0528 06:56:24.449857    79 net.cpp:395] stem2b/scale -> stem2b (in-place)
I0528 06:56:24.449890    79 layer_factory.hpp:77] Creating layer stem2b/scale
I0528 06:56:24.449991    79 net.cpp:150] Setting up stem2b/scale
I0528 06:56:24.450001    79 net.cpp:157] Top shape: 16 32 76 76 (2957312)
I0528 06:56:24.450006    79 net.cpp:165] Memory required for data: 555974816
I0528 06:56:24.450013    79 layer_factory.hpp:77] Creating layer stem2b/relu
I0528 06:56:24.450019    79 net.cpp:100] Creating Layer stem2b/relu
I0528 06:56:24.450024    79 net.cpp:434] stem2b/relu <- stem2b
I0528 06:56:24.450031    79 net.cpp:395] stem2b/relu -> stem2b (in-place)
I0528 06:56:24.450659    79 net.cpp:150] Setting up stem2b/relu
I0528 06:56:24.450672    79 net.cpp:157] Top shape: 16 32 76 76 (2957312)
I0528 06:56:24.450678    79 net.cpp:165] Memory required for data: 567804064
I0528 06:56:24.450683    79 layer_factory.hpp:77] Creating layer stem/pool
I0528 06:56:24.450691    79 net.cpp:100] Creating Layer stem/pool
I0528 06:56:24.450696    79 net.cpp:434] stem/pool <- stem1_stem1/relu_0_split_1
I0528 06:56:24.450703    79 net.cpp:408] stem/pool -> stem/pool
I0528 06:56:24.450753    79 net.cpp:150] Setting up stem/pool
I0528 06:56:24.450763    79 net.cpp:157] Top shape: 16 32 76 76 (2957312)
I0528 06:56:24.450767    79 net.cpp:165] Memory required for data: 579633312
I0528 06:56:24.450773    79 layer_factory.hpp:77] Creating layer stem/concat
I0528 06:56:24.450781    79 net.cpp:100] Creating Layer stem/concat
I0528 06:56:24.450801    79 net.cpp:434] stem/concat <- stem/pool
I0528 06:56:24.450809    79 net.cpp:434] stem/concat <- stem2b
I0528 06:56:24.450817    79 net.cpp:408] stem/concat -> stem/concat
I0528 06:56:24.450844    79 net.cpp:150] Setting up stem/concat
I0528 06:56:24.450852    79 net.cpp:157] Top shape: 16 64 76 76 (5914624)
I0528 06:56:24.450857    79 net.cpp:165] Memory required for data: 603291808
I0528 06:56:24.450862    79 layer_factory.hpp:77] Creating layer stem3
I0528 06:56:24.450871    79 net.cpp:100] Creating Layer stem3
I0528 06:56:24.450876    79 net.cpp:434] stem3 <- stem/concat
I0528 06:56:24.450883    79 net.cpp:408] stem3 -> stem3
I0528 06:56:24.453061    79 net.cpp:150] Setting up stem3
I0528 06:56:24.453076    79 net.cpp:157] Top shape: 16 32 76 76 (2957312)
I0528 06:56:24.453081    79 net.cpp:165] Memory required for data: 615121056
I0528 06:56:24.453088    79 layer_factory.hpp:77] Creating layer stem3/bn
I0528 06:56:24.453095    79 net.cpp:100] Creating Layer stem3/bn
I0528 06:56:24.453101    79 net.cpp:434] stem3/bn <- stem3
I0528 06:56:24.453109    79 net.cpp:395] stem3/bn -> stem3 (in-place)
I0528 06:56:24.453274    79 net.cpp:150] Setting up stem3/bn
I0528 06:56:24.453284    79 net.cpp:157] Top shape: 16 32 76 76 (2957312)
I0528 06:56:24.453289    79 net.cpp:165] Memory required for data: 626950304
I0528 06:56:24.453295    79 layer_factory.hpp:77] Creating layer stem3/scale
I0528 06:56:24.453302    79 net.cpp:100] Creating Layer stem3/scale
I0528 06:56:24.453310    79 net.cpp:434] stem3/scale <- stem3
I0528 06:56:24.453316    79 net.cpp:395] stem3/scale -> stem3 (in-place)
I0528 06:56:24.453347    79 layer_factory.hpp:77] Creating layer stem3/scale
I0528 06:56:24.453454    79 net.cpp:150] Setting up stem3/scale
I0528 06:56:24.453464    79 net.cpp:157] Top shape: 16 32 76 76 (2957312)
I0528 06:56:24.453469    79 net.cpp:165] Memory required for data: 638779552
I0528 06:56:24.453474    79 layer_factory.hpp:77] Creating layer stem3/relu
I0528 06:56:24.453481    79 net.cpp:100] Creating Layer stem3/relu
I0528 06:56:24.453487    79 net.cpp:434] stem3/relu <- stem3
I0528 06:56:24.453495    79 net.cpp:395] stem3/relu -> stem3 (in-place)
I0528 06:56:24.453806    79 net.cpp:150] Setting up stem3/relu
I0528 06:56:24.453817    79 net.cpp:157] Top shape: 16 32 76 76 (2957312)
I0528 06:56:24.453824    79 net.cpp:165] Memory required for data: 650608800
I0528 06:56:24.453827    79 layer_factory.hpp:77] Creating layer stem3_stem3/relu_0_split
I0528 06:56:24.453835    79 net.cpp:100] Creating Layer stem3_stem3/relu_0_split
I0528 06:56:24.453838    79 net.cpp:434] stem3_stem3/relu_0_split <- stem3
I0528 06:56:24.453846    79 net.cpp:408] stem3_stem3/relu_0_split -> stem3_stem3/relu_0_split_0
I0528 06:56:24.453855    79 net.cpp:408] stem3_stem3/relu_0_split -> stem3_stem3/relu_0_split_1
I0528 06:56:24.453861    79 net.cpp:408] stem3_stem3/relu_0_split -> stem3_stem3/relu_0_split_2
I0528 06:56:24.453900    79 net.cpp:150] Setting up stem3_stem3/relu_0_split
I0528 06:56:24.453912    79 net.cpp:157] Top shape: 16 32 76 76 (2957312)
I0528 06:56:24.453919    79 net.cpp:157] Top shape: 16 32 76 76 (2957312)
I0528 06:56:24.453927    79 net.cpp:157] Top shape: 16 32 76 76 (2957312)
I0528 06:56:24.453930    79 net.cpp:165] Memory required for data: 686096544
I0528 06:56:24.453936    79 layer_factory.hpp:77] Creating layer stage1_1/branch1a
I0528 06:56:24.453945    79 net.cpp:100] Creating Layer stage1_1/branch1a
I0528 06:56:24.453950    79 net.cpp:434] stage1_1/branch1a <- stem3_stem3/relu_0_split_0
I0528 06:56:24.453956    79 net.cpp:408] stage1_1/branch1a -> stage1_1/branch1a
I0528 06:56:24.455382    79 net.cpp:150] Setting up stage1_1/branch1a
I0528 06:56:24.455397    79 net.cpp:157] Top shape: 16 16 76 76 (1478656)
I0528 06:56:24.455402    79 net.cpp:165] Memory required for data: 692011168
I0528 06:56:24.455409    79 layer_factory.hpp:77] Creating layer stage1_1/branch1a/bn
I0528 06:56:24.455416    79 net.cpp:100] Creating Layer stage1_1/branch1a/bn
I0528 06:56:24.455433    79 net.cpp:434] stage1_1/branch1a/bn <- stage1_1/branch1a
I0528 06:56:24.455442    79 net.cpp:395] stage1_1/branch1a/bn -> stage1_1/branch1a (in-place)
I0528 06:56:24.455606    79 net.cpp:150] Setting up stage1_1/branch1a/bn
I0528 06:56:24.455617    79 net.cpp:157] Top shape: 16 16 76 76 (1478656)
I0528 06:56:24.455621    79 net.cpp:165] Memory required for data: 697925792
I0528 06:56:24.455628    79 layer_factory.hpp:77] Creating layer stage1_1/branch1a/scale
I0528 06:56:24.455636    79 net.cpp:100] Creating Layer stage1_1/branch1a/scale
I0528 06:56:24.455641    79 net.cpp:434] stage1_1/branch1a/scale <- stage1_1/branch1a
I0528 06:56:24.455647    79 net.cpp:395] stage1_1/branch1a/scale -> stage1_1/branch1a (in-place)
I0528 06:56:24.455680    79 layer_factory.hpp:77] Creating layer stage1_1/branch1a/scale
I0528 06:56:24.455786    79 net.cpp:150] Setting up stage1_1/branch1a/scale
I0528 06:56:24.455798    79 net.cpp:157] Top shape: 16 16 76 76 (1478656)
I0528 06:56:24.455803    79 net.cpp:165] Memory required for data: 703840416
I0528 06:56:24.455809    79 layer_factory.hpp:77] Creating layer stage1_1/branch1a/relu
I0528 06:56:24.455816    79 net.cpp:100] Creating Layer stage1_1/branch1a/relu
I0528 06:56:24.455821    79 net.cpp:434] stage1_1/branch1a/relu <- stage1_1/branch1a
I0528 06:56:24.455827    79 net.cpp:395] stage1_1/branch1a/relu -> stage1_1/branch1a (in-place)
I0528 06:56:24.456138    79 net.cpp:150] Setting up stage1_1/branch1a/relu
I0528 06:56:24.456151    79 net.cpp:157] Top shape: 16 16 76 76 (1478656)
I0528 06:56:24.456156    79 net.cpp:165] Memory required for data: 709755040
I0528 06:56:24.456159    79 layer_factory.hpp:77] Creating layer stage1_1/branch1b
I0528 06:56:24.456176    79 net.cpp:100] Creating Layer stage1_1/branch1b
I0528 06:56:24.456183    79 net.cpp:434] stage1_1/branch1b <- stage1_1/branch1a
I0528 06:56:24.456190    79 net.cpp:408] stage1_1/branch1b -> stage1_1/branch1b
I0528 06:56:24.457610    79 net.cpp:150] Setting up stage1_1/branch1b
I0528 06:56:24.457624    79 net.cpp:157] Top shape: 16 16 76 76 (1478656)
I0528 06:56:24.457629    79 net.cpp:165] Memory required for data: 715669664
I0528 06:56:24.457636    79 layer_factory.hpp:77] Creating layer stage1_1/branch1b/bn
I0528 06:56:24.457644    79 net.cpp:100] Creating Layer stage1_1/branch1b/bn
I0528 06:56:24.457650    79 net.cpp:434] stage1_1/branch1b/bn <- stage1_1/branch1b
I0528 06:56:24.457659    79 net.cpp:395] stage1_1/branch1b/bn -> stage1_1/branch1b (in-place)
I0528 06:56:24.457826    79 net.cpp:150] Setting up stage1_1/branch1b/bn
I0528 06:56:24.457836    79 net.cpp:157] Top shape: 16 16 76 76 (1478656)
I0528 06:56:24.457841    79 net.cpp:165] Memory required for data: 721584288
I0528 06:56:24.457850    79 layer_factory.hpp:77] Creating layer stage1_1/branch1b/scale
I0528 06:56:24.457864    79 net.cpp:100] Creating Layer stage1_1/branch1b/scale
I0528 06:56:24.457870    79 net.cpp:434] stage1_1/branch1b/scale <- stage1_1/branch1b
I0528 06:56:24.457876    79 net.cpp:395] stage1_1/branch1b/scale -> stage1_1/branch1b (in-place)
I0528 06:56:24.457914    79 layer_factory.hpp:77] Creating layer stage1_1/branch1b/scale
I0528 06:56:24.458024    79 net.cpp:150] Setting up stage1_1/branch1b/scale
I0528 06:56:24.458034    79 net.cpp:157] Top shape: 16 16 76 76 (1478656)
I0528 06:56:24.458039    79 net.cpp:165] Memory required for data: 727498912
I0528 06:56:24.458045    79 layer_factory.hpp:77] Creating layer stage1_1/branch1b/relu
I0528 06:56:24.458060    79 net.cpp:100] Creating Layer stage1_1/branch1b/relu
I0528 06:56:24.458066    79 net.cpp:434] stage1_1/branch1b/relu <- stage1_1/branch1b
I0528 06:56:24.458072    79 net.cpp:395] stage1_1/branch1b/relu -> stage1_1/branch1b (in-place)
I0528 06:56:24.458669    79 net.cpp:150] Setting up stage1_1/branch1b/relu
I0528 06:56:24.458683    79 net.cpp:157] Top shape: 16 16 76 76 (1478656)
I0528 06:56:24.458688    79 net.cpp:165] Memory required for data: 733413536
I0528 06:56:24.458693    79 layer_factory.hpp:77] Creating layer stage1_1/branch2a
I0528 06:56:24.458703    79 net.cpp:100] Creating Layer stage1_1/branch2a
I0528 06:56:24.458717    79 net.cpp:434] stage1_1/branch2a <- stem3_stem3/relu_0_split_1
I0528 06:56:24.458724    79 net.cpp:408] stage1_1/branch2a -> stage1_1/branch2a
I0528 06:56:24.460134    79 net.cpp:150] Setting up stage1_1/branch2a
I0528 06:56:24.460149    79 net.cpp:157] Top shape: 16 16 76 76 (1478656)
I0528 06:56:24.460153    79 net.cpp:165] Memory required for data: 739328160
I0528 06:56:24.460160    79 layer_factory.hpp:77] Creating layer stage1_1/branch2a/bn
I0528 06:56:24.460167    79 net.cpp:100] Creating Layer stage1_1/branch2a/bn
I0528 06:56:24.460173    79 net.cpp:434] stage1_1/branch2a/bn <- stage1_1/branch2a
I0528 06:56:24.460180    79 net.cpp:395] stage1_1/branch2a/bn -> stage1_1/branch2a (in-place)
I0528 06:56:24.460359    79 net.cpp:150] Setting up stage1_1/branch2a/bn
I0528 06:56:24.460371    79 net.cpp:157] Top shape: 16 16 76 76 (1478656)
I0528 06:56:24.460376    79 net.cpp:165] Memory required for data: 745242784
I0528 06:56:24.460382    79 layer_factory.hpp:77] Creating layer stage1_1/branch2a/scale
I0528 06:56:24.460392    79 net.cpp:100] Creating Layer stage1_1/branch2a/scale
I0528 06:56:24.460397    79 net.cpp:434] stage1_1/branch2a/scale <- stage1_1/branch2a
I0528 06:56:24.460402    79 net.cpp:395] stage1_1/branch2a/scale -> stage1_1/branch2a (in-place)
I0528 06:56:24.460445    79 layer_factory.hpp:77] Creating layer stage1_1/branch2a/scale
I0528 06:56:24.460551    79 net.cpp:150] Setting up stage1_1/branch2a/scale
I0528 06:56:24.460561    79 net.cpp:157] Top shape: 16 16 76 76 (1478656)
I0528 06:56:24.460566    79 net.cpp:165] Memory required for data: 751157408
I0528 06:56:24.460572    79 layer_factory.hpp:77] Creating layer stage1_1/branch2a/relu
I0528 06:56:24.460578    79 net.cpp:100] Creating Layer stage1_1/branch2a/relu
I0528 06:56:24.460584    79 net.cpp:434] stage1_1/branch2a/relu <- stage1_1/branch2a
I0528 06:56:24.460592    79 net.cpp:395] stage1_1/branch2a/relu -> stage1_1/branch2a (in-place)
I0528 06:56:24.460911    79 net.cpp:150] Setting up stage1_1/branch2a/relu
I0528 06:56:24.460922    79 net.cpp:157] Top shape: 16 16 76 76 (1478656)
I0528 06:56:24.460927    79 net.cpp:165] Memory required for data: 757072032
I0528 06:56:24.460932    79 layer_factory.hpp:77] Creating layer stage1_1/branch2b
I0528 06:56:24.460947    79 net.cpp:100] Creating Layer stage1_1/branch2b
I0528 06:56:24.460953    79 net.cpp:434] stage1_1/branch2b <- stage1_1/branch2a
I0528 06:56:24.460960    79 net.cpp:408] stage1_1/branch2b -> stage1_1/branch2b
I0528 06:56:24.462370    79 net.cpp:150] Setting up stage1_1/branch2b
I0528 06:56:24.462385    79 net.cpp:157] Top shape: 16 16 76 76 (1478656)
I0528 06:56:24.462390    79 net.cpp:165] Memory required for data: 762986656
I0528 06:56:24.462396    79 layer_factory.hpp:77] Creating layer stage1_1/branch2b/bn
I0528 06:56:24.462404    79 net.cpp:100] Creating Layer stage1_1/branch2b/bn
I0528 06:56:24.462409    79 net.cpp:434] stage1_1/branch2b/bn <- stage1_1/branch2b
I0528 06:56:24.462415    79 net.cpp:395] stage1_1/branch2b/bn -> stage1_1/branch2b (in-place)
I0528 06:56:24.462590    79 net.cpp:150] Setting up stage1_1/branch2b/bn
I0528 06:56:24.462600    79 net.cpp:157] Top shape: 16 16 76 76 (1478656)
I0528 06:56:24.462605    79 net.cpp:165] Memory required for data: 768901280
I0528 06:56:24.462613    79 layer_factory.hpp:77] Creating layer stage1_1/branch2b/scale
I0528 06:56:24.462620    79 net.cpp:100] Creating Layer stage1_1/branch2b/scale
I0528 06:56:24.462627    79 net.cpp:434] stage1_1/branch2b/scale <- stage1_1/branch2b
I0528 06:56:24.462635    79 net.cpp:395] stage1_1/branch2b/scale -> stage1_1/branch2b (in-place)
I0528 06:56:24.462666    79 layer_factory.hpp:77] Creating layer stage1_1/branch2b/scale
I0528 06:56:24.462772    79 net.cpp:150] Setting up stage1_1/branch2b/scale
I0528 06:56:24.462782    79 net.cpp:157] Top shape: 16 16 76 76 (1478656)
I0528 06:56:24.462787    79 net.cpp:165] Memory required for data: 774815904
I0528 06:56:24.462793    79 layer_factory.hpp:77] Creating layer stage1_1/branch2b/relu
I0528 06:56:24.462813    79 net.cpp:100] Creating Layer stage1_1/branch2b/relu
I0528 06:56:24.462819    79 net.cpp:434] stage1_1/branch2b/relu <- stage1_1/branch2b
I0528 06:56:24.462826    79 net.cpp:395] stage1_1/branch2b/relu -> stage1_1/branch2b (in-place)
I0528 06:56:24.463131    79 net.cpp:150] Setting up stage1_1/branch2b/relu
I0528 06:56:24.463143    79 net.cpp:157] Top shape: 16 16 76 76 (1478656)
I0528 06:56:24.463147    79 net.cpp:165] Memory required for data: 780730528
I0528 06:56:24.463153    79 layer_factory.hpp:77] Creating layer stage1_1/branch2c
I0528 06:56:24.463161    79 net.cpp:100] Creating Layer stage1_1/branch2c
I0528 06:56:24.463167    79 net.cpp:434] stage1_1/branch2c <- stage1_1/branch2b
I0528 06:56:24.463176    79 net.cpp:408] stage1_1/branch2c -> stage1_1/branch2c
I0528 06:56:24.464598    79 net.cpp:150] Setting up stage1_1/branch2c
I0528 06:56:24.464612    79 net.cpp:157] Top shape: 16 16 76 76 (1478656)
I0528 06:56:24.464617    79 net.cpp:165] Memory required for data: 786645152
I0528 06:56:24.464623    79 layer_factory.hpp:77] Creating layer stage1_1/branch2c/bn
I0528 06:56:24.464637    79 net.cpp:100] Creating Layer stage1_1/branch2c/bn
I0528 06:56:24.464643    79 net.cpp:434] stage1_1/branch2c/bn <- stage1_1/branch2c
I0528 06:56:24.464650    79 net.cpp:395] stage1_1/branch2c/bn -> stage1_1/branch2c (in-place)
I0528 06:56:24.464823    79 net.cpp:150] Setting up stage1_1/branch2c/bn
I0528 06:56:24.464834    79 net.cpp:157] Top shape: 16 16 76 76 (1478656)
I0528 06:56:24.464838    79 net.cpp:165] Memory required for data: 792559776
I0528 06:56:24.464845    79 layer_factory.hpp:77] Creating layer stage1_1/branch2c/scale
I0528 06:56:24.464853    79 net.cpp:100] Creating Layer stage1_1/branch2c/scale
I0528 06:56:24.464859    79 net.cpp:434] stage1_1/branch2c/scale <- stage1_1/branch2c
I0528 06:56:24.464865    79 net.cpp:395] stage1_1/branch2c/scale -> stage1_1/branch2c (in-place)
I0528 06:56:24.464898    79 layer_factory.hpp:77] Creating layer stage1_1/branch2c/scale
I0528 06:56:24.464998    79 net.cpp:150] Setting up stage1_1/branch2c/scale
I0528 06:56:24.465008    79 net.cpp:157] Top shape: 16 16 76 76 (1478656)
I0528 06:56:24.465011    79 net.cpp:165] Memory required for data: 798474400
I0528 06:56:24.465018    79 layer_factory.hpp:77] Creating layer stage1_1/branch2c/relu
I0528 06:56:24.465023    79 net.cpp:100] Creating Layer stage1_1/branch2c/relu
I0528 06:56:24.465029    79 net.cpp:434] stage1_1/branch2c/relu <- stage1_1/branch2c
I0528 06:56:24.465036    79 net.cpp:395] stage1_1/branch2c/relu -> stage1_1/branch2c (in-place)
I0528 06:56:24.465351    79 net.cpp:150] Setting up stage1_1/branch2c/relu
I0528 06:56:24.465363    79 net.cpp:157] Top shape: 16 16 76 76 (1478656)
I0528 06:56:24.465368    79 net.cpp:165] Memory required for data: 804389024
I0528 06:56:24.465373    79 layer_factory.hpp:77] Creating layer stage1_1/concat
I0528 06:56:24.465379    79 net.cpp:100] Creating Layer stage1_1/concat
I0528 06:56:24.465385    79 net.cpp:434] stage1_1/concat <- stem3_stem3/relu_0_split_2
I0528 06:56:24.465394    79 net.cpp:434] stage1_1/concat <- stage1_1/branch1b
I0528 06:56:24.465399    79 net.cpp:434] stage1_1/concat <- stage1_1/branch2c
I0528 06:56:24.465404    79 net.cpp:408] stage1_1/concat -> stage1_1/concat
I0528 06:56:24.465427    79 net.cpp:150] Setting up stage1_1/concat
I0528 06:56:24.465436    79 net.cpp:157] Top shape: 16 64 76 76 (5914624)
I0528 06:56:24.465442    79 net.cpp:165] Memory required for data: 828047520
I0528 06:56:24.465448    79 layer_factory.hpp:77] Creating layer stage1_1/concat_stage1_1/concat_0_split
I0528 06:56:24.465456    79 net.cpp:100] Creating Layer stage1_1/concat_stage1_1/concat_0_split
I0528 06:56:24.465464    79 net.cpp:434] stage1_1/concat_stage1_1/concat_0_split <- stage1_1/concat
I0528 06:56:24.465472    79 net.cpp:408] stage1_1/concat_stage1_1/concat_0_split -> stage1_1/concat_stage1_1/concat_0_split_0
I0528 06:56:24.465481    79 net.cpp:408] stage1_1/concat_stage1_1/concat_0_split -> stage1_1/concat_stage1_1/concat_0_split_1
I0528 06:56:24.465488    79 net.cpp:408] stage1_1/concat_stage1_1/concat_0_split -> stage1_1/concat_stage1_1/concat_0_split_2
I0528 06:56:24.465548    79 net.cpp:150] Setting up stage1_1/concat_stage1_1/concat_0_split
I0528 06:56:24.465557    79 net.cpp:157] Top shape: 16 64 76 76 (5914624)
I0528 06:56:24.465562    79 net.cpp:157] Top shape: 16 64 76 76 (5914624)
I0528 06:56:24.465567    79 net.cpp:157] Top shape: 16 64 76 76 (5914624)
I0528 06:56:24.465572    79 net.cpp:165] Memory required for data: 899023008
I0528 06:56:24.465576    79 layer_factory.hpp:77] Creating layer stage1_2/branch1a
I0528 06:56:24.465586    79 net.cpp:100] Creating Layer stage1_2/branch1a
I0528 06:56:24.465592    79 net.cpp:434] stage1_2/branch1a <- stage1_1/concat_stage1_1/concat_0_split_0
I0528 06:56:24.465598    79 net.cpp:408] stage1_2/branch1a -> stage1_2/branch1a
I0528 06:56:24.467022    79 net.cpp:150] Setting up stage1_2/branch1a
I0528 06:56:24.467036    79 net.cpp:157] Top shape: 16 16 76 76 (1478656)
I0528 06:56:24.467041    79 net.cpp:165] Memory required for data: 904937632
I0528 06:56:24.467048    79 layer_factory.hpp:77] Creating layer stage1_2/branch1a/bn
I0528 06:56:24.467056    79 net.cpp:100] Creating Layer stage1_2/branch1a/bn
I0528 06:56:24.467061    79 net.cpp:434] stage1_2/branch1a/bn <- stage1_2/branch1a
I0528 06:56:24.467067    79 net.cpp:395] stage1_2/branch1a/bn -> stage1_2/branch1a (in-place)
I0528 06:56:24.467245    79 net.cpp:150] Setting up stage1_2/branch1a/bn
I0528 06:56:24.467257    79 net.cpp:157] Top shape: 16 16 76 76 (1478656)
I0528 06:56:24.467260    79 net.cpp:165] Memory required for data: 910852256
I0528 06:56:24.467267    79 layer_factory.hpp:77] Creating layer stage1_2/branch1a/scale
I0528 06:56:24.467283    79 net.cpp:100] Creating Layer stage1_2/branch1a/scale
I0528 06:56:24.467288    79 net.cpp:434] stage1_2/branch1a/scale <- stage1_2/branch1a
I0528 06:56:24.467294    79 net.cpp:395] stage1_2/branch1a/scale -> stage1_2/branch1a (in-place)
I0528 06:56:24.467325    79 layer_factory.hpp:77] Creating layer stage1_2/branch1a/scale
I0528 06:56:24.467434    79 net.cpp:150] Setting up stage1_2/branch1a/scale
I0528 06:56:24.467443    79 net.cpp:157] Top shape: 16 16 76 76 (1478656)
I0528 06:56:24.467448    79 net.cpp:165] Memory required for data: 916766880
I0528 06:56:24.467454    79 layer_factory.hpp:77] Creating layer stage1_2/branch1a/relu
I0528 06:56:24.467461    79 net.cpp:100] Creating Layer stage1_2/branch1a/relu
I0528 06:56:24.467468    79 net.cpp:434] stage1_2/branch1a/relu <- stage1_2/branch1a
I0528 06:56:24.467473    79 net.cpp:395] stage1_2/branch1a/relu -> stage1_2/branch1a (in-place)
I0528 06:56:24.468080    79 net.cpp:150] Setting up stage1_2/branch1a/relu
I0528 06:56:24.468094    79 net.cpp:157] Top shape: 16 16 76 76 (1478656)
I0528 06:56:24.468099    79 net.cpp:165] Memory required for data: 922681504
I0528 06:56:24.468104    79 layer_factory.hpp:77] Creating layer stage1_2/branch1b
I0528 06:56:24.468112    79 net.cpp:100] Creating Layer stage1_2/branch1b
I0528 06:56:24.468118    79 net.cpp:434] stage1_2/branch1b <- stage1_2/branch1a
I0528 06:56:24.468125    79 net.cpp:408] stage1_2/branch1b -> stage1_2/branch1b
I0528 06:56:24.469543    79 net.cpp:150] Setting up stage1_2/branch1b
I0528 06:56:24.469558    79 net.cpp:157] Top shape: 16 16 76 76 (1478656)
I0528 06:56:24.469563    79 net.cpp:165] Memory required for data: 928596128
I0528 06:56:24.469569    79 layer_factory.hpp:77] Creating layer stage1_2/branch1b/bn
I0528 06:56:24.469576    79 net.cpp:100] Creating Layer stage1_2/branch1b/bn
I0528 06:56:24.469581    79 net.cpp:434] stage1_2/branch1b/bn <- stage1_2/branch1b
I0528 06:56:24.469588    79 net.cpp:395] stage1_2/branch1b/bn -> stage1_2/branch1b (in-place)
I0528 06:56:24.469759    79 net.cpp:150] Setting up stage1_2/branch1b/bn
I0528 06:56:24.469770    79 net.cpp:157] Top shape: 16 16 76 76 (1478656)
I0528 06:56:24.469774    79 net.cpp:165] Memory required for data: 934510752
I0528 06:56:24.469782    79 layer_factory.hpp:77] Creating layer stage1_2/branch1b/scale
I0528 06:56:24.469789    79 net.cpp:100] Creating Layer stage1_2/branch1b/scale
I0528 06:56:24.469807    79 net.cpp:434] stage1_2/branch1b/scale <- stage1_2/branch1b
I0528 06:56:24.469815    79 net.cpp:395] stage1_2/branch1b/scale -> stage1_2/branch1b (in-place)
I0528 06:56:24.469847    79 layer_factory.hpp:77] Creating layer stage1_2/branch1b/scale
I0528 06:56:24.469962    79 net.cpp:150] Setting up stage1_2/branch1b/scale
I0528 06:56:24.469972    79 net.cpp:157] Top shape: 16 16 76 76 (1478656)
I0528 06:56:24.469977    79 net.cpp:165] Memory required for data: 940425376
I0528 06:56:24.469987    79 layer_factory.hpp:77] Creating layer stage1_2/branch1b/relu
I0528 06:56:24.469995    79 net.cpp:100] Creating Layer stage1_2/branch1b/relu
I0528 06:56:24.470001    79 net.cpp:434] stage1_2/branch1b/relu <- stage1_2/branch1b
I0528 06:56:24.470007    79 net.cpp:395] stage1_2/branch1b/relu -> stage1_2/branch1b (in-place)
I0528 06:56:24.470333    79 net.cpp:150] Setting up stage1_2/branch1b/relu
I0528 06:56:24.470346    79 net.cpp:157] Top shape: 16 16 76 76 (1478656)
I0528 06:56:24.470351    79 net.cpp:165] Memory required for data: 946340000
I0528 06:56:24.470355    79 layer_factory.hpp:77] Creating layer stage1_2/branch2a
I0528 06:56:24.470365    79 net.cpp:100] Creating Layer stage1_2/branch2a
I0528 06:56:24.470371    79 net.cpp:434] stage1_2/branch2a <- stage1_1/concat_stage1_1/concat_0_split_1
I0528 06:56:24.470379    79 net.cpp:408] stage1_2/branch2a -> stage1_2/branch2a
I0528 06:56:24.471778    79 net.cpp:150] Setting up stage1_2/branch2a
I0528 06:56:24.471793    79 net.cpp:157] Top shape: 16 16 76 76 (1478656)
I0528 06:56:24.471798    79 net.cpp:165] Memory required for data: 952254624
I0528 06:56:24.471804    79 layer_factory.hpp:77] Creating layer stage1_2/branch2a/bn
I0528 06:56:24.471812    79 net.cpp:100] Creating Layer stage1_2/branch2a/bn
I0528 06:56:24.471817    79 net.cpp:434] stage1_2/branch2a/bn <- stage1_2/branch2a
I0528 06:56:24.471823    79 net.cpp:395] stage1_2/branch2a/bn -> stage1_2/branch2a (in-place)
I0528 06:56:24.472002    79 net.cpp:150] Setting up stage1_2/branch2a/bn
I0528 06:56:24.472013    79 net.cpp:157] Top shape: 16 16 76 76 (1478656)
I0528 06:56:24.472018    79 net.cpp:165] Memory required for data: 958169248
I0528 06:56:24.472025    79 layer_factory.hpp:77] Creating layer stage1_2/branch2a/scale
I0528 06:56:24.472034    79 net.cpp:100] Creating Layer stage1_2/branch2a/scale
I0528 06:56:24.472041    79 net.cpp:434] stage1_2/branch2a/scale <- stage1_2/branch2a
I0528 06:56:24.472048    79 net.cpp:395] stage1_2/branch2a/scale -> stage1_2/branch2a (in-place)
I0528 06:56:24.472080    79 layer_factory.hpp:77] Creating layer stage1_2/branch2a/scale
I0528 06:56:24.472189    79 net.cpp:150] Setting up stage1_2/branch2a/scale
I0528 06:56:24.472200    79 net.cpp:157] Top shape: 16 16 76 76 (1478656)
I0528 06:56:24.472205    79 net.cpp:165] Memory required for data: 964083872
I0528 06:56:24.472211    79 layer_factory.hpp:77] Creating layer stage1_2/branch2a/relu
I0528 06:56:24.472218    79 net.cpp:100] Creating Layer stage1_2/branch2a/relu
I0528 06:56:24.472223    79 net.cpp:434] stage1_2/branch2a/relu <- stage1_2/branch2a
I0528 06:56:24.472230    79 net.cpp:395] stage1_2/branch2a/relu -> stage1_2/branch2a (in-place)
I0528 06:56:24.472561    79 net.cpp:150] Setting up stage1_2/branch2a/relu
I0528 06:56:24.472573    79 net.cpp:157] Top shape: 16 16 76 76 (1478656)
I0528 06:56:24.472579    79 net.cpp:165] Memory required for data: 969998496
I0528 06:56:24.472584    79 layer_factory.hpp:77] Creating layer stage1_2/branch2b
I0528 06:56:24.472592    79 net.cpp:100] Creating Layer stage1_2/branch2b
I0528 06:56:24.472600    79 net.cpp:434] stage1_2/branch2b <- stage1_2/branch2a
I0528 06:56:24.472607    79 net.cpp:408] stage1_2/branch2b -> stage1_2/branch2b
I0528 06:56:24.474023    79 net.cpp:150] Setting up stage1_2/branch2b
I0528 06:56:24.474037    79 net.cpp:157] Top shape: 16 16 76 76 (1478656)
I0528 06:56:24.474042    79 net.cpp:165] Memory required for data: 975913120
I0528 06:56:24.474048    79 layer_factory.hpp:77] Creating layer stage1_2/branch2b/bn
I0528 06:56:24.474066    79 net.cpp:100] Creating Layer stage1_2/branch2b/bn
I0528 06:56:24.474071    79 net.cpp:434] stage1_2/branch2b/bn <- stage1_2/branch2b
I0528 06:56:24.474081    79 net.cpp:395] stage1_2/branch2b/bn -> stage1_2/branch2b (in-place)
I0528 06:56:24.474262    79 net.cpp:150] Setting up stage1_2/branch2b/bn
I0528 06:56:24.474274    79 net.cpp:157] Top shape: 16 16 76 76 (1478656)
I0528 06:56:24.474278    79 net.cpp:165] Memory required for data: 981827744
I0528 06:56:24.474285    79 layer_factory.hpp:77] Creating layer stage1_2/branch2b/scale
I0528 06:56:24.474294    79 net.cpp:100] Creating Layer stage1_2/branch2b/scale
I0528 06:56:24.474303    79 net.cpp:434] stage1_2/branch2b/scale <- stage1_2/branch2b
I0528 06:56:24.474308    79 net.cpp:395] stage1_2/branch2b/scale -> stage1_2/branch2b (in-place)
I0528 06:56:24.474340    79 layer_factory.hpp:77] Creating layer stage1_2/branch2b/scale
I0528 06:56:24.474452    79 net.cpp:150] Setting up stage1_2/branch2b/scale
I0528 06:56:24.474463    79 net.cpp:157] Top shape: 16 16 76 76 (1478656)
I0528 06:56:24.474467    79 net.cpp:165] Memory required for data: 987742368
I0528 06:56:24.474473    79 layer_factory.hpp:77] Creating layer stage1_2/branch2b/relu
I0528 06:56:24.474486    79 net.cpp:100] Creating Layer stage1_2/branch2b/relu
I0528 06:56:24.474495    79 net.cpp:434] stage1_2/branch2b/relu <- stage1_2/branch2b
I0528 06:56:24.474501    79 net.cpp:395] stage1_2/branch2b/relu -> stage1_2/branch2b (in-place)
I0528 06:56:24.475129    79 net.cpp:150] Setting up stage1_2/branch2b/relu
I0528 06:56:24.475143    79 net.cpp:157] Top shape: 16 16 76 76 (1478656)
I0528 06:56:24.475148    79 net.cpp:165] Memory required for data: 993656992
I0528 06:56:24.475153    79 layer_factory.hpp:77] Creating layer stage1_2/branch2c
I0528 06:56:24.475162    79 net.cpp:100] Creating Layer stage1_2/branch2c
I0528 06:56:24.475167    79 net.cpp:434] stage1_2/branch2c <- stage1_2/branch2b
I0528 06:56:24.475174    79 net.cpp:408] stage1_2/branch2c -> stage1_2/branch2c
I0528 06:56:24.476552    79 net.cpp:150] Setting up stage1_2/branch2c
I0528 06:56:24.476564    79 net.cpp:157] Top shape: 16 16 76 76 (1478656)
I0528 06:56:24.476581    79 net.cpp:165] Memory required for data: 999571616
I0528 06:56:24.476588    79 layer_factory.hpp:77] Creating layer stage1_2/branch2c/bn
I0528 06:56:24.476595    79 net.cpp:100] Creating Layer stage1_2/branch2c/bn
I0528 06:56:24.476601    79 net.cpp:434] stage1_2/branch2c/bn <- stage1_2/branch2c
I0528 06:56:24.476608    79 net.cpp:395] stage1_2/branch2c/bn -> stage1_2/branch2c (in-place)
I0528 06:56:24.476802    79 net.cpp:150] Setting up stage1_2/branch2c/bn
I0528 06:56:24.476812    79 net.cpp:157] Top shape: 16 16 76 76 (1478656)
I0528 06:56:24.476817    79 net.cpp:165] Memory required for data: 1005486240
I0528 06:56:24.476824    79 layer_factory.hpp:77] Creating layer stage1_2/branch2c/scale
I0528 06:56:24.476832    79 net.cpp:100] Creating Layer stage1_2/branch2c/scale
I0528 06:56:24.476840    79 net.cpp:434] stage1_2/branch2c/scale <- stage1_2/branch2c
I0528 06:56:24.476845    79 net.cpp:395] stage1_2/branch2c/scale -> stage1_2/branch2c (in-place)
I0528 06:56:24.476877    79 layer_factory.hpp:77] Creating layer stage1_2/branch2c/scale
I0528 06:56:24.476987    79 net.cpp:150] Setting up stage1_2/branch2c/scale
I0528 06:56:24.476999    79 net.cpp:157] Top shape: 16 16 76 76 (1478656)
I0528 06:56:24.477002    79 net.cpp:165] Memory required for data: 1011400864
I0528 06:56:24.477010    79 layer_factory.hpp:77] Creating layer stage1_2/branch2c/relu
I0528 06:56:24.477016    79 net.cpp:100] Creating Layer stage1_2/branch2c/relu
I0528 06:56:24.477022    79 net.cpp:434] stage1_2/branch2c/relu <- stage1_2/branch2c
I0528 06:56:24.477030    79 net.cpp:395] stage1_2/branch2c/relu -> stage1_2/branch2c (in-place)
I0528 06:56:24.477344    79 net.cpp:150] Setting up stage1_2/branch2c/relu
I0528 06:56:24.477356    79 net.cpp:157] Top shape: 16 16 76 76 (1478656)
I0528 06:56:24.477361    79 net.cpp:165] Memory required for data: 1017315488
I0528 06:56:24.477366    79 layer_factory.hpp:77] Creating layer stage1_2/concat
I0528 06:56:24.477394    79 net.cpp:100] Creating Layer stage1_2/concat
I0528 06:56:24.477403    79 net.cpp:434] stage1_2/concat <- stage1_1/concat_stage1_1/concat_0_split_2
I0528 06:56:24.477408    79 net.cpp:434] stage1_2/concat <- stage1_2/branch1b
I0528 06:56:24.477414    79 net.cpp:434] stage1_2/concat <- stage1_2/branch2c
I0528 06:56:24.477419    79 net.cpp:408] stage1_2/concat -> stage1_2/concat
I0528 06:56:24.477449    79 net.cpp:150] Setting up stage1_2/concat
I0528 06:56:24.477460    79 net.cpp:157] Top shape: 16 96 76 76 (8871936)
I0528 06:56:24.477465    79 net.cpp:165] Memory required for data: 1052803232
I0528 06:56:24.477470    79 layer_factory.hpp:77] Creating layer stage1_2/concat_stage1_2/concat_0_split
I0528 06:56:24.477478    79 net.cpp:100] Creating Layer stage1_2/concat_stage1_2/concat_0_split
I0528 06:56:24.477483    79 net.cpp:434] stage1_2/concat_stage1_2/concat_0_split <- stage1_2/concat
I0528 06:56:24.477490    79 net.cpp:408] stage1_2/concat_stage1_2/concat_0_split -> stage1_2/concat_stage1_2/concat_0_split_0
I0528 06:56:24.477496    79 net.cpp:408] stage1_2/concat_stage1_2/concat_0_split -> stage1_2/concat_stage1_2/concat_0_split_1
I0528 06:56:24.477504    79 net.cpp:408] stage1_2/concat_stage1_2/concat_0_split -> stage1_2/concat_stage1_2/concat_0_split_2
I0528 06:56:24.477558    79 net.cpp:150] Setting up stage1_2/concat_stage1_2/concat_0_split
I0528 06:56:24.477567    79 net.cpp:157] Top shape: 16 96 76 76 (8871936)
I0528 06:56:24.477573    79 net.cpp:157] Top shape: 16 96 76 76 (8871936)
I0528 06:56:24.477578    79 net.cpp:157] Top shape: 16 96 76 76 (8871936)
I0528 06:56:24.477583    79 net.cpp:165] Memory required for data: 1159266464
I0528 06:56:24.477587    79 layer_factory.hpp:77] Creating layer stage1_3/branch1a
I0528 06:56:24.477597    79 net.cpp:100] Creating Layer stage1_3/branch1a
I0528 06:56:24.477603    79 net.cpp:434] stage1_3/branch1a <- stage1_2/concat_stage1_2/concat_0_split_0
I0528 06:56:24.477610    79 net.cpp:408] stage1_3/branch1a -> stage1_3/branch1a
I0528 06:56:24.479038    79 net.cpp:150] Setting up stage1_3/branch1a
I0528 06:56:24.479053    79 net.cpp:157] Top shape: 16 16 76 76 (1478656)
I0528 06:56:24.479058    79 net.cpp:165] Memory required for data: 1165181088
I0528 06:56:24.479064    79 layer_factory.hpp:77] Creating layer stage1_3/branch1a/bn
I0528 06:56:24.479071    79 net.cpp:100] Creating Layer stage1_3/branch1a/bn
I0528 06:56:24.479076    79 net.cpp:434] stage1_3/branch1a/bn <- stage1_3/branch1a
I0528 06:56:24.479084    79 net.cpp:395] stage1_3/branch1a/bn -> stage1_3/branch1a (in-place)
I0528 06:56:24.479274    79 net.cpp:150] Setting up stage1_3/branch1a/bn
I0528 06:56:24.479285    79 net.cpp:157] Top shape: 16 16 76 76 (1478656)
I0528 06:56:24.479290    79 net.cpp:165] Memory required for data: 1171095712
I0528 06:56:24.479297    79 layer_factory.hpp:77] Creating layer stage1_3/branch1a/scale
I0528 06:56:24.479303    79 net.cpp:100] Creating Layer stage1_3/branch1a/scale
I0528 06:56:24.479310    79 net.cpp:434] stage1_3/branch1a/scale <- stage1_3/branch1a
I0528 06:56:24.479317    79 net.cpp:395] stage1_3/branch1a/scale -> stage1_3/branch1a (in-place)
I0528 06:56:24.479351    79 layer_factory.hpp:77] Creating layer stage1_3/branch1a/scale
I0528 06:56:24.479455    79 net.cpp:150] Setting up stage1_3/branch1a/scale
I0528 06:56:24.479465    79 net.cpp:157] Top shape: 16 16 76 76 (1478656)
I0528 06:56:24.479470    79 net.cpp:165] Memory required for data: 1177010336
I0528 06:56:24.479476    79 layer_factory.hpp:77] Creating layer stage1_3/branch1a/relu
I0528 06:56:24.479482    79 net.cpp:100] Creating Layer stage1_3/branch1a/relu
I0528 06:56:24.479487    79 net.cpp:434] stage1_3/branch1a/relu <- stage1_3/branch1a
I0528 06:56:24.479493    79 net.cpp:395] stage1_3/branch1a/relu -> stage1_3/branch1a (in-place)
I0528 06:56:24.479818    79 net.cpp:150] Setting up stage1_3/branch1a/relu
I0528 06:56:24.479830    79 net.cpp:157] Top shape: 16 16 76 76 (1478656)
I0528 06:56:24.479835    79 net.cpp:165] Memory required for data: 1182924960
I0528 06:56:24.479849    79 layer_factory.hpp:77] Creating layer stage1_3/branch1b
I0528 06:56:24.479861    79 net.cpp:100] Creating Layer stage1_3/branch1b
I0528 06:56:24.479866    79 net.cpp:434] stage1_3/branch1b <- stage1_3/branch1a
I0528 06:56:24.479873    79 net.cpp:408] stage1_3/branch1b -> stage1_3/branch1b
I0528 06:56:24.481585    79 net.cpp:150] Setting up stage1_3/branch1b
I0528 06:56:24.481600    79 net.cpp:157] Top shape: 16 16 76 76 (1478656)
I0528 06:56:24.481604    79 net.cpp:165] Memory required for data: 1188839584
I0528 06:56:24.481611    79 layer_factory.hpp:77] Creating layer stage1_3/branch1b/bn
I0528 06:56:24.481618    79 net.cpp:100] Creating Layer stage1_3/branch1b/bn
I0528 06:56:24.481624    79 net.cpp:434] stage1_3/branch1b/bn <- stage1_3/branch1b
I0528 06:56:24.481631    79 net.cpp:395] stage1_3/branch1b/bn -> stage1_3/branch1b (in-place)
I0528 06:56:24.481815    79 net.cpp:150] Setting up stage1_3/branch1b/bn
I0528 06:56:24.481827    79 net.cpp:157] Top shape: 16 16 76 76 (1478656)
I0528 06:56:24.481832    79 net.cpp:165] Memory required for data: 1194754208
I0528 06:56:24.481838    79 layer_factory.hpp:77] Creating layer stage1_3/branch1b/scale
I0528 06:56:24.481845    79 net.cpp:100] Creating Layer stage1_3/branch1b/scale
I0528 06:56:24.481850    79 net.cpp:434] stage1_3/branch1b/scale <- stage1_3/branch1b
I0528 06:56:24.481858    79 net.cpp:395] stage1_3/branch1b/scale -> stage1_3/branch1b (in-place)
I0528 06:56:24.481892    79 layer_factory.hpp:77] Creating layer stage1_3/branch1b/scale
I0528 06:56:24.482012    79 net.cpp:150] Setting up stage1_3/branch1b/scale
I0528 06:56:24.482023    79 net.cpp:157] Top shape: 16 16 76 76 (1478656)
I0528 06:56:24.482028    79 net.cpp:165] Memory required for data: 1200668832
I0528 06:56:24.482033    79 layer_factory.hpp:77] Creating layer stage1_3/branch1b/relu
I0528 06:56:24.482039    79 net.cpp:100] Creating Layer stage1_3/branch1b/relu
I0528 06:56:24.482044    79 net.cpp:434] stage1_3/branch1b/relu <- stage1_3/branch1b
I0528 06:56:24.482053    79 net.cpp:395] stage1_3/branch1b/relu -> stage1_3/branch1b (in-place)
I0528 06:56:24.482663    79 net.cpp:150] Setting up stage1_3/branch1b/relu
I0528 06:56:24.482677    79 net.cpp:157] Top shape: 16 16 76 76 (1478656)
I0528 06:56:24.482682    79 net.cpp:165] Memory required for data: 1206583456
I0528 06:56:24.482687    79 layer_factory.hpp:77] Creating layer stage1_3/branch2a
I0528 06:56:24.482702    79 net.cpp:100] Creating Layer stage1_3/branch2a
I0528 06:56:24.482708    79 net.cpp:434] stage1_3/branch2a <- stage1_2/concat_stage1_2/concat_0_split_1
I0528 06:56:24.482715    79 net.cpp:408] stage1_3/branch2a -> stage1_3/branch2a
I0528 06:56:24.484139    79 net.cpp:150] Setting up stage1_3/branch2a
I0528 06:56:24.484153    79 net.cpp:157] Top shape: 16 16 76 76 (1478656)
I0528 06:56:24.484158    79 net.cpp:165] Memory required for data: 1212498080
I0528 06:56:24.484165    79 layer_factory.hpp:77] Creating layer stage1_3/branch2a/bn
I0528 06:56:24.484172    79 net.cpp:100] Creating Layer stage1_3/branch2a/bn
I0528 06:56:24.484177    79 net.cpp:434] stage1_3/branch2a/bn <- stage1_3/branch2a
I0528 06:56:24.484185    79 net.cpp:395] stage1_3/branch2a/bn -> stage1_3/branch2a (in-place)
I0528 06:56:24.484364    79 net.cpp:150] Setting up stage1_3/branch2a/bn
I0528 06:56:24.484376    79 net.cpp:157] Top shape: 16 16 76 76 (1478656)
I0528 06:56:24.484381    79 net.cpp:165] Memory required for data: 1218412704
I0528 06:56:24.484388    79 layer_factory.hpp:77] Creating layer stage1_3/branch2a/scale
I0528 06:56:24.484395    79 net.cpp:100] Creating Layer stage1_3/branch2a/scale
I0528 06:56:24.484401    79 net.cpp:434] stage1_3/branch2a/scale <- stage1_3/branch2a
I0528 06:56:24.484406    79 net.cpp:395] stage1_3/branch2a/scale -> stage1_3/branch2a (in-place)
I0528 06:56:24.484441    79 layer_factory.hpp:77] Creating layer stage1_3/branch2a/scale
I0528 06:56:24.484565    79 net.cpp:150] Setting up stage1_3/branch2a/scale
I0528 06:56:24.484576    79 net.cpp:157] Top shape: 16 16 76 76 (1478656)
I0528 06:56:24.484592    79 net.cpp:165] Memory required for data: 1224327328
I0528 06:56:24.484601    79 layer_factory.hpp:77] Creating layer stage1_3/branch2a/relu
I0528 06:56:24.484609    79 net.cpp:100] Creating Layer stage1_3/branch2a/relu
I0528 06:56:24.484616    79 net.cpp:434] stage1_3/branch2a/relu <- stage1_3/branch2a
I0528 06:56:24.484621    79 net.cpp:395] stage1_3/branch2a/relu -> stage1_3/branch2a (in-place)
I0528 06:56:24.484937    79 net.cpp:150] Setting up stage1_3/branch2a/relu
I0528 06:56:24.484948    79 net.cpp:157] Top shape: 16 16 76 76 (1478656)
I0528 06:56:24.484953    79 net.cpp:165] Memory required for data: 1230241952
I0528 06:56:24.484958    79 layer_factory.hpp:77] Creating layer stage1_3/branch2b
I0528 06:56:24.484966    79 net.cpp:100] Creating Layer stage1_3/branch2b
I0528 06:56:24.484972    79 net.cpp:434] stage1_3/branch2b <- stage1_3/branch2a
I0528 06:56:24.484977    79 net.cpp:408] stage1_3/branch2b -> stage1_3/branch2b
I0528 06:56:24.486423    79 net.cpp:150] Setting up stage1_3/branch2b
I0528 06:56:24.486438    79 net.cpp:157] Top shape: 16 16 76 76 (1478656)
I0528 06:56:24.486443    79 net.cpp:165] Memory required for data: 1236156576
I0528 06:56:24.486450    79 layer_factory.hpp:77] Creating layer stage1_3/branch2b/bn
I0528 06:56:24.486459    79 net.cpp:100] Creating Layer stage1_3/branch2b/bn
I0528 06:56:24.486464    79 net.cpp:434] stage1_3/branch2b/bn <- stage1_3/branch2b
I0528 06:56:24.486472    79 net.cpp:395] stage1_3/branch2b/bn -> stage1_3/branch2b (in-place)
I0528 06:56:24.486650    79 net.cpp:150] Setting up stage1_3/branch2b/bn
I0528 06:56:24.486661    79 net.cpp:157] Top shape: 16 16 76 76 (1478656)
I0528 06:56:24.486665    79 net.cpp:165] Memory required for data: 1242071200
I0528 06:56:24.486672    79 layer_factory.hpp:77] Creating layer stage1_3/branch2b/scale
I0528 06:56:24.486680    79 net.cpp:100] Creating Layer stage1_3/branch2b/scale
I0528 06:56:24.486686    79 net.cpp:434] stage1_3/branch2b/scale <- stage1_3/branch2b
I0528 06:56:24.486693    79 net.cpp:395] stage1_3/branch2b/scale -> stage1_3/branch2b (in-place)
I0528 06:56:24.486726    79 layer_factory.hpp:77] Creating layer stage1_3/branch2b/scale
I0528 06:56:24.486837    79 net.cpp:150] Setting up stage1_3/branch2b/scale
I0528 06:56:24.486847    79 net.cpp:157] Top shape: 16 16 76 76 (1478656)
I0528 06:56:24.486852    79 net.cpp:165] Memory required for data: 1247985824
I0528 06:56:24.486858    79 layer_factory.hpp:77] Creating layer stage1_3/branch2b/relu
I0528 06:56:24.486865    79 net.cpp:100] Creating Layer stage1_3/branch2b/relu
I0528 06:56:24.486871    79 net.cpp:434] stage1_3/branch2b/relu <- stage1_3/branch2b
I0528 06:56:24.486878    79 net.cpp:395] stage1_3/branch2b/relu -> stage1_3/branch2b (in-place)
I0528 06:56:24.487198    79 net.cpp:150] Setting up stage1_3/branch2b/relu
I0528 06:56:24.487210    79 net.cpp:157] Top shape: 16 16 76 76 (1478656)
I0528 06:56:24.487215    79 net.cpp:165] Memory required for data: 1253900448
I0528 06:56:24.487220    79 layer_factory.hpp:77] Creating layer stage1_3/branch2c
I0528 06:56:24.487228    79 net.cpp:100] Creating Layer stage1_3/branch2c
I0528 06:56:24.487236    79 net.cpp:434] stage1_3/branch2c <- stage1_3/branch2b
I0528 06:56:24.487242    79 net.cpp:408] stage1_3/branch2c -> stage1_3/branch2c
I0528 06:56:24.488662    79 net.cpp:150] Setting up stage1_3/branch2c
I0528 06:56:24.488677    79 net.cpp:157] Top shape: 16 16 76 76 (1478656)
I0528 06:56:24.488682    79 net.cpp:165] Memory required for data: 1259815072
I0528 06:56:24.488688    79 layer_factory.hpp:77] Creating layer stage1_3/branch2c/bn
I0528 06:56:24.488695    79 net.cpp:100] Creating Layer stage1_3/branch2c/bn
I0528 06:56:24.488703    79 net.cpp:434] stage1_3/branch2c/bn <- stage1_3/branch2c
I0528 06:56:24.488711    79 net.cpp:395] stage1_3/branch2c/bn -> stage1_3/branch2c (in-place)
I0528 06:56:24.488888    79 net.cpp:150] Setting up stage1_3/branch2c/bn
I0528 06:56:24.488899    79 net.cpp:157] Top shape: 16 16 76 76 (1478656)
I0528 06:56:24.488903    79 net.cpp:165] Memory required for data: 1265729696
I0528 06:56:24.488922    79 layer_factory.hpp:77] Creating layer stage1_3/branch2c/scale
I0528 06:56:24.488931    79 net.cpp:100] Creating Layer stage1_3/branch2c/scale
I0528 06:56:24.488937    79 net.cpp:434] stage1_3/branch2c/scale <- stage1_3/branch2c
I0528 06:56:24.488943    79 net.cpp:395] stage1_3/branch2c/scale -> stage1_3/branch2c (in-place)
I0528 06:56:24.488978    79 layer_factory.hpp:77] Creating layer stage1_3/branch2c/scale
I0528 06:56:24.489107    79 net.cpp:150] Setting up stage1_3/branch2c/scale
I0528 06:56:24.489116    79 net.cpp:157] Top shape: 16 16 76 76 (1478656)
I0528 06:56:24.489121    79 net.cpp:165] Memory required for data: 1271644320
I0528 06:56:24.489128    79 layer_factory.hpp:77] Creating layer stage1_3/branch2c/relu
I0528 06:56:24.489135    79 net.cpp:100] Creating Layer stage1_3/branch2c/relu
I0528 06:56:24.489140    79 net.cpp:434] stage1_3/branch2c/relu <- stage1_3/branch2c
I0528 06:56:24.489145    79 net.cpp:395] stage1_3/branch2c/relu -> stage1_3/branch2c (in-place)
I0528 06:56:24.489476    79 net.cpp:150] Setting up stage1_3/branch2c/relu
I0528 06:56:24.489488    79 net.cpp:157] Top shape: 16 16 76 76 (1478656)
I0528 06:56:24.489492    79 net.cpp:165] Memory required for data: 1277558944
I0528 06:56:24.489497    79 layer_factory.hpp:77] Creating layer stage1_3/concat
I0528 06:56:24.489504    79 net.cpp:100] Creating Layer stage1_3/concat
I0528 06:56:24.489511    79 net.cpp:434] stage1_3/concat <- stage1_2/concat_stage1_2/concat_0_split_2
I0528 06:56:24.489518    79 net.cpp:434] stage1_3/concat <- stage1_3/branch1b
I0528 06:56:24.489523    79 net.cpp:434] stage1_3/concat <- stage1_3/branch2c
I0528 06:56:24.489531    79 net.cpp:408] stage1_3/concat -> stage1_3/concat
I0528 06:56:24.489554    79 net.cpp:150] Setting up stage1_3/concat
I0528 06:56:24.489563    79 net.cpp:157] Top shape: 16 128 76 76 (11829248)
I0528 06:56:24.489568    79 net.cpp:165] Memory required for data: 1324875936
I0528 06:56:24.489575    79 layer_factory.hpp:77] Creating layer stage1_tb
I0528 06:56:24.489585    79 net.cpp:100] Creating Layer stage1_tb
I0528 06:56:24.489593    79 net.cpp:434] stage1_tb <- stage1_3/concat
I0528 06:56:24.489600    79 net.cpp:408] stage1_tb -> stage1_tb
I0528 06:56:24.491084    79 net.cpp:150] Setting up stage1_tb
I0528 06:56:24.491099    79 net.cpp:157] Top shape: 16 128 76 76 (11829248)
I0528 06:56:24.491104    79 net.cpp:165] Memory required for data: 1372192928
I0528 06:56:24.491111    79 layer_factory.hpp:77] Creating layer stage1_tb/bn
I0528 06:56:24.491123    79 net.cpp:100] Creating Layer stage1_tb/bn
I0528 06:56:24.491130    79 net.cpp:434] stage1_tb/bn <- stage1_tb
I0528 06:56:24.491138    79 net.cpp:395] stage1_tb/bn -> stage1_tb (in-place)
I0528 06:56:24.491304    79 net.cpp:150] Setting up stage1_tb/bn
I0528 06:56:24.491314    79 net.cpp:157] Top shape: 16 128 76 76 (11829248)
I0528 06:56:24.491319    79 net.cpp:165] Memory required for data: 1419509920
I0528 06:56:24.491327    79 layer_factory.hpp:77] Creating layer stage1_tb/scale
I0528 06:56:24.491333    79 net.cpp:100] Creating Layer stage1_tb/scale
I0528 06:56:24.491339    79 net.cpp:434] stage1_tb/scale <- stage1_tb
I0528 06:56:24.491346    79 net.cpp:395] stage1_tb/scale -> stage1_tb (in-place)
I0528 06:56:24.491380    79 layer_factory.hpp:77] Creating layer stage1_tb/scale
I0528 06:56:24.491487    79 net.cpp:150] Setting up stage1_tb/scale
I0528 06:56:24.491497    79 net.cpp:157] Top shape: 16 128 76 76 (11829248)
I0528 06:56:24.491502    79 net.cpp:165] Memory required for data: 1466826912
I0528 06:56:24.491508    79 layer_factory.hpp:77] Creating layer stage1_tb/relu
I0528 06:56:24.491520    79 net.cpp:100] Creating Layer stage1_tb/relu
I0528 06:56:24.491526    79 net.cpp:434] stage1_tb/relu <- stage1_tb
I0528 06:56:24.491533    79 net.cpp:395] stage1_tb/relu -> stage1_tb (in-place)
I0528 06:56:24.492156    79 net.cpp:150] Setting up stage1_tb/relu
I0528 06:56:24.492169    79 net.cpp:157] Top shape: 16 128 76 76 (11829248)
I0528 06:56:24.492174    79 net.cpp:165] Memory required for data: 1514143904
I0528 06:56:24.492189    79 layer_factory.hpp:77] Creating layer stage1_tb/pool
I0528 06:56:24.492197    79 net.cpp:100] Creating Layer stage1_tb/pool
I0528 06:56:24.492202    79 net.cpp:434] stage1_tb/pool <- stage1_tb
I0528 06:56:24.492209    79 net.cpp:408] stage1_tb/pool -> stage1_tb/pool
I0528 06:56:24.492548    79 net.cpp:150] Setting up stage1_tb/pool
I0528 06:56:24.492561    79 net.cpp:157] Top shape: 16 128 38 38 (2957312)
I0528 06:56:24.492565    79 net.cpp:165] Memory required for data: 1525973152
I0528 06:56:24.492571    79 layer_factory.hpp:77] Creating layer stage1_tb/pool_stage1_tb/pool_0_split
I0528 06:56:24.492583    79 net.cpp:100] Creating Layer stage1_tb/pool_stage1_tb/pool_0_split
I0528 06:56:24.492589    79 net.cpp:434] stage1_tb/pool_stage1_tb/pool_0_split <- stage1_tb/pool
I0528 06:56:24.492597    79 net.cpp:408] stage1_tb/pool_stage1_tb/pool_0_split -> stage1_tb/pool_stage1_tb/pool_0_split_0
I0528 06:56:24.492605    79 net.cpp:408] stage1_tb/pool_stage1_tb/pool_0_split -> stage1_tb/pool_stage1_tb/pool_0_split_1
I0528 06:56:24.492614    79 net.cpp:408] stage1_tb/pool_stage1_tb/pool_0_split -> stage1_tb/pool_stage1_tb/pool_0_split_2
I0528 06:56:24.492658    79 net.cpp:150] Setting up stage1_tb/pool_stage1_tb/pool_0_split
I0528 06:56:24.492669    79 net.cpp:157] Top shape: 16 128 38 38 (2957312)
I0528 06:56:24.492676    79 net.cpp:157] Top shape: 16 128 38 38 (2957312)
I0528 06:56:24.492681    79 net.cpp:157] Top shape: 16 128 38 38 (2957312)
I0528 06:56:24.492686    79 net.cpp:165] Memory required for data: 1561460896
I0528 06:56:24.492691    79 layer_factory.hpp:77] Creating layer stage2_1/branch1a
I0528 06:56:24.492700    79 net.cpp:100] Creating Layer stage2_1/branch1a
I0528 06:56:24.492707    79 net.cpp:434] stage2_1/branch1a <- stage1_tb/pool_stage1_tb/pool_0_split_0
I0528 06:56:24.492713    79 net.cpp:408] stage2_1/branch1a -> stage2_1/branch1a
I0528 06:56:24.494153    79 net.cpp:150] Setting up stage2_1/branch1a
I0528 06:56:24.494168    79 net.cpp:157] Top shape: 16 32 38 38 (739328)
I0528 06:56:24.494173    79 net.cpp:165] Memory required for data: 1564418208
I0528 06:56:24.494179    79 layer_factory.hpp:77] Creating layer stage2_1/branch1a/bn
I0528 06:56:24.494186    79 net.cpp:100] Creating Layer stage2_1/branch1a/bn
I0528 06:56:24.494192    79 net.cpp:434] stage2_1/branch1a/bn <- stage2_1/branch1a
I0528 06:56:24.494205    79 net.cpp:395] stage2_1/branch1a/bn -> stage2_1/branch1a (in-place)
I0528 06:56:24.494388    79 net.cpp:150] Setting up stage2_1/branch1a/bn
I0528 06:56:24.494398    79 net.cpp:157] Top shape: 16 32 38 38 (739328)
I0528 06:56:24.494403    79 net.cpp:165] Memory required for data: 1567375520
I0528 06:56:24.494410    79 layer_factory.hpp:77] Creating layer stage2_1/branch1a/scale
I0528 06:56:24.494417    79 net.cpp:100] Creating Layer stage2_1/branch1a/scale
I0528 06:56:24.494423    79 net.cpp:434] stage2_1/branch1a/scale <- stage2_1/branch1a
I0528 06:56:24.494431    79 net.cpp:395] stage2_1/branch1a/scale -> stage2_1/branch1a (in-place)
I0528 06:56:24.494473    79 layer_factory.hpp:77] Creating layer stage2_1/branch1a/scale
I0528 06:56:24.494585    79 net.cpp:150] Setting up stage2_1/branch1a/scale
I0528 06:56:24.494596    79 net.cpp:157] Top shape: 16 32 38 38 (739328)
I0528 06:56:24.494601    79 net.cpp:165] Memory required for data: 1570332832
I0528 06:56:24.494607    79 layer_factory.hpp:77] Creating layer stage2_1/branch1a/relu
I0528 06:56:24.494613    79 net.cpp:100] Creating Layer stage2_1/branch1a/relu
I0528 06:56:24.494619    79 net.cpp:434] stage2_1/branch1a/relu <- stage2_1/branch1a
I0528 06:56:24.494626    79 net.cpp:395] stage2_1/branch1a/relu -> stage2_1/branch1a (in-place)
I0528 06:56:24.494951    79 net.cpp:150] Setting up stage2_1/branch1a/relu
I0528 06:56:24.494961    79 net.cpp:157] Top shape: 16 32 38 38 (739328)
I0528 06:56:24.494966    79 net.cpp:165] Memory required for data: 1573290144
I0528 06:56:24.494971    79 layer_factory.hpp:77] Creating layer stage2_1/branch1b
I0528 06:56:24.494979    79 net.cpp:100] Creating Layer stage2_1/branch1b
I0528 06:56:24.495002    79 net.cpp:434] stage2_1/branch1b <- stage2_1/branch1a
I0528 06:56:24.495008    79 net.cpp:408] stage2_1/branch1b -> stage2_1/branch1b
I0528 06:56:24.496487    79 net.cpp:150] Setting up stage2_1/branch1b
I0528 06:56:24.496501    79 net.cpp:157] Top shape: 16 16 38 38 (369664)
I0528 06:56:24.496506    79 net.cpp:165] Memory required for data: 1574768800
I0528 06:56:24.496513    79 layer_factory.hpp:77] Creating layer stage2_1/branch1b/bn
I0528 06:56:24.496520    79 net.cpp:100] Creating Layer stage2_1/branch1b/bn
I0528 06:56:24.496526    79 net.cpp:434] stage2_1/branch1b/bn <- stage2_1/branch1b
I0528 06:56:24.496532    79 net.cpp:395] stage2_1/branch1b/bn -> stage2_1/branch1b (in-place)
I0528 06:56:24.496723    79 net.cpp:150] Setting up stage2_1/branch1b/bn
I0528 06:56:24.496734    79 net.cpp:157] Top shape: 16 16 38 38 (369664)
I0528 06:56:24.496739    79 net.cpp:165] Memory required for data: 1576247456
I0528 06:56:24.496754    79 layer_factory.hpp:77] Creating layer stage2_1/branch1b/scale
I0528 06:56:24.496765    79 net.cpp:100] Creating Layer stage2_1/branch1b/scale
I0528 06:56:24.496771    79 net.cpp:434] stage2_1/branch1b/scale <- stage2_1/branch1b
I0528 06:56:24.496778    79 net.cpp:395] stage2_1/branch1b/scale -> stage2_1/branch1b (in-place)
I0528 06:56:24.496820    79 layer_factory.hpp:77] Creating layer stage2_1/branch1b/scale
I0528 06:56:24.496925    79 net.cpp:150] Setting up stage2_1/branch1b/scale
I0528 06:56:24.496938    79 net.cpp:157] Top shape: 16 16 38 38 (369664)
I0528 06:56:24.496943    79 net.cpp:165] Memory required for data: 1577726112
I0528 06:56:24.496949    79 layer_factory.hpp:77] Creating layer stage2_1/branch1b/relu
I0528 06:56:24.496955    79 net.cpp:100] Creating Layer stage2_1/branch1b/relu
I0528 06:56:24.496961    79 net.cpp:434] stage2_1/branch1b/relu <- stage2_1/branch1b
I0528 06:56:24.496968    79 net.cpp:395] stage2_1/branch1b/relu -> stage2_1/branch1b (in-place)
I0528 06:56:24.497577    79 net.cpp:150] Setting up stage2_1/branch1b/relu
I0528 06:56:24.497591    79 net.cpp:157] Top shape: 16 16 38 38 (369664)
I0528 06:56:24.497596    79 net.cpp:165] Memory required for data: 1579204768
I0528 06:56:24.497601    79 layer_factory.hpp:77] Creating layer stage2_1/branch2a
I0528 06:56:24.497609    79 net.cpp:100] Creating Layer stage2_1/branch2a
I0528 06:56:24.497614    79 net.cpp:434] stage2_1/branch2a <- stage1_tb/pool_stage1_tb/pool_0_split_1
I0528 06:56:24.497622    79 net.cpp:408] stage2_1/branch2a -> stage2_1/branch2a
I0528 06:56:24.499091    79 net.cpp:150] Setting up stage2_1/branch2a
I0528 06:56:24.499106    79 net.cpp:157] Top shape: 16 32 38 38 (739328)
I0528 06:56:24.499111    79 net.cpp:165] Memory required for data: 1582162080
I0528 06:56:24.499119    79 layer_factory.hpp:77] Creating layer stage2_1/branch2a/bn
I0528 06:56:24.499125    79 net.cpp:100] Creating Layer stage2_1/branch2a/bn
I0528 06:56:24.499131    79 net.cpp:434] stage2_1/branch2a/bn <- stage2_1/branch2a
I0528 06:56:24.499137    79 net.cpp:395] stage2_1/branch2a/bn -> stage2_1/branch2a (in-place)
I0528 06:56:24.499313    79 net.cpp:150] Setting up stage2_1/branch2a/bn
I0528 06:56:24.499323    79 net.cpp:157] Top shape: 16 32 38 38 (739328)
I0528 06:56:24.499328    79 net.cpp:165] Memory required for data: 1585119392
I0528 06:56:24.499336    79 layer_factory.hpp:77] Creating layer stage2_1/branch2a/scale
I0528 06:56:24.499348    79 net.cpp:100] Creating Layer stage2_1/branch2a/scale
I0528 06:56:24.499354    79 net.cpp:434] stage2_1/branch2a/scale <- stage2_1/branch2a
I0528 06:56:24.499361    79 net.cpp:395] stage2_1/branch2a/scale -> stage2_1/branch2a (in-place)
I0528 06:56:24.499397    79 layer_factory.hpp:77] Creating layer stage2_1/branch2a/scale
I0528 06:56:24.499501    79 net.cpp:150] Setting up stage2_1/branch2a/scale
I0528 06:56:24.499511    79 net.cpp:157] Top shape: 16 32 38 38 (739328)
I0528 06:56:24.499516    79 net.cpp:165] Memory required for data: 1588076704
I0528 06:56:24.499522    79 layer_factory.hpp:77] Creating layer stage2_1/branch2a/relu
I0528 06:56:24.499528    79 net.cpp:100] Creating Layer stage2_1/branch2a/relu
I0528 06:56:24.499545    79 net.cpp:434] stage2_1/branch2a/relu <- stage2_1/branch2a
I0528 06:56:24.499553    79 net.cpp:395] stage2_1/branch2a/relu -> stage2_1/branch2a (in-place)
I0528 06:56:24.499878    79 net.cpp:150] Setting up stage2_1/branch2a/relu
I0528 06:56:24.499891    79 net.cpp:157] Top shape: 16 32 38 38 (739328)
I0528 06:56:24.499894    79 net.cpp:165] Memory required for data: 1591034016
I0528 06:56:24.499899    79 layer_factory.hpp:77] Creating layer stage2_1/branch2b
I0528 06:56:24.499907    79 net.cpp:100] Creating Layer stage2_1/branch2b
I0528 06:56:24.499913    79 net.cpp:434] stage2_1/branch2b <- stage2_1/branch2a
I0528 06:56:24.499922    79 net.cpp:408] stage2_1/branch2b -> stage2_1/branch2b
I0528 06:56:24.501651    79 net.cpp:150] Setting up stage2_1/branch2b
I0528 06:56:24.501664    79 net.cpp:157] Top shape: 16 16 38 38 (369664)
I0528 06:56:24.501669    79 net.cpp:165] Memory required for data: 1592512672
I0528 06:56:24.501677    79 layer_factory.hpp:77] Creating layer stage2_1/branch2b/bn
I0528 06:56:24.501683    79 net.cpp:100] Creating Layer stage2_1/branch2b/bn
I0528 06:56:24.501688    79 net.cpp:434] stage2_1/branch2b/bn <- stage2_1/branch2b
I0528 06:56:24.501698    79 net.cpp:395] stage2_1/branch2b/bn -> stage2_1/branch2b (in-place)
I0528 06:56:24.501888    79 net.cpp:150] Setting up stage2_1/branch2b/bn
I0528 06:56:24.501897    79 net.cpp:157] Top shape: 16 16 38 38 (369664)
I0528 06:56:24.501902    79 net.cpp:165] Memory required for data: 1593991328
I0528 06:56:24.501910    79 layer_factory.hpp:77] Creating layer stage2_1/branch2b/scale
I0528 06:56:24.501917    79 net.cpp:100] Creating Layer stage2_1/branch2b/scale
I0528 06:56:24.501922    79 net.cpp:434] stage2_1/branch2b/scale <- stage2_1/branch2b
I0528 06:56:24.501929    79 net.cpp:395] stage2_1/branch2b/scale -> stage2_1/branch2b (in-place)
I0528 06:56:24.501965    79 layer_factory.hpp:77] Creating layer stage2_1/branch2b/scale
I0528 06:56:24.502081    79 net.cpp:150] Setting up stage2_1/branch2b/scale
I0528 06:56:24.502091    79 net.cpp:157] Top shape: 16 16 38 38 (369664)
I0528 06:56:24.502095    79 net.cpp:165] Memory required for data: 1595469984
I0528 06:56:24.502104    79 layer_factory.hpp:77] Creating layer stage2_1/branch2b/relu
I0528 06:56:24.502110    79 net.cpp:100] Creating Layer stage2_1/branch2b/relu
I0528 06:56:24.502115    79 net.cpp:434] stage2_1/branch2b/relu <- stage2_1/branch2b
I0528 06:56:24.502120    79 net.cpp:395] stage2_1/branch2b/relu -> stage2_1/branch2b (in-place)
I0528 06:56:24.502452    79 net.cpp:150] Setting up stage2_1/branch2b/relu
I0528 06:56:24.502465    79 net.cpp:157] Top shape: 16 16 38 38 (369664)
I0528 06:56:24.502470    79 net.cpp:165] Memory required for data: 1596948640
I0528 06:56:24.502473    79 layer_factory.hpp:77] Creating layer stage2_1/branch2c
I0528 06:56:24.502490    79 net.cpp:100] Creating Layer stage2_1/branch2c
I0528 06:56:24.502496    79 net.cpp:434] stage2_1/branch2c <- stage2_1/branch2b
I0528 06:56:24.502504    79 net.cpp:408] stage2_1/branch2c -> stage2_1/branch2c
I0528 06:56:24.503942    79 net.cpp:150] Setting up stage2_1/branch2c
I0528 06:56:24.503957    79 net.cpp:157] Top shape: 16 16 38 38 (369664)
I0528 06:56:24.503962    79 net.cpp:165] Memory required for data: 1598427296
I0528 06:56:24.503968    79 layer_factory.hpp:77] Creating layer stage2_1/branch2c/bn
I0528 06:56:24.503974    79 net.cpp:100] Creating Layer stage2_1/branch2c/bn
I0528 06:56:24.503981    79 net.cpp:434] stage2_1/branch2c/bn <- stage2_1/branch2c
I0528 06:56:24.503988    79 net.cpp:395] stage2_1/branch2c/bn -> stage2_1/branch2c (in-place)
I0528 06:56:24.504173    79 net.cpp:150] Setting up stage2_1/branch2c/bn
I0528 06:56:24.504182    79 net.cpp:157] Top shape: 16 16 38 38 (369664)
I0528 06:56:24.504189    79 net.cpp:165] Memory required for data: 1599905952
I0528 06:56:24.504196    79 layer_factory.hpp:77] Creating layer stage2_1/branch2c/scale
I0528 06:56:24.504202    79 net.cpp:100] Creating Layer stage2_1/branch2c/scale
I0528 06:56:24.504207    79 net.cpp:434] stage2_1/branch2c/scale <- stage2_1/branch2c
I0528 06:56:24.504226    79 net.cpp:395] stage2_1/branch2c/scale -> stage2_1/branch2c (in-place)
I0528 06:56:24.504269    79 layer_factory.hpp:77] Creating layer stage2_1/branch2c/scale
I0528 06:56:24.504395    79 net.cpp:150] Setting up stage2_1/branch2c/scale
I0528 06:56:24.504405    79 net.cpp:157] Top shape: 16 16 38 38 (369664)
I0528 06:56:24.504411    79 net.cpp:165] Memory required for data: 1601384608
I0528 06:56:24.504418    79 layer_factory.hpp:77] Creating layer stage2_1/branch2c/relu
I0528 06:56:24.504425    79 net.cpp:100] Creating Layer stage2_1/branch2c/relu
I0528 06:56:24.504429    79 net.cpp:434] stage2_1/branch2c/relu <- stage2_1/branch2c
I0528 06:56:24.504436    79 net.cpp:395] stage2_1/branch2c/relu -> stage2_1/branch2c (in-place)
I0528 06:56:24.505071    79 net.cpp:150] Setting up stage2_1/branch2c/relu
I0528 06:56:24.505085    79 net.cpp:157] Top shape: 16 16 38 38 (369664)
I0528 06:56:24.505089    79 net.cpp:165] Memory required for data: 1602863264
I0528 06:56:24.505095    79 layer_factory.hpp:77] Creating layer stage2_1/concat
I0528 06:56:24.505102    79 net.cpp:100] Creating Layer stage2_1/concat
I0528 06:56:24.505110    79 net.cpp:434] stage2_1/concat <- stage1_tb/pool_stage1_tb/pool_0_split_2
I0528 06:56:24.505117    79 net.cpp:434] stage2_1/concat <- stage2_1/branch1b
I0528 06:56:24.505123    79 net.cpp:434] stage2_1/concat <- stage2_1/branch2c
I0528 06:56:24.505128    79 net.cpp:408] stage2_1/concat -> stage2_1/concat
I0528 06:56:24.505156    79 net.cpp:150] Setting up stage2_1/concat
I0528 06:56:24.505164    79 net.cpp:157] Top shape: 16 160 38 38 (3696640)
I0528 06:56:24.505172    79 net.cpp:165] Memory required for data: 1617649824
I0528 06:56:24.505178    79 layer_factory.hpp:77] Creating layer stage2_1/concat_stage2_1/concat_0_split
I0528 06:56:24.505194    79 net.cpp:100] Creating Layer stage2_1/concat_stage2_1/concat_0_split
I0528 06:56:24.505203    79 net.cpp:434] stage2_1/concat_stage2_1/concat_0_split <- stage2_1/concat
I0528 06:56:24.505213    79 net.cpp:408] stage2_1/concat_stage2_1/concat_0_split -> stage2_1/concat_stage2_1/concat_0_split_0
I0528 06:56:24.505220    79 net.cpp:408] stage2_1/concat_stage2_1/concat_0_split -> stage2_1/concat_stage2_1/concat_0_split_1
I0528 06:56:24.505226    79 net.cpp:408] stage2_1/concat_stage2_1/concat_0_split -> stage2_1/concat_stage2_1/concat_0_split_2
I0528 06:56:24.505270    79 net.cpp:150] Setting up stage2_1/concat_stage2_1/concat_0_split
I0528 06:56:24.505280    79 net.cpp:157] Top shape: 16 160 38 38 (3696640)
I0528 06:56:24.505285    79 net.cpp:157] Top shape: 16 160 38 38 (3696640)
I0528 06:56:24.505292    79 net.cpp:157] Top shape: 16 160 38 38 (3696640)
I0528 06:56:24.505298    79 net.cpp:165] Memory required for data: 1662009504
I0528 06:56:24.505306    79 layer_factory.hpp:77] Creating layer stage2_2/branch1a
I0528 06:56:24.505321    79 net.cpp:100] Creating Layer stage2_2/branch1a
I0528 06:56:24.505331    79 net.cpp:434] stage2_2/branch1a <- stage2_1/concat_stage2_1/concat_0_split_0
I0528 06:56:24.505336    79 net.cpp:408] stage2_2/branch1a -> stage2_2/branch1a
I0528 06:56:24.506794    79 net.cpp:150] Setting up stage2_2/branch1a
I0528 06:56:24.506808    79 net.cpp:157] Top shape: 16 32 38 38 (739328)
I0528 06:56:24.506814    79 net.cpp:165] Memory required for data: 1664966816
I0528 06:56:24.506820    79 layer_factory.hpp:77] Creating layer stage2_2/branch1a/bn
I0528 06:56:24.506829    79 net.cpp:100] Creating Layer stage2_2/branch1a/bn
I0528 06:56:24.506834    79 net.cpp:434] stage2_2/branch1a/bn <- stage2_2/branch1a
I0528 06:56:24.506844    79 net.cpp:395] stage2_2/branch1a/bn -> stage2_2/branch1a (in-place)
I0528 06:56:24.507032    79 net.cpp:150] Setting up stage2_2/branch1a/bn
I0528 06:56:24.507043    79 net.cpp:157] Top shape: 16 32 38 38 (739328)
I0528 06:56:24.507048    79 net.cpp:165] Memory required for data: 1667924128
I0528 06:56:24.507055    79 layer_factory.hpp:77] Creating layer stage2_2/branch1a/scale
I0528 06:56:24.507062    79 net.cpp:100] Creating Layer stage2_2/branch1a/scale
I0528 06:56:24.507081    79 net.cpp:434] stage2_2/branch1a/scale <- stage2_2/branch1a
I0528 06:56:24.507087    79 net.cpp:395] stage2_2/branch1a/scale -> stage2_2/branch1a (in-place)
I0528 06:56:24.507125    79 layer_factory.hpp:77] Creating layer stage2_2/branch1a/scale
I0528 06:56:24.507251    79 net.cpp:150] Setting up stage2_2/branch1a/scale
I0528 06:56:24.507262    79 net.cpp:157] Top shape: 16 32 38 38 (739328)
I0528 06:56:24.507266    79 net.cpp:165] Memory required for data: 1670881440
I0528 06:56:24.507273    79 layer_factory.hpp:77] Creating layer stage2_2/branch1a/relu
I0528 06:56:24.507279    79 net.cpp:100] Creating Layer stage2_2/branch1a/relu
I0528 06:56:24.507285    79 net.cpp:434] stage2_2/branch1a/relu <- stage2_2/branch1a
I0528 06:56:24.507290    79 net.cpp:395] stage2_2/branch1a/relu -> stage2_2/branch1a (in-place)
I0528 06:56:24.507647    79 net.cpp:150] Setting up stage2_2/branch1a/relu
I0528 06:56:24.507658    79 net.cpp:157] Top shape: 16 32 38 38 (739328)
I0528 06:56:24.507663    79 net.cpp:165] Memory required for data: 1673838752
I0528 06:56:24.507668    79 layer_factory.hpp:77] Creating layer stage2_2/branch1b
I0528 06:56:24.507676    79 net.cpp:100] Creating Layer stage2_2/branch1b
I0528 06:56:24.507683    79 net.cpp:434] stage2_2/branch1b <- stage2_2/branch1a
I0528 06:56:24.507691    79 net.cpp:408] stage2_2/branch1b -> stage2_2/branch1b
I0528 06:56:24.509158    79 net.cpp:150] Setting up stage2_2/branch1b
I0528 06:56:24.509172    79 net.cpp:157] Top shape: 16 16 38 38 (369664)
I0528 06:56:24.509177    79 net.cpp:165] Memory required for data: 1675317408
I0528 06:56:24.509184    79 layer_factory.hpp:77] Creating layer stage2_2/branch1b/bn
I0528 06:56:24.509191    79 net.cpp:100] Creating Layer stage2_2/branch1b/bn
I0528 06:56:24.509197    79 net.cpp:434] stage2_2/branch1b/bn <- stage2_2/branch1b
I0528 06:56:24.509202    79 net.cpp:395] stage2_2/branch1b/bn -> stage2_2/branch1b (in-place)
I0528 06:56:24.509387    79 net.cpp:150] Setting up stage2_2/branch1b/bn
I0528 06:56:24.509397    79 net.cpp:157] Top shape: 16 16 38 38 (369664)
I0528 06:56:24.509402    79 net.cpp:165] Memory required for data: 1676796064
I0528 06:56:24.509409    79 layer_factory.hpp:77] Creating layer stage2_2/branch1b/scale
I0528 06:56:24.509416    79 net.cpp:100] Creating Layer stage2_2/branch1b/scale
I0528 06:56:24.509423    79 net.cpp:434] stage2_2/branch1b/scale <- stage2_2/branch1b
I0528 06:56:24.509429    79 net.cpp:395] stage2_2/branch1b/scale -> stage2_2/branch1b (in-place)
I0528 06:56:24.509464    79 layer_factory.hpp:77] Creating layer stage2_2/branch1b/scale
I0528 06:56:24.509577    79 net.cpp:150] Setting up stage2_2/branch1b/scale
I0528 06:56:24.509587    79 net.cpp:157] Top shape: 16 16 38 38 (369664)
I0528 06:56:24.509590    79 net.cpp:165] Memory required for data: 1678274720
I0528 06:56:24.509596    79 layer_factory.hpp:77] Creating layer stage2_2/branch1b/relu
I0528 06:56:24.509603    79 net.cpp:100] Creating Layer stage2_2/branch1b/relu
I0528 06:56:24.509608    79 net.cpp:434] stage2_2/branch1b/relu <- stage2_2/branch1b
I0528 06:56:24.509614    79 net.cpp:395] stage2_2/branch1b/relu -> stage2_2/branch1b (in-place)
I0528 06:56:24.509938    79 net.cpp:150] Setting up stage2_2/branch1b/relu
I0528 06:56:24.509950    79 net.cpp:157] Top shape: 16 16 38 38 (369664)
I0528 06:56:24.509954    79 net.cpp:165] Memory required for data: 1679753376
I0528 06:56:24.509959    79 layer_factory.hpp:77] Creating layer stage2_2/branch2a
I0528 06:56:24.509968    79 net.cpp:100] Creating Layer stage2_2/branch2a
I0528 06:56:24.509974    79 net.cpp:434] stage2_2/branch2a <- stage2_1/concat_stage2_1/concat_0_split_1
I0528 06:56:24.509981    79 net.cpp:408] stage2_2/branch2a -> stage2_2/branch2a
I0528 06:56:24.511451    79 net.cpp:150] Setting up stage2_2/branch2a
I0528 06:56:24.511464    79 net.cpp:157] Top shape: 16 32 38 38 (739328)
I0528 06:56:24.511471    79 net.cpp:165] Memory required for data: 1682710688
I0528 06:56:24.511476    79 layer_factory.hpp:77] Creating layer stage2_2/branch2a/bn
I0528 06:56:24.511494    79 net.cpp:100] Creating Layer stage2_2/branch2a/bn
I0528 06:56:24.511500    79 net.cpp:434] stage2_2/branch2a/bn <- stage2_2/branch2a
I0528 06:56:24.511507    79 net.cpp:395] stage2_2/branch2a/bn -> stage2_2/branch2a (in-place)
I0528 06:56:24.511695    79 net.cpp:150] Setting up stage2_2/branch2a/bn
I0528 06:56:24.511705    79 net.cpp:157] Top shape: 16 32 38 38 (739328)
I0528 06:56:24.511710    79 net.cpp:165] Memory required for data: 1685668000
I0528 06:56:24.511718    79 layer_factory.hpp:77] Creating layer stage2_2/branch2a/scale
I0528 06:56:24.511725    79 net.cpp:100] Creating Layer stage2_2/branch2a/scale
I0528 06:56:24.511730    79 net.cpp:434] stage2_2/branch2a/scale <- stage2_2/branch2a
I0528 06:56:24.511736    79 net.cpp:395] stage2_2/branch2a/scale -> stage2_2/branch2a (in-place)
I0528 06:56:24.511773    79 layer_factory.hpp:77] Creating layer stage2_2/branch2a/scale
I0528 06:56:24.511891    79 net.cpp:150] Setting up stage2_2/branch2a/scale
I0528 06:56:24.511901    79 net.cpp:157] Top shape: 16 32 38 38 (739328)
I0528 06:56:24.511906    79 net.cpp:165] Memory required for data: 1688625312
I0528 06:56:24.511914    79 layer_factory.hpp:77] Creating layer stage2_2/branch2a/relu
I0528 06:56:24.511919    79 net.cpp:100] Creating Layer stage2_2/branch2a/relu
I0528 06:56:24.511925    79 net.cpp:434] stage2_2/branch2a/relu <- stage2_2/branch2a
I0528 06:56:24.511932    79 net.cpp:395] stage2_2/branch2a/relu -> stage2_2/branch2a (in-place)
I0528 06:56:24.512253    79 net.cpp:150] Setting up stage2_2/branch2a/relu
I0528 06:56:24.512265    79 net.cpp:157] Top shape: 16 32 38 38 (739328)
I0528 06:56:24.512269    79 net.cpp:165] Memory required for data: 1691582624
I0528 06:56:24.512274    79 layer_factory.hpp:77] Creating layer stage2_2/branch2b
I0528 06:56:24.512282    79 net.cpp:100] Creating Layer stage2_2/branch2b
I0528 06:56:24.512289    79 net.cpp:434] stage2_2/branch2b <- stage2_2/branch2a
I0528 06:56:24.512297    79 net.cpp:408] stage2_2/branch2b -> stage2_2/branch2b
I0528 06:56:24.513736    79 net.cpp:150] Setting up stage2_2/branch2b
I0528 06:56:24.513751    79 net.cpp:157] Top shape: 16 16 38 38 (369664)
I0528 06:56:24.513756    79 net.cpp:165] Memory required for data: 1693061280
I0528 06:56:24.513761    79 layer_factory.hpp:77] Creating layer stage2_2/branch2b/bn
I0528 06:56:24.513780    79 net.cpp:100] Creating Layer stage2_2/branch2b/bn
I0528 06:56:24.513787    79 net.cpp:434] stage2_2/branch2b/bn <- stage2_2/branch2b
I0528 06:56:24.513793    79 net.cpp:395] stage2_2/branch2b/bn -> stage2_2/branch2b (in-place)
I0528 06:56:24.513979    79 net.cpp:150] Setting up stage2_2/branch2b/bn
I0528 06:56:24.513989    79 net.cpp:157] Top shape: 16 16 38 38 (369664)
I0528 06:56:24.513994    79 net.cpp:165] Memory required for data: 1694539936
I0528 06:56:24.514003    79 layer_factory.hpp:77] Creating layer stage2_2/branch2b/scale
I0528 06:56:24.514017    79 net.cpp:100] Creating Layer stage2_2/branch2b/scale
I0528 06:56:24.514024    79 net.cpp:434] stage2_2/branch2b/scale <- stage2_2/branch2b
I0528 06:56:24.514030    79 net.cpp:395] stage2_2/branch2b/scale -> stage2_2/branch2b (in-place)
I0528 06:56:24.514070    79 layer_factory.hpp:77] Creating layer stage2_2/branch2b/scale
I0528 06:56:24.514194    79 net.cpp:150] Setting up stage2_2/branch2b/scale
I0528 06:56:24.514211    79 net.cpp:157] Top shape: 16 16 38 38 (369664)
I0528 06:56:24.514216    79 net.cpp:165] Memory required for data: 1696018592
I0528 06:56:24.514223    79 layer_factory.hpp:77] Creating layer stage2_2/branch2b/relu
I0528 06:56:24.514230    79 net.cpp:100] Creating Layer stage2_2/branch2b/relu
I0528 06:56:24.514236    79 net.cpp:434] stage2_2/branch2b/relu <- stage2_2/branch2b
I0528 06:56:24.514245    79 net.cpp:395] stage2_2/branch2b/relu -> stage2_2/branch2b (in-place)
I0528 06:56:24.514890    79 net.cpp:150] Setting up stage2_2/branch2b/relu
I0528 06:56:24.514904    79 net.cpp:157] Top shape: 16 16 38 38 (369664)
I0528 06:56:24.514909    79 net.cpp:165] Memory required for data: 1697497248
I0528 06:56:24.514914    79 layer_factory.hpp:77] Creating layer stage2_2/branch2c
I0528 06:56:24.514935    79 net.cpp:100] Creating Layer stage2_2/branch2c
I0528 06:56:24.514942    79 net.cpp:434] stage2_2/branch2c <- stage2_2/branch2b
I0528 06:56:24.514950    79 net.cpp:408] stage2_2/branch2c -> stage2_2/branch2c
I0528 06:56:24.516399    79 net.cpp:150] Setting up stage2_2/branch2c
I0528 06:56:24.516413    79 net.cpp:157] Top shape: 16 16 38 38 (369664)
I0528 06:56:24.516418    79 net.cpp:165] Memory required for data: 1698975904
I0528 06:56:24.516424    79 layer_factory.hpp:77] Creating layer stage2_2/branch2c/bn
I0528 06:56:24.516433    79 net.cpp:100] Creating Layer stage2_2/branch2c/bn
I0528 06:56:24.516438    79 net.cpp:434] stage2_2/branch2c/bn <- stage2_2/branch2c
I0528 06:56:24.516445    79 net.cpp:395] stage2_2/branch2c/bn -> stage2_2/branch2c (in-place)
I0528 06:56:24.516615    79 net.cpp:150] Setting up stage2_2/branch2c/bn
I0528 06:56:24.516625    79 net.cpp:157] Top shape: 16 16 38 38 (369664)
I0528 06:56:24.516630    79 net.cpp:165] Memory required for data: 1700454560
I0528 06:56:24.516638    79 layer_factory.hpp:77] Creating layer stage2_2/branch2c/scale
I0528 06:56:24.516645    79 net.cpp:100] Creating Layer stage2_2/branch2c/scale
I0528 06:56:24.516652    79 net.cpp:434] stage2_2/branch2c/scale <- stage2_2/branch2c
I0528 06:56:24.516660    79 net.cpp:395] stage2_2/branch2c/scale -> stage2_2/branch2c (in-place)
I0528 06:56:24.516707    79 layer_factory.hpp:77] Creating layer stage2_2/branch2c/scale
I0528 06:56:24.516808    79 net.cpp:150] Setting up stage2_2/branch2c/scale
I0528 06:56:24.516819    79 net.cpp:157] Top shape: 16 16 38 38 (369664)
I0528 06:56:24.516822    79 net.cpp:165] Memory required for data: 1701933216
I0528 06:56:24.516829    79 layer_factory.hpp:77] Creating layer stage2_2/branch2c/relu
I0528 06:56:24.516836    79 net.cpp:100] Creating Layer stage2_2/branch2c/relu
I0528 06:56:24.516844    79 net.cpp:434] stage2_2/branch2c/relu <- stage2_2/branch2c
I0528 06:56:24.516850    79 net.cpp:395] stage2_2/branch2c/relu -> stage2_2/branch2c (in-place)
I0528 06:56:24.517168    79 net.cpp:150] Setting up stage2_2/branch2c/relu
I0528 06:56:24.517179    79 net.cpp:157] Top shape: 16 16 38 38 (369664)
I0528 06:56:24.517184    79 net.cpp:165] Memory required for data: 1703411872
I0528 06:56:24.517189    79 layer_factory.hpp:77] Creating layer stage2_2/concat
I0528 06:56:24.517197    79 net.cpp:100] Creating Layer stage2_2/concat
I0528 06:56:24.517205    79 net.cpp:434] stage2_2/concat <- stage2_1/concat_stage2_1/concat_0_split_2
I0528 06:56:24.517212    79 net.cpp:434] stage2_2/concat <- stage2_2/branch1b
I0528 06:56:24.517220    79 net.cpp:434] stage2_2/concat <- stage2_2/branch2c
I0528 06:56:24.517227    79 net.cpp:408] stage2_2/concat -> stage2_2/concat
I0528 06:56:24.517256    79 net.cpp:150] Setting up stage2_2/concat
I0528 06:56:24.517266    79 net.cpp:157] Top shape: 16 192 38 38 (4435968)
I0528 06:56:24.517271    79 net.cpp:165] Memory required for data: 1721155744
I0528 06:56:24.517276    79 layer_factory.hpp:77] Creating layer stage2_2/concat_stage2_2/concat_0_split
I0528 06:56:24.517283    79 net.cpp:100] Creating Layer stage2_2/concat_stage2_2/concat_0_split
I0528 06:56:24.517290    79 net.cpp:434] stage2_2/concat_stage2_2/concat_0_split <- stage2_2/concat
I0528 06:56:24.517297    79 net.cpp:408] stage2_2/concat_stage2_2/concat_0_split -> stage2_2/concat_stage2_2/concat_0_split_0
I0528 06:56:24.517310    79 net.cpp:408] stage2_2/concat_stage2_2/concat_0_split -> stage2_2/concat_stage2_2/concat_0_split_1
I0528 06:56:24.517316    79 net.cpp:408] stage2_2/concat_stage2_2/concat_0_split -> stage2_2/concat_stage2_2/concat_0_split_2
I0528 06:56:24.517372    79 net.cpp:150] Setting up stage2_2/concat_stage2_2/concat_0_split
I0528 06:56:24.517381    79 net.cpp:157] Top shape: 16 192 38 38 (4435968)
I0528 06:56:24.517386    79 net.cpp:157] Top shape: 16 192 38 38 (4435968)
I0528 06:56:24.517391    79 net.cpp:157] Top shape: 16 192 38 38 (4435968)
I0528 06:56:24.517396    79 net.cpp:165] Memory required for data: 1774387360
I0528 06:56:24.517402    79 layer_factory.hpp:77] Creating layer stage2_3/branch1a
I0528 06:56:24.517431    79 net.cpp:100] Creating Layer stage2_3/branch1a
I0528 06:56:24.517438    79 net.cpp:434] stage2_3/branch1a <- stage2_2/concat_stage2_2/concat_0_split_0
I0528 06:56:24.517447    79 net.cpp:408] stage2_3/branch1a -> stage2_3/branch1a
I0528 06:56:24.519202    79 net.cpp:150] Setting up stage2_3/branch1a
I0528 06:56:24.519217    79 net.cpp:157] Top shape: 16 32 38 38 (739328)
I0528 06:56:24.519222    79 net.cpp:165] Memory required for data: 1777344672
I0528 06:56:24.519228    79 layer_factory.hpp:77] Creating layer stage2_3/branch1a/bn
I0528 06:56:24.519242    79 net.cpp:100] Creating Layer stage2_3/branch1a/bn
I0528 06:56:24.519248    79 net.cpp:434] stage2_3/branch1a/bn <- stage2_3/branch1a
I0528 06:56:24.519255    79 net.cpp:395] stage2_3/branch1a/bn -> stage2_3/branch1a (in-place)
I0528 06:56:24.519439    79 net.cpp:150] Setting up stage2_3/branch1a/bn
I0528 06:56:24.519449    79 net.cpp:157] Top shape: 16 32 38 38 (739328)
I0528 06:56:24.519454    79 net.cpp:165] Memory required for data: 1780301984
I0528 06:56:24.519460    79 layer_factory.hpp:77] Creating layer stage2_3/branch1a/scale
I0528 06:56:24.519469    79 net.cpp:100] Creating Layer stage2_3/branch1a/scale
I0528 06:56:24.519476    79 net.cpp:434] stage2_3/branch1a/scale <- stage2_3/branch1a
I0528 06:56:24.519482    79 net.cpp:395] stage2_3/branch1a/scale -> stage2_3/branch1a (in-place)
I0528 06:56:24.519523    79 layer_factory.hpp:77] Creating layer stage2_3/branch1a/scale
I0528 06:56:24.519636    79 net.cpp:150] Setting up stage2_3/branch1a/scale
I0528 06:56:24.519645    79 net.cpp:157] Top shape: 16 32 38 38 (739328)
I0528 06:56:24.519650    79 net.cpp:165] Memory required for data: 1783259296
I0528 06:56:24.519656    79 layer_factory.hpp:77] Creating layer stage2_3/branch1a/relu
I0528 06:56:24.519665    79 net.cpp:100] Creating Layer stage2_3/branch1a/relu
I0528 06:56:24.519672    79 net.cpp:434] stage2_3/branch1a/relu <- stage2_3/branch1a
I0528 06:56:24.519678    79 net.cpp:395] stage2_3/branch1a/relu -> stage2_3/branch1a (in-place)
I0528 06:56:24.520001    79 net.cpp:150] Setting up stage2_3/branch1a/relu
I0528 06:56:24.520014    79 net.cpp:157] Top shape: 16 32 38 38 (739328)
I0528 06:56:24.520017    79 net.cpp:165] Memory required for data: 1786216608
I0528 06:56:24.520022    79 layer_factory.hpp:77] Creating layer stage2_3/branch1b
I0528 06:56:24.520032    79 net.cpp:100] Creating Layer stage2_3/branch1b
I0528 06:56:24.520040    79 net.cpp:434] stage2_3/branch1b <- stage2_3/branch1a
I0528 06:56:24.520048    79 net.cpp:408] stage2_3/branch1b -> stage2_3/branch1b
I0528 06:56:24.521503    79 net.cpp:150] Setting up stage2_3/branch1b
I0528 06:56:24.521517    79 net.cpp:157] Top shape: 16 16 38 38 (369664)
I0528 06:56:24.521522    79 net.cpp:165] Memory required for data: 1787695264
I0528 06:56:24.521528    79 layer_factory.hpp:77] Creating layer stage2_3/branch1b/bn
I0528 06:56:24.521535    79 net.cpp:100] Creating Layer stage2_3/branch1b/bn
I0528 06:56:24.521540    79 net.cpp:434] stage2_3/branch1b/bn <- stage2_3/branch1b
I0528 06:56:24.521548    79 net.cpp:395] stage2_3/branch1b/bn -> stage2_3/branch1b (in-place)
I0528 06:56:24.521728    79 net.cpp:150] Setting up stage2_3/branch1b/bn
I0528 06:56:24.521736    79 net.cpp:157] Top shape: 16 16 38 38 (369664)
I0528 06:56:24.521741    79 net.cpp:165] Memory required for data: 1789173920
I0528 06:56:24.521749    79 layer_factory.hpp:77] Creating layer stage2_3/branch1b/scale
I0528 06:56:24.521756    79 net.cpp:100] Creating Layer stage2_3/branch1b/scale
I0528 06:56:24.521762    79 net.cpp:434] stage2_3/branch1b/scale <- stage2_3/branch1b
I0528 06:56:24.521770    79 net.cpp:395] stage2_3/branch1b/scale -> stage2_3/branch1b (in-place)
I0528 06:56:24.521811    79 layer_factory.hpp:77] Creating layer stage2_3/branch1b/scale
I0528 06:56:24.521921    79 net.cpp:150] Setting up stage2_3/branch1b/scale
I0528 06:56:24.521930    79 net.cpp:157] Top shape: 16 16 38 38 (369664)
I0528 06:56:24.521935    79 net.cpp:165] Memory required for data: 1790652576
I0528 06:56:24.521955    79 layer_factory.hpp:77] Creating layer stage2_3/branch1b/relu
I0528 06:56:24.521971    79 net.cpp:100] Creating Layer stage2_3/branch1b/relu
I0528 06:56:24.521978    79 net.cpp:434] stage2_3/branch1b/relu <- stage2_3/branch1b
I0528 06:56:24.521986    79 net.cpp:395] stage2_3/branch1b/relu -> stage2_3/branch1b (in-place)
I0528 06:56:24.522599    79 net.cpp:150] Setting up stage2_3/branch1b/relu
I0528 06:56:24.522614    79 net.cpp:157] Top shape: 16 16 38 38 (369664)
I0528 06:56:24.522619    79 net.cpp:165] Memory required for data: 1792131232
I0528 06:56:24.522624    79 layer_factory.hpp:77] Creating layer stage2_3/branch2a
I0528 06:56:24.522632    79 net.cpp:100] Creating Layer stage2_3/branch2a
I0528 06:56:24.522639    79 net.cpp:434] stage2_3/branch2a <- stage2_2/concat_stage2_2/concat_0_split_1
I0528 06:56:24.522646    79 net.cpp:408] stage2_3/branch2a -> stage2_3/branch2a
I0528 06:56:24.524240    79 net.cpp:150] Setting up stage2_3/branch2a
I0528 06:56:24.524255    79 net.cpp:157] Top shape: 16 32 38 38 (739328)
I0528 06:56:24.524260    79 net.cpp:165] Memory required for data: 1795088544
I0528 06:56:24.524266    79 layer_factory.hpp:77] Creating layer stage2_3/branch2a/bn
I0528 06:56:24.524274    79 net.cpp:100] Creating Layer stage2_3/branch2a/bn
I0528 06:56:24.524281    79 net.cpp:434] stage2_3/branch2a/bn <- stage2_3/branch2a
I0528 06:56:24.524287    79 net.cpp:395] stage2_3/branch2a/bn -> stage2_3/branch2a (in-place)
I0528 06:56:24.524480    79 net.cpp:150] Setting up stage2_3/branch2a/bn
I0528 06:56:24.524490    79 net.cpp:157] Top shape: 16 32 38 38 (739328)
I0528 06:56:24.524495    79 net.cpp:165] Memory required for data: 1798045856
I0528 06:56:24.524503    79 layer_factory.hpp:77] Creating layer stage2_3/branch2a/scale
I0528 06:56:24.524513    79 net.cpp:100] Creating Layer stage2_3/branch2a/scale
I0528 06:56:24.524519    79 net.cpp:434] stage2_3/branch2a/scale <- stage2_3/branch2a
I0528 06:56:24.524526    79 net.cpp:395] stage2_3/branch2a/scale -> stage2_3/branch2a (in-place)
I0528 06:56:24.524567    79 layer_factory.hpp:77] Creating layer stage2_3/branch2a/scale
I0528 06:56:24.524682    79 net.cpp:150] Setting up stage2_3/branch2a/scale
I0528 06:56:24.524693    79 net.cpp:157] Top shape: 16 32 38 38 (739328)
I0528 06:56:24.524698    79 net.cpp:165] Memory required for data: 1801003168
I0528 06:56:24.524704    79 layer_factory.hpp:77] Creating layer stage2_3/branch2a/relu
I0528 06:56:24.524711    79 net.cpp:100] Creating Layer stage2_3/branch2a/relu
I0528 06:56:24.524718    79 net.cpp:434] stage2_3/branch2a/relu <- stage2_3/branch2a
I0528 06:56:24.524725    79 net.cpp:395] stage2_3/branch2a/relu -> stage2_3/branch2a (in-place)
I0528 06:56:24.525045    79 net.cpp:150] Setting up stage2_3/branch2a/relu
I0528 06:56:24.525056    79 net.cpp:157] Top shape: 16 32 38 38 (739328)
I0528 06:56:24.525061    79 net.cpp:165] Memory required for data: 1803960480
I0528 06:56:24.525066    79 layer_factory.hpp:77] Creating layer stage2_3/branch2b
I0528 06:56:24.525076    79 net.cpp:100] Creating Layer stage2_3/branch2b
I0528 06:56:24.525084    79 net.cpp:434] stage2_3/branch2b <- stage2_3/branch2a
I0528 06:56:24.525092    79 net.cpp:408] stage2_3/branch2b -> stage2_3/branch2b
I0528 06:56:24.526566    79 net.cpp:150] Setting up stage2_3/branch2b
I0528 06:56:24.526579    79 net.cpp:157] Top shape: 16 16 38 38 (369664)
I0528 06:56:24.526584    79 net.cpp:165] Memory required for data: 1805439136
I0528 06:56:24.526592    79 layer_factory.hpp:77] Creating layer stage2_3/branch2b/bn
I0528 06:56:24.526598    79 net.cpp:100] Creating Layer stage2_3/branch2b/bn
I0528 06:56:24.526604    79 net.cpp:434] stage2_3/branch2b/bn <- stage2_3/branch2b
I0528 06:56:24.526610    79 net.cpp:395] stage2_3/branch2b/bn -> stage2_3/branch2b (in-place)
I0528 06:56:24.526794    79 net.cpp:150] Setting up stage2_3/branch2b/bn
I0528 06:56:24.526804    79 net.cpp:157] Top shape: 16 16 38 38 (369664)
I0528 06:56:24.526809    79 net.cpp:165] Memory required for data: 1806917792
I0528 06:56:24.526818    79 layer_factory.hpp:77] Creating layer stage2_3/branch2b/scale
I0528 06:56:24.526839    79 net.cpp:100] Creating Layer stage2_3/branch2b/scale
I0528 06:56:24.526844    79 net.cpp:434] stage2_3/branch2b/scale <- stage2_3/branch2b
I0528 06:56:24.526852    79 net.cpp:395] stage2_3/branch2b/scale -> stage2_3/branch2b (in-place)
I0528 06:56:24.526893    79 layer_factory.hpp:77] Creating layer stage2_3/branch2b/scale
I0528 06:56:24.527005    79 net.cpp:150] Setting up stage2_3/branch2b/scale
I0528 06:56:24.527016    79 net.cpp:157] Top shape: 16 16 38 38 (369664)
I0528 06:56:24.527020    79 net.cpp:165] Memory required for data: 1808396448
I0528 06:56:24.527027    79 layer_factory.hpp:77] Creating layer stage2_3/branch2b/relu
I0528 06:56:24.527035    79 net.cpp:100] Creating Layer stage2_3/branch2b/relu
I0528 06:56:24.527042    79 net.cpp:434] stage2_3/branch2b/relu <- stage2_3/branch2b
I0528 06:56:24.527050    79 net.cpp:395] stage2_3/branch2b/relu -> stage2_3/branch2b (in-place)
I0528 06:56:24.527369    79 net.cpp:150] Setting up stage2_3/branch2b/relu
I0528 06:56:24.527380    79 net.cpp:157] Top shape: 16 16 38 38 (369664)
I0528 06:56:24.527385    79 net.cpp:165] Memory required for data: 1809875104
I0528 06:56:24.527390    79 layer_factory.hpp:77] Creating layer stage2_3/branch2c
I0528 06:56:24.527406    79 net.cpp:100] Creating Layer stage2_3/branch2c
I0528 06:56:24.527413    79 net.cpp:434] stage2_3/branch2c <- stage2_3/branch2b
I0528 06:56:24.527422    79 net.cpp:408] stage2_3/branch2c -> stage2_3/branch2c
I0528 06:56:24.528884    79 net.cpp:150] Setting up stage2_3/branch2c
I0528 06:56:24.528898    79 net.cpp:157] Top shape: 16 16 38 38 (369664)
I0528 06:56:24.528903    79 net.cpp:165] Memory required for data: 1811353760
I0528 06:56:24.528909    79 layer_factory.hpp:77] Creating layer stage2_3/branch2c/bn
I0528 06:56:24.528918    79 net.cpp:100] Creating Layer stage2_3/branch2c/bn
I0528 06:56:24.528923    79 net.cpp:434] stage2_3/branch2c/bn <- stage2_3/branch2c
I0528 06:56:24.528929    79 net.cpp:395] stage2_3/branch2c/bn -> stage2_3/branch2c (in-place)
I0528 06:56:24.529114    79 net.cpp:150] Setting up stage2_3/branch2c/bn
I0528 06:56:24.529124    79 net.cpp:157] Top shape: 16 16 38 38 (369664)
I0528 06:56:24.529127    79 net.cpp:165] Memory required for data: 1812832416
I0528 06:56:24.529136    79 layer_factory.hpp:77] Creating layer stage2_3/branch2c/scale
I0528 06:56:24.529145    79 net.cpp:100] Creating Layer stage2_3/branch2c/scale
I0528 06:56:24.529152    79 net.cpp:434] stage2_3/branch2c/scale <- stage2_3/branch2c
I0528 06:56:24.529160    79 net.cpp:395] stage2_3/branch2c/scale -> stage2_3/branch2c (in-place)
I0528 06:56:24.529199    79 layer_factory.hpp:77] Creating layer stage2_3/branch2c/scale
I0528 06:56:24.529311    79 net.cpp:150] Setting up stage2_3/branch2c/scale
I0528 06:56:24.529321    79 net.cpp:157] Top shape: 16 16 38 38 (369664)
I0528 06:56:24.529325    79 net.cpp:165] Memory required for data: 1814311072
I0528 06:56:24.529332    79 layer_factory.hpp:77] Creating layer stage2_3/branch2c/relu
I0528 06:56:24.529341    79 net.cpp:100] Creating Layer stage2_3/branch2c/relu
I0528 06:56:24.529347    79 net.cpp:434] stage2_3/branch2c/relu <- stage2_3/branch2c
I0528 06:56:24.529355    79 net.cpp:395] stage2_3/branch2c/relu -> stage2_3/branch2c (in-place)
I0528 06:56:24.529964    79 net.cpp:150] Setting up stage2_3/branch2c/relu
I0528 06:56:24.529978    79 net.cpp:157] Top shape: 16 16 38 38 (369664)
I0528 06:56:24.529983    79 net.cpp:165] Memory required for data: 1815789728
I0528 06:56:24.529989    79 layer_factory.hpp:77] Creating layer stage2_3/concat
I0528 06:56:24.529995    79 net.cpp:100] Creating Layer stage2_3/concat
I0528 06:56:24.530001    79 net.cpp:434] stage2_3/concat <- stage2_2/concat_stage2_2/concat_0_split_2
I0528 06:56:24.530007    79 net.cpp:434] stage2_3/concat <- stage2_3/branch1b
I0528 06:56:24.530014    79 net.cpp:434] stage2_3/concat <- stage2_3/branch2c
I0528 06:56:24.530022    79 net.cpp:408] stage2_3/concat -> stage2_3/concat
I0528 06:56:24.530055    79 net.cpp:150] Setting up stage2_3/concat
I0528 06:56:24.530076    79 net.cpp:157] Top shape: 16 224 38 38 (5175296)
I0528 06:56:24.530081    79 net.cpp:165] Memory required for data: 1836490912
I0528 06:56:24.530086    79 layer_factory.hpp:77] Creating layer stage2_3/concat_stage2_3/concat_0_split
I0528 06:56:24.530094    79 net.cpp:100] Creating Layer stage2_3/concat_stage2_3/concat_0_split
I0528 06:56:24.530102    79 net.cpp:434] stage2_3/concat_stage2_3/concat_0_split <- stage2_3/concat
I0528 06:56:24.530108    79 net.cpp:408] stage2_3/concat_stage2_3/concat_0_split -> stage2_3/concat_stage2_3/concat_0_split_0
I0528 06:56:24.530117    79 net.cpp:408] stage2_3/concat_stage2_3/concat_0_split -> stage2_3/concat_stage2_3/concat_0_split_1
I0528 06:56:24.530124    79 net.cpp:408] stage2_3/concat_stage2_3/concat_0_split -> stage2_3/concat_stage2_3/concat_0_split_2
I0528 06:56:24.530172    79 net.cpp:150] Setting up stage2_3/concat_stage2_3/concat_0_split
I0528 06:56:24.530184    79 net.cpp:157] Top shape: 16 224 38 38 (5175296)
I0528 06:56:24.530189    79 net.cpp:157] Top shape: 16 224 38 38 (5175296)
I0528 06:56:24.530194    79 net.cpp:157] Top shape: 16 224 38 38 (5175296)
I0528 06:56:24.530207    79 net.cpp:165] Memory required for data: 1898594464
I0528 06:56:24.530215    79 layer_factory.hpp:77] Creating layer stage2_4/branch1a
I0528 06:56:24.530225    79 net.cpp:100] Creating Layer stage2_4/branch1a
I0528 06:56:24.530232    79 net.cpp:434] stage2_4/branch1a <- stage2_3/concat_stage2_3/concat_0_split_0
I0528 06:56:24.530239    79 net.cpp:408] stage2_4/branch1a -> stage2_4/branch1a
I0528 06:56:24.531745    79 net.cpp:150] Setting up stage2_4/branch1a
I0528 06:56:24.531760    79 net.cpp:157] Top shape: 16 32 38 38 (739328)
I0528 06:56:24.531765    79 net.cpp:165] Memory required for data: 1901551776
I0528 06:56:24.531774    79 layer_factory.hpp:77] Creating layer stage2_4/branch1a/bn
I0528 06:56:24.531782    79 net.cpp:100] Creating Layer stage2_4/branch1a/bn
I0528 06:56:24.531790    79 net.cpp:434] stage2_4/branch1a/bn <- stage2_4/branch1a
I0528 06:56:24.531798    79 net.cpp:395] stage2_4/branch1a/bn -> stage2_4/branch1a (in-place)
I0528 06:56:24.531973    79 net.cpp:150] Setting up stage2_4/branch1a/bn
I0528 06:56:24.531983    79 net.cpp:157] Top shape: 16 32 38 38 (739328)
I0528 06:56:24.531987    79 net.cpp:165] Memory required for data: 1904509088
I0528 06:56:24.531996    79 layer_factory.hpp:77] Creating layer stage2_4/branch1a/scale
I0528 06:56:24.532006    79 net.cpp:100] Creating Layer stage2_4/branch1a/scale
I0528 06:56:24.532012    79 net.cpp:434] stage2_4/branch1a/scale <- stage2_4/branch1a
I0528 06:56:24.532018    79 net.cpp:395] stage2_4/branch1a/scale -> stage2_4/branch1a (in-place)
I0528 06:56:24.532066    79 layer_factory.hpp:77] Creating layer stage2_4/branch1a/scale
I0528 06:56:24.532171    79 net.cpp:150] Setting up stage2_4/branch1a/scale
I0528 06:56:24.532182    79 net.cpp:157] Top shape: 16 32 38 38 (739328)
I0528 06:56:24.532187    79 net.cpp:165] Memory required for data: 1907466400
I0528 06:56:24.532194    79 layer_factory.hpp:77] Creating layer stage2_4/branch1a/relu
I0528 06:56:24.532200    79 net.cpp:100] Creating Layer stage2_4/branch1a/relu
I0528 06:56:24.532207    79 net.cpp:434] stage2_4/branch1a/relu <- stage2_4/branch1a
I0528 06:56:24.532214    79 net.cpp:395] stage2_4/branch1a/relu -> stage2_4/branch1a (in-place)
I0528 06:56:24.532543    79 net.cpp:150] Setting up stage2_4/branch1a/relu
I0528 06:56:24.532554    79 net.cpp:157] Top shape: 16 32 38 38 (739328)
I0528 06:56:24.532558    79 net.cpp:165] Memory required for data: 1910423712
I0528 06:56:24.532563    79 layer_factory.hpp:77] Creating layer stage2_4/branch1b
I0528 06:56:24.532574    79 net.cpp:100] Creating Layer stage2_4/branch1b
I0528 06:56:24.532582    79 net.cpp:434] stage2_4/branch1b <- stage2_4/branch1a
I0528 06:56:24.532589    79 net.cpp:408] stage2_4/branch1b -> stage2_4/branch1b
I0528 06:56:24.534068    79 net.cpp:150] Setting up stage2_4/branch1b
I0528 06:56:24.534083    79 net.cpp:157] Top shape: 16 16 38 38 (369664)
I0528 06:56:24.534088    79 net.cpp:165] Memory required for data: 1911902368
I0528 06:56:24.534106    79 layer_factory.hpp:77] Creating layer stage2_4/branch1b/bn
I0528 06:56:24.534114    79 net.cpp:100] Creating Layer stage2_4/branch1b/bn
I0528 06:56:24.534123    79 net.cpp:434] stage2_4/branch1b/bn <- stage2_4/branch1b
I0528 06:56:24.534132    79 net.cpp:395] stage2_4/branch1b/bn -> stage2_4/branch1b (in-place)
I0528 06:56:24.534325    79 net.cpp:150] Setting up stage2_4/branch1b/bn
I0528 06:56:24.534337    79 net.cpp:157] Top shape: 16 16 38 38 (369664)
I0528 06:56:24.534343    79 net.cpp:165] Memory required for data: 1913381024
I0528 06:56:24.534349    79 layer_factory.hpp:77] Creating layer stage2_4/branch1b/scale
I0528 06:56:24.534364    79 net.cpp:100] Creating Layer stage2_4/branch1b/scale
I0528 06:56:24.534371    79 net.cpp:434] stage2_4/branch1b/scale <- stage2_4/branch1b
I0528 06:56:24.534379    79 net.cpp:395] stage2_4/branch1b/scale -> stage2_4/branch1b (in-place)
I0528 06:56:24.534420    79 layer_factory.hpp:77] Creating layer stage2_4/branch1b/scale
I0528 06:56:24.534523    79 net.cpp:150] Setting up stage2_4/branch1b/scale
I0528 06:56:24.534533    79 net.cpp:157] Top shape: 16 16 38 38 (369664)
I0528 06:56:24.534538    79 net.cpp:165] Memory required for data: 1914859680
I0528 06:56:24.534543    79 layer_factory.hpp:77] Creating layer stage2_4/branch1b/relu
I0528 06:56:24.534551    79 net.cpp:100] Creating Layer stage2_4/branch1b/relu
I0528 06:56:24.534557    79 net.cpp:434] stage2_4/branch1b/relu <- stage2_4/branch1b
I0528 06:56:24.534564    79 net.cpp:395] stage2_4/branch1b/relu -> stage2_4/branch1b (in-place)
I0528 06:56:24.534885    79 net.cpp:150] Setting up stage2_4/branch1b/relu
I0528 06:56:24.534898    79 net.cpp:157] Top shape: 16 16 38 38 (369664)
I0528 06:56:24.534901    79 net.cpp:165] Memory required for data: 1916338336
I0528 06:56:24.534906    79 layer_factory.hpp:77] Creating layer stage2_4/branch2a
I0528 06:56:24.534917    79 net.cpp:100] Creating Layer stage2_4/branch2a
I0528 06:56:24.534925    79 net.cpp:434] stage2_4/branch2a <- stage2_3/concat_stage2_3/concat_0_split_1
I0528 06:56:24.534932    79 net.cpp:408] stage2_4/branch2a -> stage2_4/branch2a
I0528 06:56:24.536411    79 net.cpp:150] Setting up stage2_4/branch2a
I0528 06:56:24.536425    79 net.cpp:157] Top shape: 16 32 38 38 (739328)
I0528 06:56:24.536430    79 net.cpp:165] Memory required for data: 1919295648
I0528 06:56:24.536437    79 layer_factory.hpp:77] Creating layer stage2_4/branch2a/bn
I0528 06:56:24.536444    79 net.cpp:100] Creating Layer stage2_4/branch2a/bn
I0528 06:56:24.536449    79 net.cpp:434] stage2_4/branch2a/bn <- stage2_4/branch2a
I0528 06:56:24.536458    79 net.cpp:395] stage2_4/branch2a/bn -> stage2_4/branch2a (in-place)
I0528 06:56:24.536646    79 net.cpp:150] Setting up stage2_4/branch2a/bn
I0528 06:56:24.536658    79 net.cpp:157] Top shape: 16 32 38 38 (739328)
I0528 06:56:24.536661    79 net.cpp:165] Memory required for data: 1922252960
I0528 06:56:24.536669    79 layer_factory.hpp:77] Creating layer stage2_4/branch2a/scale
I0528 06:56:24.536679    79 net.cpp:100] Creating Layer stage2_4/branch2a/scale
I0528 06:56:24.536686    79 net.cpp:434] stage2_4/branch2a/scale <- stage2_4/branch2a
I0528 06:56:24.536692    79 net.cpp:395] stage2_4/branch2a/scale -> stage2_4/branch2a (in-place)
I0528 06:56:24.536734    79 layer_factory.hpp:77] Creating layer stage2_4/branch2a/scale
I0528 06:56:24.536845    79 net.cpp:150] Setting up stage2_4/branch2a/scale
I0528 06:56:24.536855    79 net.cpp:157] Top shape: 16 32 38 38 (739328)
I0528 06:56:24.536859    79 net.cpp:165] Memory required for data: 1925210272
I0528 06:56:24.536866    79 layer_factory.hpp:77] Creating layer stage2_4/branch2a/relu
I0528 06:56:24.536872    79 net.cpp:100] Creating Layer stage2_4/branch2a/relu
I0528 06:56:24.536877    79 net.cpp:434] stage2_4/branch2a/relu <- stage2_4/branch2a
I0528 06:56:24.536885    79 net.cpp:395] stage2_4/branch2a/relu -> stage2_4/branch2a (in-place)
I0528 06:56:24.537225    79 net.cpp:150] Setting up stage2_4/branch2a/relu
I0528 06:56:24.537236    79 net.cpp:157] Top shape: 16 32 38 38 (739328)
I0528 06:56:24.537252    79 net.cpp:165] Memory required for data: 1928167584
I0528 06:56:24.537259    79 layer_factory.hpp:77] Creating layer stage2_4/branch2b
I0528 06:56:24.537268    79 net.cpp:100] Creating Layer stage2_4/branch2b
I0528 06:56:24.537276    79 net.cpp:434] stage2_4/branch2b <- stage2_4/branch2a
I0528 06:56:24.537284    79 net.cpp:408] stage2_4/branch2b -> stage2_4/branch2b
I0528 06:56:24.538868    79 net.cpp:150] Setting up stage2_4/branch2b
I0528 06:56:24.538883    79 net.cpp:157] Top shape: 16 16 38 38 (369664)
I0528 06:56:24.538888    79 net.cpp:165] Memory required for data: 1929646240
I0528 06:56:24.538895    79 layer_factory.hpp:77] Creating layer stage2_4/branch2b/bn
I0528 06:56:24.538902    79 net.cpp:100] Creating Layer stage2_4/branch2b/bn
I0528 06:56:24.538908    79 net.cpp:434] stage2_4/branch2b/bn <- stage2_4/branch2b
I0528 06:56:24.538914    79 net.cpp:395] stage2_4/branch2b/bn -> stage2_4/branch2b (in-place)
I0528 06:56:24.539111    79 net.cpp:150] Setting up stage2_4/branch2b/bn
I0528 06:56:24.539121    79 net.cpp:157] Top shape: 16 16 38 38 (369664)
I0528 06:56:24.539125    79 net.cpp:165] Memory required for data: 1931124896
I0528 06:56:24.539134    79 layer_factory.hpp:77] Creating layer stage2_4/branch2b/scale
I0528 06:56:24.539141    79 net.cpp:100] Creating Layer stage2_4/branch2b/scale
I0528 06:56:24.539149    79 net.cpp:434] stage2_4/branch2b/scale <- stage2_4/branch2b
I0528 06:56:24.539156    79 net.cpp:395] stage2_4/branch2b/scale -> stage2_4/branch2b (in-place)
I0528 06:56:24.539196    79 layer_factory.hpp:77] Creating layer stage2_4/branch2b/scale
I0528 06:56:24.539299    79 net.cpp:150] Setting up stage2_4/branch2b/scale
I0528 06:56:24.539309    79 net.cpp:157] Top shape: 16 16 38 38 (369664)
I0528 06:56:24.539314    79 net.cpp:165] Memory required for data: 1932603552
I0528 06:56:24.539320    79 layer_factory.hpp:77] Creating layer stage2_4/branch2b/relu
I0528 06:56:24.539337    79 net.cpp:100] Creating Layer stage2_4/branch2b/relu
I0528 06:56:24.539346    79 net.cpp:434] stage2_4/branch2b/relu <- stage2_4/branch2b
I0528 06:56:24.539353    79 net.cpp:395] stage2_4/branch2b/relu -> stage2_4/branch2b (in-place)
I0528 06:56:24.539973    79 net.cpp:150] Setting up stage2_4/branch2b/relu
I0528 06:56:24.539986    79 net.cpp:157] Top shape: 16 16 38 38 (369664)
I0528 06:56:24.539990    79 net.cpp:165] Memory required for data: 1934082208
I0528 06:56:24.539995    79 layer_factory.hpp:77] Creating layer stage2_4/branch2c
I0528 06:56:24.540004    79 net.cpp:100] Creating Layer stage2_4/branch2c
I0528 06:56:24.540010    79 net.cpp:434] stage2_4/branch2c <- stage2_4/branch2b
I0528 06:56:24.540016    79 net.cpp:408] stage2_4/branch2c -> stage2_4/branch2c
I0528 06:56:24.541477    79 net.cpp:150] Setting up stage2_4/branch2c
I0528 06:56:24.541491    79 net.cpp:157] Top shape: 16 16 38 38 (369664)
I0528 06:56:24.541497    79 net.cpp:165] Memory required for data: 1935560864
I0528 06:56:24.541503    79 layer_factory.hpp:77] Creating layer stage2_4/branch2c/bn
I0528 06:56:24.541512    79 net.cpp:100] Creating Layer stage2_4/branch2c/bn
I0528 06:56:24.541517    79 net.cpp:434] stage2_4/branch2c/bn <- stage2_4/branch2c
I0528 06:56:24.541523    79 net.cpp:395] stage2_4/branch2c/bn -> stage2_4/branch2c (in-place)
I0528 06:56:24.541712    79 net.cpp:150] Setting up stage2_4/branch2c/bn
I0528 06:56:24.541724    79 net.cpp:157] Top shape: 16 16 38 38 (369664)
I0528 06:56:24.541729    79 net.cpp:165] Memory required for data: 1937039520
I0528 06:56:24.541736    79 layer_factory.hpp:77] Creating layer stage2_4/branch2c/scale
I0528 06:56:24.541743    79 net.cpp:100] Creating Layer stage2_4/branch2c/scale
I0528 06:56:24.541749    79 net.cpp:434] stage2_4/branch2c/scale <- stage2_4/branch2c
I0528 06:56:24.541757    79 net.cpp:395] stage2_4/branch2c/scale -> stage2_4/branch2c (in-place)
I0528 06:56:24.541798    79 layer_factory.hpp:77] Creating layer stage2_4/branch2c/scale
I0528 06:56:24.541911    79 net.cpp:150] Setting up stage2_4/branch2c/scale
I0528 06:56:24.541931    79 net.cpp:157] Top shape: 16 16 38 38 (369664)
I0528 06:56:24.541936    79 net.cpp:165] Memory required for data: 1938518176
I0528 06:56:24.541944    79 layer_factory.hpp:77] Creating layer stage2_4/branch2c/relu
I0528 06:56:24.541951    79 net.cpp:100] Creating Layer stage2_4/branch2c/relu
I0528 06:56:24.541959    79 net.cpp:434] stage2_4/branch2c/relu <- stage2_4/branch2c
I0528 06:56:24.541965    79 net.cpp:395] stage2_4/branch2c/relu -> stage2_4/branch2c (in-place)
I0528 06:56:24.542299    79 net.cpp:150] Setting up stage2_4/branch2c/relu
I0528 06:56:24.542310    79 net.cpp:157] Top shape: 16 16 38 38 (369664)
I0528 06:56:24.542315    79 net.cpp:165] Memory required for data: 1939996832
I0528 06:56:24.542320    79 layer_factory.hpp:77] Creating layer stage2_4/concat
I0528 06:56:24.542328    79 net.cpp:100] Creating Layer stage2_4/concat
I0528 06:56:24.542335    79 net.cpp:434] stage2_4/concat <- stage2_3/concat_stage2_3/concat_0_split_2
I0528 06:56:24.542343    79 net.cpp:434] stage2_4/concat <- stage2_4/branch1b
I0528 06:56:24.542348    79 net.cpp:434] stage2_4/concat <- stage2_4/branch2c
I0528 06:56:24.542356    79 net.cpp:408] stage2_4/concat -> stage2_4/concat
I0528 06:56:24.542385    79 net.cpp:150] Setting up stage2_4/concat
I0528 06:56:24.542394    79 net.cpp:157] Top shape: 16 256 38 38 (5914624)
I0528 06:56:24.542399    79 net.cpp:165] Memory required for data: 1963655328
I0528 06:56:24.542404    79 layer_factory.hpp:77] Creating layer stage2_tb
I0528 06:56:24.542412    79 net.cpp:100] Creating Layer stage2_tb
I0528 06:56:24.542418    79 net.cpp:434] stage2_tb <- stage2_4/concat
I0528 06:56:24.542426    79 net.cpp:408] stage2_tb -> stage2_tb
I0528 06:56:24.544160    79 net.cpp:150] Setting up stage2_tb
I0528 06:56:24.544174    79 net.cpp:157] Top shape: 16 256 38 38 (5914624)
I0528 06:56:24.544179    79 net.cpp:165] Memory required for data: 1987313824
I0528 06:56:24.544185    79 layer_factory.hpp:77] Creating layer stage2_tb/bn
I0528 06:56:24.544193    79 net.cpp:100] Creating Layer stage2_tb/bn
I0528 06:56:24.544198    79 net.cpp:434] stage2_tb/bn <- stage2_tb
I0528 06:56:24.544204    79 net.cpp:395] stage2_tb/bn -> stage2_tb (in-place)
I0528 06:56:24.544402    79 net.cpp:150] Setting up stage2_tb/bn
I0528 06:56:24.544414    79 net.cpp:157] Top shape: 16 256 38 38 (5914624)
I0528 06:56:24.544417    79 net.cpp:165] Memory required for data: 2010972320
I0528 06:56:24.544425    79 layer_factory.hpp:77] Creating layer stage2_tb/scale
I0528 06:56:24.544432    79 net.cpp:100] Creating Layer stage2_tb/scale
I0528 06:56:24.544440    79 net.cpp:434] stage2_tb/scale <- stage2_tb
I0528 06:56:24.544446    79 net.cpp:395] stage2_tb/scale -> stage2_tb (in-place)
I0528 06:56:24.544487    79 layer_factory.hpp:77] Creating layer stage2_tb/scale
I0528 06:56:24.544585    79 net.cpp:150] Setting up stage2_tb/scale
I0528 06:56:24.544595    79 net.cpp:157] Top shape: 16 256 38 38 (5914624)
I0528 06:56:24.544600    79 net.cpp:165] Memory required for data: 2034630816
I0528 06:56:24.544605    79 layer_factory.hpp:77] Creating layer stage2_tb/relu
I0528 06:56:24.544611    79 net.cpp:100] Creating Layer stage2_tb/relu
I0528 06:56:24.544618    79 net.cpp:434] stage2_tb/relu <- stage2_tb
I0528 06:56:24.544625    79 net.cpp:395] stage2_tb/relu -> stage2_tb (in-place)
I0528 06:56:24.544958    79 net.cpp:150] Setting up stage2_tb/relu
I0528 06:56:24.544970    79 net.cpp:157] Top shape: 16 256 38 38 (5914624)
I0528 06:56:24.544975    79 net.cpp:165] Memory required for data: 2058289312
I0528 06:56:24.544980    79 layer_factory.hpp:77] Creating layer stage2_tb/pool
I0528 06:56:24.544988    79 net.cpp:100] Creating Layer stage2_tb/pool
I0528 06:56:24.544996    79 net.cpp:434] stage2_tb/pool <- stage2_tb
I0528 06:56:24.545003    79 net.cpp:408] stage2_tb/pool -> stage2_tb/pool
I0528 06:56:24.545629    79 net.cpp:150] Setting up stage2_tb/pool
I0528 06:56:24.545642    79 net.cpp:157] Top shape: 16 256 19 19 (1478656)
I0528 06:56:24.545647    79 net.cpp:165] Memory required for data: 2064203936
I0528 06:56:24.545652    79 layer_factory.hpp:77] Creating layer stage2_tb/pool_stage2_tb/pool_0_split
I0528 06:56:24.545670    79 net.cpp:100] Creating Layer stage2_tb/pool_stage2_tb/pool_0_split
I0528 06:56:24.545677    79 net.cpp:434] stage2_tb/pool_stage2_tb/pool_0_split <- stage2_tb/pool
I0528 06:56:24.545686    79 net.cpp:408] stage2_tb/pool_stage2_tb/pool_0_split -> stage2_tb/pool_stage2_tb/pool_0_split_0
I0528 06:56:24.545696    79 net.cpp:408] stage2_tb/pool_stage2_tb/pool_0_split -> stage2_tb/pool_stage2_tb/pool_0_split_1
I0528 06:56:24.545704    79 net.cpp:408] stage2_tb/pool_stage2_tb/pool_0_split -> stage2_tb/pool_stage2_tb/pool_0_split_2
I0528 06:56:24.545753    79 net.cpp:150] Setting up stage2_tb/pool_stage2_tb/pool_0_split
I0528 06:56:24.545761    79 net.cpp:157] Top shape: 16 256 19 19 (1478656)
I0528 06:56:24.545768    79 net.cpp:157] Top shape: 16 256 19 19 (1478656)
I0528 06:56:24.545771    79 net.cpp:157] Top shape: 16 256 19 19 (1478656)
I0528 06:56:24.545776    79 net.cpp:165] Memory required for data: 2081947808
I0528 06:56:24.545783    79 layer_factory.hpp:77] Creating layer stage3_1/branch1a
I0528 06:56:24.545792    79 net.cpp:100] Creating Layer stage3_1/branch1a
I0528 06:56:24.545799    79 net.cpp:434] stage3_1/branch1a <- stage2_tb/pool_stage2_tb/pool_0_split_0
I0528 06:56:24.545807    79 net.cpp:408] stage3_1/branch1a -> stage3_1/branch1a
I0528 06:56:24.547353    79 net.cpp:150] Setting up stage3_1/branch1a
I0528 06:56:24.547368    79 net.cpp:157] Top shape: 16 64 19 19 (369664)
I0528 06:56:24.547371    79 net.cpp:165] Memory required for data: 2083426464
I0528 06:56:24.547379    79 layer_factory.hpp:77] Creating layer stage3_1/branch1a/bn
I0528 06:56:24.547391    79 net.cpp:100] Creating Layer stage3_1/branch1a/bn
I0528 06:56:24.547399    79 net.cpp:434] stage3_1/branch1a/bn <- stage3_1/branch1a
I0528 06:56:24.547406    79 net.cpp:395] stage3_1/branch1a/bn -> stage3_1/branch1a (in-place)
I0528 06:56:24.547587    79 net.cpp:150] Setting up stage3_1/branch1a/bn
I0528 06:56:24.547597    79 net.cpp:157] Top shape: 16 64 19 19 (369664)
I0528 06:56:24.547602    79 net.cpp:165] Memory required for data: 2084905120
I0528 06:56:24.547610    79 layer_factory.hpp:77] Creating layer stage3_1/branch1a/scale
I0528 06:56:24.547619    79 net.cpp:100] Creating Layer stage3_1/branch1a/scale
I0528 06:56:24.547626    79 net.cpp:434] stage3_1/branch1a/scale <- stage3_1/branch1a
I0528 06:56:24.547633    79 net.cpp:395] stage3_1/branch1a/scale -> stage3_1/branch1a (in-place)
I0528 06:56:24.547674    79 layer_factory.hpp:77] Creating layer stage3_1/branch1a/scale
I0528 06:56:24.547787    79 net.cpp:150] Setting up stage3_1/branch1a/scale
I0528 06:56:24.547797    79 net.cpp:157] Top shape: 16 64 19 19 (369664)
I0528 06:56:24.547802    79 net.cpp:165] Memory required for data: 2086383776
I0528 06:56:24.547808    79 layer_factory.hpp:77] Creating layer stage3_1/branch1a/relu
I0528 06:56:24.547816    79 net.cpp:100] Creating Layer stage3_1/branch1a/relu
I0528 06:56:24.547822    79 net.cpp:434] stage3_1/branch1a/relu <- stage3_1/branch1a
I0528 06:56:24.547830    79 net.cpp:395] stage3_1/branch1a/relu -> stage3_1/branch1a (in-place)
I0528 06:56:24.548154    79 net.cpp:150] Setting up stage3_1/branch1a/relu
I0528 06:56:24.548164    79 net.cpp:157] Top shape: 16 64 19 19 (369664)
I0528 06:56:24.548169    79 net.cpp:165] Memory required for data: 2087862432
I0528 06:56:24.548174    79 layer_factory.hpp:77] Creating layer stage3_1/branch1b
I0528 06:56:24.548182    79 net.cpp:100] Creating Layer stage3_1/branch1b
I0528 06:56:24.548189    79 net.cpp:434] stage3_1/branch1b <- stage3_1/branch1a
I0528 06:56:24.548197    79 net.cpp:408] stage3_1/branch1b -> stage3_1/branch1b
I0528 06:56:24.549640    79 net.cpp:150] Setting up stage3_1/branch1b
I0528 06:56:24.549654    79 net.cpp:157] Top shape: 16 16 19 19 (92416)
I0528 06:56:24.549674    79 net.cpp:165] Memory required for data: 2088232096
I0528 06:56:24.549680    79 layer_factory.hpp:77] Creating layer stage3_1/branch1b/bn
I0528 06:56:24.549688    79 net.cpp:100] Creating Layer stage3_1/branch1b/bn
I0528 06:56:24.549705    79 net.cpp:434] stage3_1/branch1b/bn <- stage3_1/branch1b
I0528 06:56:24.549712    79 net.cpp:395] stage3_1/branch1b/bn -> stage3_1/branch1b (in-place)
I0528 06:56:24.549901    79 net.cpp:150] Setting up stage3_1/branch1b/bn
I0528 06:56:24.549911    79 net.cpp:157] Top shape: 16 16 19 19 (92416)
I0528 06:56:24.549916    79 net.cpp:165] Memory required for data: 2088601760
I0528 06:56:24.549923    79 layer_factory.hpp:77] Creating layer stage3_1/branch1b/scale
I0528 06:56:24.549931    79 net.cpp:100] Creating Layer stage3_1/branch1b/scale
I0528 06:56:24.549937    79 net.cpp:434] stage3_1/branch1b/scale <- stage3_1/branch1b
I0528 06:56:24.549945    79 net.cpp:395] stage3_1/branch1b/scale -> stage3_1/branch1b (in-place)
I0528 06:56:24.549984    79 layer_factory.hpp:77] Creating layer stage3_1/branch1b/scale
I0528 06:56:24.550103    79 net.cpp:150] Setting up stage3_1/branch1b/scale
I0528 06:56:24.550113    79 net.cpp:157] Top shape: 16 16 19 19 (92416)
I0528 06:56:24.550118    79 net.cpp:165] Memory required for data: 2088971424
I0528 06:56:24.550144    79 layer_factory.hpp:77] Creating layer stage3_1/branch1b/relu
I0528 06:56:24.550153    79 net.cpp:100] Creating Layer stage3_1/branch1b/relu
I0528 06:56:24.550159    79 net.cpp:434] stage3_1/branch1b/relu <- stage3_1/branch1b
I0528 06:56:24.550164    79 net.cpp:395] stage3_1/branch1b/relu -> stage3_1/branch1b (in-place)
I0528 06:56:24.550487    79 net.cpp:150] Setting up stage3_1/branch1b/relu
I0528 06:56:24.550499    79 net.cpp:157] Top shape: 16 16 19 19 (92416)
I0528 06:56:24.550505    79 net.cpp:165] Memory required for data: 2089341088
I0528 06:56:24.550509    79 layer_factory.hpp:77] Creating layer stage3_1/branch2a
I0528 06:56:24.550526    79 net.cpp:100] Creating Layer stage3_1/branch2a
I0528 06:56:24.550536    79 net.cpp:434] stage3_1/branch2a <- stage2_tb/pool_stage2_tb/pool_0_split_1
I0528 06:56:24.550554    79 net.cpp:408] stage3_1/branch2a -> stage3_1/branch2a
I0528 06:56:24.552065    79 net.cpp:150] Setting up stage3_1/branch2a
I0528 06:56:24.552079    79 net.cpp:157] Top shape: 16 64 19 19 (369664)
I0528 06:56:24.552084    79 net.cpp:165] Memory required for data: 2090819744
I0528 06:56:24.552091    79 layer_factory.hpp:77] Creating layer stage3_1/branch2a/bn
I0528 06:56:24.552104    79 net.cpp:100] Creating Layer stage3_1/branch2a/bn
I0528 06:56:24.552110    79 net.cpp:434] stage3_1/branch2a/bn <- stage3_1/branch2a
I0528 06:56:24.552116    79 net.cpp:395] stage3_1/branch2a/bn -> stage3_1/branch2a (in-place)
I0528 06:56:24.552300    79 net.cpp:150] Setting up stage3_1/branch2a/bn
I0528 06:56:24.552310    79 net.cpp:157] Top shape: 16 64 19 19 (369664)
I0528 06:56:24.552314    79 net.cpp:165] Memory required for data: 2092298400
I0528 06:56:24.552321    79 layer_factory.hpp:77] Creating layer stage3_1/branch2a/scale
I0528 06:56:24.552330    79 net.cpp:100] Creating Layer stage3_1/branch2a/scale
I0528 06:56:24.552337    79 net.cpp:434] stage3_1/branch2a/scale <- stage3_1/branch2a
I0528 06:56:24.552345    79 net.cpp:395] stage3_1/branch2a/scale -> stage3_1/branch2a (in-place)
I0528 06:56:24.552384    79 layer_factory.hpp:77] Creating layer stage3_1/branch2a/scale
I0528 06:56:24.552497    79 net.cpp:150] Setting up stage3_1/branch2a/scale
I0528 06:56:24.552506    79 net.cpp:157] Top shape: 16 64 19 19 (369664)
I0528 06:56:24.552511    79 net.cpp:165] Memory required for data: 2093777056
I0528 06:56:24.552517    79 layer_factory.hpp:77] Creating layer stage3_1/branch2a/relu
I0528 06:56:24.552526    79 net.cpp:100] Creating Layer stage3_1/branch2a/relu
I0528 06:56:24.552533    79 net.cpp:434] stage3_1/branch2a/relu <- stage3_1/branch2a
I0528 06:56:24.552539    79 net.cpp:395] stage3_1/branch2a/relu -> stage3_1/branch2a (in-place)
I0528 06:56:24.553174    79 net.cpp:150] Setting up stage3_1/branch2a/relu
I0528 06:56:24.553187    79 net.cpp:157] Top shape: 16 64 19 19 (369664)
I0528 06:56:24.553191    79 net.cpp:165] Memory required for data: 2095255712
I0528 06:56:24.553196    79 layer_factory.hpp:77] Creating layer stage3_1/branch2b
I0528 06:56:24.553215    79 net.cpp:100] Creating Layer stage3_1/branch2b
I0528 06:56:24.553222    79 net.cpp:434] stage3_1/branch2b <- stage3_1/branch2a
I0528 06:56:24.553228    79 net.cpp:408] stage3_1/branch2b -> stage3_1/branch2b
I0528 06:56:24.555016    79 net.cpp:150] Setting up stage3_1/branch2b
I0528 06:56:24.555030    79 net.cpp:157] Top shape: 16 16 19 19 (92416)
I0528 06:56:24.555035    79 net.cpp:165] Memory required for data: 2095625376
I0528 06:56:24.555042    79 layer_factory.hpp:77] Creating layer stage3_1/branch2b/bn
I0528 06:56:24.555049    79 net.cpp:100] Creating Layer stage3_1/branch2b/bn
I0528 06:56:24.555055    79 net.cpp:434] stage3_1/branch2b/bn <- stage3_1/branch2b
I0528 06:56:24.555063    79 net.cpp:395] stage3_1/branch2b/bn -> stage3_1/branch2b (in-place)
I0528 06:56:24.555260    79 net.cpp:150] Setting up stage3_1/branch2b/bn
I0528 06:56:24.555270    79 net.cpp:157] Top shape: 16 16 19 19 (92416)
I0528 06:56:24.555275    79 net.cpp:165] Memory required for data: 2095995040
I0528 06:56:24.555284    79 layer_factory.hpp:77] Creating layer stage3_1/branch2b/scale
I0528 06:56:24.555292    79 net.cpp:100] Creating Layer stage3_1/branch2b/scale
I0528 06:56:24.555299    79 net.cpp:434] stage3_1/branch2b/scale <- stage3_1/branch2b
I0528 06:56:24.555305    79 net.cpp:395] stage3_1/branch2b/scale -> stage3_1/branch2b (in-place)
I0528 06:56:24.555352    79 layer_factory.hpp:77] Creating layer stage3_1/branch2b/scale
I0528 06:56:24.555467    79 net.cpp:150] Setting up stage3_1/branch2b/scale
I0528 06:56:24.555476    79 net.cpp:157] Top shape: 16 16 19 19 (92416)
…
I0528 06:56:25.278857    79 net.cpp:157] Top shape: 1 128 3 3 (1152)
I0528 06:56:25.278862    79 net.cpp:165] Memory required for data: 178344480
I0528 06:56:25.278868    79 layer_factory.hpp:77] Creating layer stage4_tb/ext/pm5/b2a/bn
I0528 06:56:25.278877    79 net.cpp:100] Creating Layer stage4_tb/ext/pm5/b2a/bn
I0528 06:56:25.278882    79 net.cpp:434] stage4_tb/ext/pm5/b2a/bn <- stage4_tb/ext/pm5/b2a
I0528 06:56:25.278888    79 net.cpp:395] stage4_tb/ext/pm5/b2a/bn -> stage4_tb/ext/pm5/b2a (in-place)
I0528 06:56:25.279078    79 net.cpp:150] Setting up stage4_tb/ext/pm5/b2a/bn
I0528 06:56:25.279089    79 net.cpp:157] Top shape: 1 128 3 3 (1152)
I0528 06:56:25.279094    79 net.cpp:165] Memory required for data: 178349088
I0528 06:56:25.279100    79 layer_factory.hpp:77] Creating layer stage4_tb/ext/pm5/b2a/scale
I0528 06:56:25.279109    79 net.cpp:100] Creating Layer stage4_tb/ext/pm5/b2a/scale
I0528 06:56:25.279114    79 net.cpp:434] stage4_tb/ext/pm5/b2a/scale <- stage4_tb/ext/pm5/b2a
I0528 06:56:25.279119    79 net.cpp:395] stage4_tb/ext/pm5/b2a/scale -> stage4_tb/ext/pm5/b2a (in-place)
I0528 06:56:25.279167    79 layer_factory.hpp:77] Creating layer stage4_tb/ext/pm5/b2a/scale
I0528 06:56:25.279279    79 net.cpp:150] Setting up stage4_tb/ext/pm5/b2a/scale
I0528 06:56:25.279289    79 net.cpp:157] Top shape: 1 128 3 3 (1152)
I0528 06:56:25.279294    79 net.cpp:165] Memory required for data: 178353696
I0528 06:56:25.279300    79 layer_factory.hpp:77] Creating layer stage4_tb/ext/pm5/b2a/relu
I0528 06:56:25.279306    79 net.cpp:100] Creating Layer stage4_tb/ext/pm5/b2a/relu
I0528 06:56:25.279312    79 net.cpp:434] stage4_tb/ext/pm5/b2a/relu <- stage4_tb/ext/pm5/b2a
I0528 06:56:25.279317    79 net.cpp:395] stage4_tb/ext/pm5/b2a/relu -> stage4_tb/ext/pm5/b2a (in-place)
I0528 06:56:25.280061    79 net.cpp:150] Setting up stage4_tb/ext/pm5/b2a/relu
I0528 06:56:25.280076    79 net.cpp:157] Top shape: 1 128 3 3 (1152)
I0528 06:56:25.280081    79 net.cpp:165] Memory required for data: 178358304
I0528 06:56:25.280086    79 layer_factory.hpp:77] Creating layer stage4_tb/ext/pm5/b2b
I0528 06:56:25.280099    79 net.cpp:100] Creating Layer stage4_tb/ext/pm5/b2b
I0528 06:56:25.280105    79 net.cpp:434] stage4_tb/ext/pm5/b2b <- stage4_tb/ext/pm5/b2a
I0528 06:56:25.280113    79 net.cpp:408] stage4_tb/ext/pm5/b2b -> stage4_tb/ext/pm5/b2b
I0528 06:56:25.283632    79 net.cpp:150] Setting up stage4_tb/ext/pm5/b2b
I0528 06:56:25.283656    79 net.cpp:157] Top shape: 1 128 3 3 (1152)
I0528 06:56:25.283661    79 net.cpp:165] Memory required for data: 178362912
I0528 06:56:25.283669    79 layer_factory.hpp:77] Creating layer stage4_tb/ext/pm5/b2b/bn
I0528 06:56:25.283684    79 net.cpp:100] Creating Layer stage4_tb/ext/pm5/b2b/bn
I0528 06:56:25.283691    79 net.cpp:434] stage4_tb/ext/pm5/b2b/bn <- stage4_tb/ext/pm5/b2b
I0528 06:56:25.283702    79 net.cpp:395] stage4_tb/ext/pm5/b2b/bn -> stage4_tb/ext/pm5/b2b (in-place)
I0528 06:56:25.283905    79 net.cpp:150] Setting up stage4_tb/ext/pm5/b2b/bn
I0528 06:56:25.283915    79 net.cpp:157] Top shape: 1 128 3 3 (1152)
I0528 06:56:25.283918    79 net.cpp:165] Memory required for data: 178367520
I0528 06:56:25.283926    79 layer_factory.hpp:77] Creating layer stage4_tb/ext/pm5/b2b/scale
I0528 06:56:25.283933    79 net.cpp:100] Creating Layer stage4_tb/ext/pm5/b2b/scale
I0528 06:56:25.283939    79 net.cpp:434] stage4_tb/ext/pm5/b2b/scale <- stage4_tb/ext/pm5/b2b
I0528 06:56:25.283946    79 net.cpp:395] stage4_tb/ext/pm5/b2b/scale -> stage4_tb/ext/pm5/b2b (in-place)
I0528 06:56:25.283982    79 layer_factory.hpp:77] Creating layer stage4_tb/ext/pm5/b2b/scale
I0528 06:56:25.284088    79 net.cpp:150] Setting up stage4_tb/ext/pm5/b2b/scale
I0528 06:56:25.284097    79 net.cpp:157] Top shape: 1 128 3 3 (1152)
I0528 06:56:25.284101    79 net.cpp:165] Memory required for data: 178372128
I0528 06:56:25.284107    79 layer_factory.hpp:77] Creating layer stage4_tb/ext/pm5/b2b/relu
I0528 06:56:25.284114    79 net.cpp:100] Creating Layer stage4_tb/ext/pm5/b2b/relu
I0528 06:56:25.284121    79 net.cpp:434] stage4_tb/ext/pm5/b2b/relu <- stage4_tb/ext/pm5/b2b
I0528 06:56:25.284126    79 net.cpp:395] stage4_tb/ext/pm5/b2b/relu -> stage4_tb/ext/pm5/b2b (in-place)
I0528 06:56:25.284493    79 net.cpp:150] Setting up stage4_tb/ext/pm5/b2b/relu
I0528 06:56:25.284505    79 net.cpp:157] Top shape: 1 128 3 3 (1152)
I0528 06:56:25.284509    79 net.cpp:165] Memory required for data: 178376736
I0528 06:56:25.284514    79 layer_factory.hpp:77] Creating layer stage4_tb/ext/pm5/b2c
I0528 06:56:25.284523    79 net.cpp:100] Creating Layer stage4_tb/ext/pm5/b2c
I0528 06:56:25.284528    79 net.cpp:434] stage4_tb/ext/pm5/b2c <- stage4_tb/ext/pm5/b2b
I0528 06:56:25.284535    79 net.cpp:408] stage4_tb/ext/pm5/b2c -> stage4_tb/ext/pm5/b2c
I0528 06:56:25.286329    79 net.cpp:150] Setting up stage4_tb/ext/pm5/b2c
I0528 06:56:25.286342    79 net.cpp:157] Top shape: 1 256 3 3 (2304)
I0528 06:56:25.286358    79 net.cpp:165] Memory required for data: 178385952
I0528 06:56:25.286365    79 layer_factory.hpp:77] Creating layer stage4_tb/ext/pm5/b2c/bn
I0528 06:56:25.286372    79 net.cpp:100] Creating Layer stage4_tb/ext/pm5/b2c/bn
I0528 06:56:25.286378    79 net.cpp:434] stage4_tb/ext/pm5/b2c/bn <- stage4_tb/ext/pm5/b2c
I0528 06:56:25.286386    79 net.cpp:395] stage4_tb/ext/pm5/b2c/bn -> stage4_tb/ext/pm5/b2c (in-place)
I0528 06:56:25.286574    79 net.cpp:150] Setting up stage4_tb/ext/pm5/b2c/bn
I0528 06:56:25.286586    79 net.cpp:157] Top shape: 1 256 3 3 (2304)
I0528 06:56:25.286589    79 net.cpp:165] Memory required for data: 178395168
I0528 06:56:25.286597    79 layer_factory.hpp:77] Creating layer stage4_tb/ext/pm5/b2c/scale
I0528 06:56:25.286604    79 net.cpp:100] Creating Layer stage4_tb/ext/pm5/b2c/scale
I0528 06:56:25.286609    79 net.cpp:434] stage4_tb/ext/pm5/b2c/scale <- stage4_tb/ext/pm5/b2c
I0528 06:56:25.286615    79 net.cpp:395] stage4_tb/ext/pm5/b2c/scale -> stage4_tb/ext/pm5/b2c (in-place)
I0528 06:56:25.286664    79 layer_factory.hpp:77] Creating layer stage4_tb/ext/pm5/b2c/scale
I0528 06:56:25.286772    79 net.cpp:150] Setting up stage4_tb/ext/pm5/b2c/scale
I0528 06:56:25.286782    79 net.cpp:157] Top shape: 1 256 3 3 (2304)
I0528 06:56:25.286787    79 net.cpp:165] Memory required for data: 178404384
I0528 06:56:25.286792    79 layer_factory.hpp:77] Creating layer stage4_tb/ext/pm5/res
I0528 06:56:25.286798    79 net.cpp:100] Creating Layer stage4_tb/ext/pm5/res
I0528 06:56:25.286804    79 net.cpp:434] stage4_tb/ext/pm5/res <- stage4_tb/ext/pm5
I0528 06:56:25.286819    79 net.cpp:434] stage4_tb/ext/pm5/res <- stage4_tb/ext/pm5/b2c
I0528 06:56:25.286826    79 net.cpp:408] stage4_tb/ext/pm5/res -> stage4_tb/ext/pm5/res
I0528 06:56:25.286850    79 net.cpp:150] Setting up stage4_tb/ext/pm5/res
I0528 06:56:25.286859    79 net.cpp:157] Top shape: 1 256 3 3 (2304)
I0528 06:56:25.286864    79 net.cpp:165] Memory required for data: 178413600
I0528 06:56:25.286869    79 layer_factory.hpp:77] Creating layer stage4_tb/ext/pm5/res/relu
I0528 06:56:25.286875    79 net.cpp:100] Creating Layer stage4_tb/ext/pm5/res/relu
I0528 06:56:25.286881    79 net.cpp:434] stage4_tb/ext/pm5/res/relu <- stage4_tb/ext/pm5/res
I0528 06:56:25.286888    79 net.cpp:395] stage4_tb/ext/pm5/res/relu -> stage4_tb/ext/pm5/res (in-place)
I0528 06:56:25.287618    79 net.cpp:150] Setting up stage4_tb/ext/pm5/res/relu
I0528 06:56:25.287632    79 net.cpp:157] Top shape: 1 256 3 3 (2304)
I0528 06:56:25.287636    79 net.cpp:165] Memory required for data: 178422816
I0528 06:56:25.287642    79 layer_factory.hpp:77] Creating layer stage4_tb/ext/pm5/res_stage4_tb/ext/pm5/res/relu_0_split
I0528 06:56:25.287649    79 net.cpp:100] Creating Layer stage4_tb/ext/pm5/res_stage4_tb/ext/pm5/res/relu_0_split
I0528 06:56:25.287655    79 net.cpp:434] stage4_tb/ext/pm5/res_stage4_tb/ext/pm5/res/relu_0_split <- stage4_tb/ext/pm5/res
I0528 06:56:25.287662    79 net.cpp:408] stage4_tb/ext/pm5/res_stage4_tb/ext/pm5/res/relu_0_split -> stage4_tb/ext/pm5/res_stage4_tb/ext/pm5/res/relu_0_split_0
I0528 06:56:25.287669    79 net.cpp:408] stage4_tb/ext/pm5/res_stage4_tb/ext/pm5/res/relu_0_split -> stage4_tb/ext/pm5/res_stage4_tb/ext/pm5/res/relu_0_split_1
I0528 06:56:25.287677    79 net.cpp:408] stage4_tb/ext/pm5/res_stage4_tb/ext/pm5/res/relu_0_split -> stage4_tb/ext/pm5/res_stage4_tb/ext/pm5/res/relu_0_split_2
I0528 06:56:25.287737    79 net.cpp:150] Setting up stage4_tb/ext/pm5/res_stage4_tb/ext/pm5/res/relu_0_split
I0528 06:56:25.287746    79 net.cpp:157] Top shape: 1 256 3 3 (2304)
I0528 06:56:25.287752    79 net.cpp:157] Top shape: 1 256 3 3 (2304)
I0528 06:56:25.287760    79 net.cpp:157] Top shape: 1 256 3 3 (2304)
I0528 06:56:25.287765    79 net.cpp:165] Memory required for data: 178450464
I0528 06:56:25.287771    79 layer_factory.hpp:77] Creating layer stage4_tb/ext/pm6
I0528 06:56:25.287781    79 net.cpp:100] Creating Layer stage4_tb/ext/pm6
I0528 06:56:25.287788    79 net.cpp:434] stage4_tb/ext/pm6 <- ext1/fe3_2_ext1/fe3_2/relu_0_split_0
I0528 06:56:25.287796    79 net.cpp:408] stage4_tb/ext/pm6 -> stage4_tb/ext/pm6
I0528 06:56:25.289783    79 net.cpp:150] Setting up stage4_tb/ext/pm6
I0528 06:56:25.289798    79 net.cpp:157] Top shape: 1 256 1 1 (256)
I0528 06:56:25.289803    79 net.cpp:165] Memory required for data: 178451488
I0528 06:56:25.289809    79 layer_factory.hpp:77] Creating layer stage4_tb/ext/pm6/bn
I0528 06:56:25.289816    79 net.cpp:100] Creating Layer stage4_tb/ext/pm6/bn
I0528 06:56:25.289822    79 net.cpp:434] stage4_tb/ext/pm6/bn <- stage4_tb/ext/pm6
I0528 06:56:25.289829    79 net.cpp:395] stage4_tb/ext/pm6/bn -> stage4_tb/ext/pm6 (in-place)
I0528 06:56:25.290017    79 net.cpp:150] Setting up stage4_tb/ext/pm6/bn
I0528 06:56:25.290027    79 net.cpp:157] Top shape: 1 256 1 1 (256)
I0528 06:56:25.290031    79 net.cpp:165] Memory required for data: 178452512
I0528 06:56:25.290040    79 layer_factory.hpp:77] Creating layer stage4_tb/ext/pm6/scale
I0528 06:56:25.290046    79 net.cpp:100] Creating Layer stage4_tb/ext/pm6/scale
I0528 06:56:25.290051    79 net.cpp:434] stage4_tb/ext/pm6/scale <- stage4_tb/ext/pm6
I0528 06:56:25.290057    79 net.cpp:395] stage4_tb/ext/pm6/scale -> stage4_tb/ext/pm6 (in-place)
I0528 06:56:25.290093    79 layer_factory.hpp:77] Creating layer stage4_tb/ext/pm6/scale
I0528 06:56:25.290197    79 net.cpp:150] Setting up stage4_tb/ext/pm6/scale
I0528 06:56:25.290213    79 net.cpp:157] Top shape: 1 256 1 1 (256)
I0528 06:56:25.290218    79 net.cpp:165] Memory required for data: 178453536
I0528 06:56:25.290225    79 layer_factory.hpp:77] Creating layer stage4_tb/ext/pm6/b2a
I0528 06:56:25.290243    79 net.cpp:100] Creating Layer stage4_tb/ext/pm6/b2a
I0528 06:56:25.290251    79 net.cpp:434] stage4_tb/ext/pm6/b2a <- ext1/fe3_2_ext1/fe3_2/relu_0_split_1
I0528 06:56:25.290257    79 net.cpp:408] stage4_tb/ext/pm6/b2a -> stage4_tb/ext/pm6/b2a
I0528 06:56:25.292927    79 net.cpp:150] Setting up stage4_tb/ext/pm6/b2a
I0528 06:56:25.292943    79 net.cpp:157] Top shape: 1 128 1 1 (128)
I0528 06:56:25.292948    79 net.cpp:165] Memory required for data: 178454048
I0528 06:56:25.292954    79 layer_factory.hpp:77] Creating layer stage4_tb/ext/pm6/b2a/bn
I0528 06:56:25.292961    79 net.cpp:100] Creating Layer stage4_tb/ext/pm6/b2a/bn
I0528 06:56:25.292968    79 net.cpp:434] stage4_tb/ext/pm6/b2a/bn <- stage4_tb/ext/pm6/b2a
I0528 06:56:25.292973    79 net.cpp:395] stage4_tb/ext/pm6/b2a/bn -> stage4_tb/ext/pm6/b2a (in-place)
I0528 06:56:25.293172    79 net.cpp:150] Setting up stage4_tb/ext/pm6/b2a/bn
I0528 06:56:25.293182    79 net.cpp:157] Top shape: 1 128 1 1 (128)
I0528 06:56:25.293187    79 net.cpp:165] Memory required for data: 178454560
I0528 06:56:25.293195    79 layer_factory.hpp:77] Creating layer stage4_tb/ext/pm6/b2a/scale
I0528 06:56:25.293202    79 net.cpp:100] Creating Layer stage4_tb/ext/pm6/b2a/scale
I0528 06:56:25.293208    79 net.cpp:434] stage4_tb/ext/pm6/b2a/scale <- stage4_tb/ext/pm6/b2a
I0528 06:56:25.293215    79 net.cpp:395] stage4_tb/ext/pm6/b2a/scale -> stage4_tb/ext/pm6/b2a (in-place)
I0528 06:56:25.293249    79 layer_factory.hpp:77] Creating layer stage4_tb/ext/pm6/b2a/scale
I0528 06:56:25.293360    79 net.cpp:150] Setting up stage4_tb/ext/pm6/b2a/scale
I0528 06:56:25.293370    79 net.cpp:157] Top shape: 1 128 1 1 (128)
I0528 06:56:25.293375    79 net.cpp:165] Memory required for data: 178455072
I0528 06:56:25.293381    79 layer_factory.hpp:77] Creating layer stage4_tb/ext/pm6/b2a/relu
I0528 06:56:25.293387    79 net.cpp:100] Creating Layer stage4_tb/ext/pm6/b2a/relu
I0528 06:56:25.293392    79 net.cpp:434] stage4_tb/ext/pm6/b2a/relu <- stage4_tb/ext/pm6/b2a
I0528 06:56:25.293398    79 net.cpp:395] stage4_tb/ext/pm6/b2a/relu -> stage4_tb/ext/pm6/b2a (in-place)
I0528 06:56:25.294167    79 net.cpp:150] Setting up stage4_tb/ext/pm6/b2a/relu
I0528 06:56:25.294180    79 net.cpp:157] Top shape: 1 128 1 1 (128)
I0528 06:56:25.294186    79 net.cpp:165] Memory required for data: 178455584
I0528 06:56:25.294190    79 layer_factory.hpp:77] Creating layer stage4_tb/ext/pm6/b2b
I0528 06:56:25.294205    79 net.cpp:100] Creating Layer stage4_tb/ext/pm6/b2b
I0528 06:56:25.294212    79 net.cpp:434] stage4_tb/ext/pm6/b2b <- stage4_tb/ext/pm6/b2a
I0528 06:56:25.294220    79 net.cpp:408] stage4_tb/ext/pm6/b2b -> stage4_tb/ext/pm6/b2b
I0528 06:56:25.296892    79 net.cpp:150] Setting up stage4_tb/ext/pm6/b2b
I0528 06:56:25.296906    79 net.cpp:157] Top shape: 1 128 1 1 (128)
I0528 06:56:25.296911    79 net.cpp:165] Memory required for data: 178456096
I0528 06:56:25.296918    79 layer_factory.hpp:77] Creating layer stage4_tb/ext/pm6/b2b/bn
I0528 06:56:25.296926    79 net.cpp:100] Creating Layer stage4_tb/ext/pm6/b2b/bn
I0528 06:56:25.296931    79 net.cpp:434] stage4_tb/ext/pm6/b2b/bn <- stage4_tb/ext/pm6/b2b
I0528 06:56:25.296937    79 net.cpp:395] stage4_tb/ext/pm6/b2b/bn -> stage4_tb/ext/pm6/b2b (in-place)
I0528 06:56:25.297155    79 net.cpp:150] Setting up stage4_tb/ext/pm6/b2b/bn
I0528 06:56:25.297166    79 net.cpp:157] Top shape: 1 128 1 1 (128)
I0528 06:56:25.297171    79 net.cpp:165] Memory required for data: 178456608
I0528 06:56:25.297178    79 layer_factory.hpp:77] Creating layer stage4_tb/ext/pm6/b2b/scale
I0528 06:56:25.297186    79 net.cpp:100] Creating Layer stage4_tb/ext/pm6/b2b/scale
I0528 06:56:25.297192    79 net.cpp:434] stage4_tb/ext/pm6/b2b/scale <- stage4_tb/ext/pm6/b2b
I0528 06:56:25.297197    79 net.cpp:395] stage4_tb/ext/pm6/b2b/scale -> stage4_tb/ext/pm6/b2b (in-place)
I0528 06:56:25.297235    79 layer_factory.hpp:77] Creating layer stage4_tb/ext/pm6/b2b/scale
I0528 06:56:25.297340    79 net.cpp:150] Setting up stage4_tb/ext/pm6/b2b/scale
I0528 06:56:25.297360    79 net.cpp:157] Top shape: 1 128 1 1 (128)
I0528 06:56:25.297365    79 net.cpp:165] Memory required for data: 178457120
I0528 06:56:25.297372    79 layer_factory.hpp:77] Creating layer stage4_tb/ext/pm6/b2b/relu
I0528 06:56:25.297379    79 net.cpp:100] Creating Layer stage4_tb/ext/pm6/b2b/relu
I0528 06:56:25.297384    79 net.cpp:434] stage4_tb/ext/pm6/b2b/relu <- stage4_tb/ext/pm6/b2b
I0528 06:56:25.297389    79 net.cpp:395] stage4_tb/ext/pm6/b2b/relu -> stage4_tb/ext/pm6/b2b (in-place)
I0528 06:56:25.297768    79 net.cpp:150] Setting up stage4_tb/ext/pm6/b2b/relu
I0528 06:56:25.297780    79 net.cpp:157] Top shape: 1 128 1 1 (128)
I0528 06:56:25.297785    79 net.cpp:165] Memory required for data: 178457632
I0528 06:56:25.297789    79 layer_factory.hpp:77] Creating layer stage4_tb/ext/pm6/b2c
I0528 06:56:25.297797    79 net.cpp:100] Creating Layer stage4_tb/ext/pm6/b2c
I0528 06:56:25.297803    79 net.cpp:434] stage4_tb/ext/pm6/b2c <- stage4_tb/ext/pm6/b2b
I0528 06:56:25.297811    79 net.cpp:408] stage4_tb/ext/pm6/b2c -> stage4_tb/ext/pm6/b2c
I0528 06:56:25.299681    79 net.cpp:150] Setting up stage4_tb/ext/pm6/b2c
I0528 06:56:25.299695    79 net.cpp:157] Top shape: 1 256 1 1 (256)
I0528 06:56:25.299701    79 net.cpp:165] Memory required for data: 178458656
I0528 06:56:25.299707    79 layer_factory.hpp:77] Creating layer stage4_tb/ext/pm6/b2c/bn
I0528 06:56:25.299715    79 net.cpp:100] Creating Layer stage4_tb/ext/pm6/b2c/bn
I0528 06:56:25.299721    79 net.cpp:434] stage4_tb/ext/pm6/b2c/bn <- stage4_tb/ext/pm6/b2c
I0528 06:56:25.299727    79 net.cpp:395] stage4_tb/ext/pm6/b2c/bn -> stage4_tb/ext/pm6/b2c (in-place)
I0528 06:56:25.299921    79 net.cpp:150] Setting up stage4_tb/ext/pm6/b2c/bn
I0528 06:56:25.299931    79 net.cpp:157] Top shape: 1 256 1 1 (256)
I0528 06:56:25.299934    79 net.cpp:165] Memory required for data: 178459680
I0528 06:56:25.299942    79 layer_factory.hpp:77] Creating layer stage4_tb/ext/pm6/b2c/scale
I0528 06:56:25.299949    79 net.cpp:100] Creating Layer stage4_tb/ext/pm6/b2c/scale
I0528 06:56:25.299955    79 net.cpp:434] stage4_tb/ext/pm6/b2c/scale <- stage4_tb/ext/pm6/b2c
I0528 06:56:25.299963    79 net.cpp:395] stage4_tb/ext/pm6/b2c/scale -> stage4_tb/ext/pm6/b2c (in-place)
I0528 06:56:25.300014    79 layer_factory.hpp:77] Creating layer stage4_tb/ext/pm6/b2c/scale
I0528 06:56:25.300120    79 net.cpp:150] Setting up stage4_tb/ext/pm6/b2c/scale
I0528 06:56:25.300130    79 net.cpp:157] Top shape: 1 256 1 1 (256)
I0528 06:56:25.300134    79 net.cpp:165] Memory required for data: 178460704
I0528 06:56:25.300142    79 layer_factory.hpp:77] Creating layer stage4_tb/ext/pm6/res
I0528 06:56:25.300148    79 net.cpp:100] Creating Layer stage4_tb/ext/pm6/res
I0528 06:56:25.300153    79 net.cpp:434] stage4_tb/ext/pm6/res <- stage4_tb/ext/pm6
I0528 06:56:25.300158    79 net.cpp:434] stage4_tb/ext/pm6/res <- stage4_tb/ext/pm6/b2c
I0528 06:56:25.300165    79 net.cpp:408] stage4_tb/ext/pm6/res -> stage4_tb/ext/pm6/res
I0528 06:56:25.300187    79 net.cpp:150] Setting up stage4_tb/ext/pm6/res
I0528 06:56:25.300199    79 net.cpp:157] Top shape: 1 256 1 1 (256)
I0528 06:56:25.300202    79 net.cpp:165] Memory required for data: 178461728
I0528 06:56:25.300209    79 layer_factory.hpp:77] Creating layer stage4_tb/ext/pm6/res/relu
I0528 06:56:25.300225    79 net.cpp:100] Creating Layer stage4_tb/ext/pm6/res/relu
I0528 06:56:25.300232    79 net.cpp:434] stage4_tb/ext/pm6/res/relu <- stage4_tb/ext/pm6/res
I0528 06:56:25.300240    79 net.cpp:395] stage4_tb/ext/pm6/res/relu -> stage4_tb/ext/pm6/res (in-place)
I0528 06:56:25.300634    79 net.cpp:150] Setting up stage4_tb/ext/pm6/res/relu
I0528 06:56:25.300647    79 net.cpp:157] Top shape: 1 256 1 1 (256)
I0528 06:56:25.300652    79 net.cpp:165] Memory required for data: 178462752
I0528 06:56:25.300657    79 layer_factory.hpp:77] Creating layer stage4_tb/ext/pm6/res_stage4_tb/ext/pm6/res/relu_0_split
I0528 06:56:25.300663    79 net.cpp:100] Creating Layer stage4_tb/ext/pm6/res_stage4_tb/ext/pm6/res/relu_0_split
I0528 06:56:25.300669    79 net.cpp:434] stage4_tb/ext/pm6/res_stage4_tb/ext/pm6/res/relu_0_split <- stage4_tb/ext/pm6/res
I0528 06:56:25.300685    79 net.cpp:408] stage4_tb/ext/pm6/res_stage4_tb/ext/pm6/res/relu_0_split -> stage4_tb/ext/pm6/res_stage4_tb/ext/pm6/res/relu_0_split_0
I0528 06:56:25.300693    79 net.cpp:408] stage4_tb/ext/pm6/res_stage4_tb/ext/pm6/res/relu_0_split -> stage4_tb/ext/pm6/res_stage4_tb/ext/pm6/res/relu_0_split_1
I0528 06:56:25.300700    79 net.cpp:408] stage4_tb/ext/pm6/res_stage4_tb/ext/pm6/res/relu_0_split -> stage4_tb/ext/pm6/res_stage4_tb/ext/pm6/res/relu_0_split_2
I0528 06:56:25.300760    79 net.cpp:150] Setting up stage4_tb/ext/pm6/res_stage4_tb/ext/pm6/res/relu_0_split
I0528 06:56:25.300770    79 net.cpp:157] Top shape: 1 256 1 1 (256)
I0528 06:56:25.300777    79 net.cpp:157] Top shape: 1 256 1 1 (256)
I0528 06:56:25.300783    79 net.cpp:157] Top shape: 1 256 1 1 (256)
I0528 06:56:25.300788    79 net.cpp:165] Memory required for data: 178465824
I0528 06:56:25.300793    79 layer_factory.hpp:77] Creating layer ext/pm1_mbox_loc
I0528 06:56:25.300801    79 net.cpp:100] Creating Layer ext/pm1_mbox_loc
I0528 06:56:25.300808    79 net.cpp:434] ext/pm1_mbox_loc <- stage4_tb/ext/pm2/res_stage4_tb/ext/pm2/res/relu_0_split_0
I0528 06:56:25.300814    79 net.cpp:408] ext/pm1_mbox_loc -> ext/pm1_mbox_loc
I0528 06:56:25.302650    79 net.cpp:150] Setting up ext/pm1_mbox_loc
I0528 06:56:25.302665    79 net.cpp:157] Top shape: 1 24 19 19 (8664)
I0528 06:56:25.302670    79 net.cpp:165] Memory required for data: 178500480
I0528 06:56:25.302677    79 layer_factory.hpp:77] Creating layer ext/pm1_mbox_loc_perm
I0528 06:56:25.302686    79 net.cpp:100] Creating Layer ext/pm1_mbox_loc_perm
I0528 06:56:25.302691    79 net.cpp:434] ext/pm1_mbox_loc_perm <- ext/pm1_mbox_loc
I0528 06:56:25.302698    79 net.cpp:408] ext/pm1_mbox_loc_perm -> ext/pm1_mbox_loc_perm
I0528 06:56:25.302803    79 net.cpp:150] Setting up ext/pm1_mbox_loc_perm
I0528 06:56:25.302811    79 net.cpp:157] Top shape: 1 19 19 24 (8664)
I0528 06:56:25.302816    79 net.cpp:165] Memory required for data: 178535136
I0528 06:56:25.302821    79 layer_factory.hpp:77] Creating layer ext/pm1_mbox_loc_flat
I0528 06:56:25.302829    79 net.cpp:100] Creating Layer ext/pm1_mbox_loc_flat
I0528 06:56:25.302834    79 net.cpp:434] ext/pm1_mbox_loc_flat <- ext/pm1_mbox_loc_perm
I0528 06:56:25.302839    79 net.cpp:408] ext/pm1_mbox_loc_flat -> ext/pm1_mbox_loc_flat
I0528 06:56:25.302870    79 net.cpp:150] Setting up ext/pm1_mbox_loc_flat
I0528 06:56:25.302880    79 net.cpp:157] Top shape: 1 8664 (8664)
I0528 06:56:25.302883    79 net.cpp:165] Memory required for data: 178569792
I0528 06:56:25.302888    79 layer_factory.hpp:77] Creating layer ext/pm1_mbox_conf
I0528 06:56:25.302897    79 net.cpp:100] Creating Layer ext/pm1_mbox_conf
I0528 06:56:25.302903    79 net.cpp:434] ext/pm1_mbox_conf <- stage4_tb/ext/pm2/res_stage4_tb/ext/pm2/res/relu_0_split_1
I0528 06:56:25.302909    79 net.cpp:408] ext/pm1_mbox_conf -> ext/pm1_mbox_conf
I0528 06:56:25.304756    79 net.cpp:150] Setting up ext/pm1_mbox_conf
I0528 06:56:25.304771    79 net.cpp:157] Top shape: 1 12 19 19 (4332)
I0528 06:56:25.304776    79 net.cpp:165] Memory required for data: 178587120
I0528 06:56:25.304785    79 layer_factory.hpp:77] Creating layer ext/pm1_mbox_conf_perm
I0528 06:56:25.304791    79 net.cpp:100] Creating Layer ext/pm1_mbox_conf_perm
I0528 06:56:25.304797    79 net.cpp:434] ext/pm1_mbox_conf_perm <- ext/pm1_mbox_conf
I0528 06:56:25.304805    79 net.cpp:408] ext/pm1_mbox_conf_perm -> ext/pm1_mbox_conf_perm
I0528 06:56:25.304906    79 net.cpp:150] Setting up ext/pm1_mbox_conf_perm
I0528 06:56:25.304915    79 net.cpp:157] Top shape: 1 19 19 12 (4332)
I0528 06:56:25.304920    79 net.cpp:165] Memory required for data: 178604448
I0528 06:56:25.304924    79 layer_factory.hpp:77] Creating layer ext/pm1_mbox_conf_flat
I0528 06:56:25.304931    79 net.cpp:100] Creating Layer ext/pm1_mbox_conf_flat
I0528 06:56:25.304936    79 net.cpp:434] ext/pm1_mbox_conf_flat <- ext/pm1_mbox_conf_perm
I0528 06:56:25.304942    79 net.cpp:408] ext/pm1_mbox_conf_flat -> ext/pm1_mbox_conf_flat
I0528 06:56:25.304977    79 net.cpp:150] Setting up ext/pm1_mbox_conf_flat
I0528 06:56:25.304985    79 net.cpp:157] Top shape: 1 4332 (4332)
I0528 06:56:25.304989    79 net.cpp:165] Memory required for data: 178621776
I0528 06:56:25.304994    79 layer_factory.hpp:77] Creating layer ext/pm1_mbox_priorbox
I0528 06:56:25.305002    79 net.cpp:100] Creating Layer ext/pm1_mbox_priorbox
I0528 06:56:25.305008    79 net.cpp:434] ext/pm1_mbox_priorbox <- stage4_tb/ext/pm2/res_stage4_tb/ext/pm2/res/relu_0_split_2
I0528 06:56:25.305014    79 net.cpp:434] ext/pm1_mbox_priorbox <- data_data_0_split_1
I0528 06:56:25.305021    79 net.cpp:408] ext/pm1_mbox_priorbox -> ext/pm1_mbox_priorbox
I0528 06:56:25.305050    79 net.cpp:150] Setting up ext/pm1_mbox_priorbox
I0528 06:56:25.305061    79 net.cpp:157] Top shape: 1 2 8664 (17328)
I0528 06:56:25.305066    79 net.cpp:165] Memory required for data: 178691088
I0528 06:56:25.305071    79 layer_factory.hpp:77] Creating layer ext/pm2_mbox_loc
I0528 06:56:25.305080    79 net.cpp:100] Creating Layer ext/pm2_mbox_loc
I0528 06:56:25.305085    79 net.cpp:434] ext/pm2_mbox_loc <- stage4_tb/ext/pm2/res_stage4_tb/ext/pm2/res/relu_0_split_3
I0528 06:56:25.305094    79 net.cpp:408] ext/pm2_mbox_loc -> ext/pm2_mbox_loc
I0528 06:56:25.306926    79 net.cpp:150] Setting up ext/pm2_mbox_loc
I0528 06:56:25.306941    79 net.cpp:157] Top shape: 1 24 19 19 (8664)
I0528 06:56:25.306946    79 net.cpp:165] Memory required for data: 178725744
I0528 06:56:25.306952    79 layer_factory.hpp:77] Creating layer ext/pm2_mbox_loc_perm
I0528 06:56:25.306967    79 net.cpp:100] Creating Layer ext/pm2_mbox_loc_perm
I0528 06:56:25.306973    79 net.cpp:434] ext/pm2_mbox_loc_perm <- ext/pm2_mbox_loc
I0528 06:56:25.306980    79 net.cpp:408] ext/pm2_mbox_loc_perm -> ext/pm2_mbox_loc_perm
I0528 06:56:25.307090    79 net.cpp:150] Setting up ext/pm2_mbox_loc_perm
I0528 06:56:25.307101    79 net.cpp:157] Top shape: 1 19 19 24 (8664)
I0528 06:56:25.307106    79 net.cpp:165] Memory required for data: 178760400
I0528 06:56:25.307111    79 layer_factory.hpp:77] Creating layer ext/pm2_mbox_loc_flat
I0528 06:56:25.307117    79 net.cpp:100] Creating Layer ext/pm2_mbox_loc_flat
I0528 06:56:25.307122    79 net.cpp:434] ext/pm2_mbox_loc_flat <- ext/pm2_mbox_loc_perm
I0528 06:56:25.307128    79 net.cpp:408] ext/pm2_mbox_loc_flat -> ext/pm2_mbox_loc_flat
I0528 06:56:25.307152    79 net.cpp:150] Setting up ext/pm2_mbox_loc_flat
I0528 06:56:25.307158    79 net.cpp:157] Top shape: 1 8664 (8664)
I0528 06:56:25.307163    79 net.cpp:165] Memory required for data: 178795056
I0528 06:56:25.307168    79 layer_factory.hpp:77] Creating layer ext/pm2_mbox_conf
I0528 06:56:25.307181    79 net.cpp:100] Creating Layer ext/pm2_mbox_conf
I0528 06:56:25.307188    79 net.cpp:434] ext/pm2_mbox_conf <- stage4_tb/ext/pm2/res_stage4_tb/ext/pm2/res/relu_0_split_4
I0528 06:56:25.307195    79 net.cpp:408] ext/pm2_mbox_conf -> ext/pm2_mbox_conf
I0528 06:56:25.308998    79 net.cpp:150] Setting up ext/pm2_mbox_conf
I0528 06:56:25.309013    79 net.cpp:157] Top shape: 1 12 19 19 (4332)
I0528 06:56:25.309018    79 net.cpp:165] Memory required for data: 178812384
I0528 06:56:25.309026    79 layer_factory.hpp:77] Creating layer ext/pm2_mbox_conf_perm
I0528 06:56:25.309033    79 net.cpp:100] Creating Layer ext/pm2_mbox_conf_perm
I0528 06:56:25.309039    79 net.cpp:434] ext/pm2_mbox_conf_perm <- ext/pm2_mbox_conf
I0528 06:56:25.309046    79 net.cpp:408] ext/pm2_mbox_conf_perm -> ext/pm2_mbox_conf_perm
I0528 06:56:25.309150    79 net.cpp:150] Setting up ext/pm2_mbox_conf_perm
I0528 06:56:25.309159    79 net.cpp:157] Top shape: 1 19 19 12 (4332)
I0528 06:56:25.309165    79 net.cpp:165] Memory required for data: 178829712
I0528 06:56:25.309170    79 layer_factory.hpp:77] Creating layer ext/pm2_mbox_conf_flat
I0528 06:56:25.309176    79 net.cpp:100] Creating Layer ext/pm2_mbox_conf_flat
I0528 06:56:25.309181    79 net.cpp:434] ext/pm2_mbox_conf_flat <- ext/pm2_mbox_conf_perm
I0528 06:56:25.309187    79 net.cpp:408] ext/pm2_mbox_conf_flat -> ext/pm2_mbox_conf_flat
I0528 06:56:25.309222    79 net.cpp:150] Setting up ext/pm2_mbox_conf_flat
I0528 06:56:25.309229    79 net.cpp:157] Top shape: 1 4332 (4332)
I0528 06:56:25.309234    79 net.cpp:165] Memory required for data: 178847040
I0528 06:56:25.309238    79 layer_factory.hpp:77] Creating layer ext/pm2_mbox_priorbox
I0528 06:56:25.309245    79 net.cpp:100] Creating Layer ext/pm2_mbox_priorbox
I0528 06:56:25.309252    79 net.cpp:434] ext/pm2_mbox_priorbox <- stage4_tb/ext/pm2/res_stage4_tb/ext/pm2/res/relu_0_split_5
I0528 06:56:25.309258    79 net.cpp:434] ext/pm2_mbox_priorbox <- data_data_0_split_2
I0528 06:56:25.309267    79 net.cpp:408] ext/pm2_mbox_priorbox -> ext/pm2_mbox_priorbox
I0528 06:56:25.309301    79 net.cpp:150] Setting up ext/pm2_mbox_priorbox
I0528 06:56:25.309314    79 net.cpp:157] Top shape: 1 2 8664 (17328)
I0528 06:56:25.309319    79 net.cpp:165] Memory required for data: 178916352
I0528 06:56:25.309324    79 layer_factory.hpp:77] Creating layer ext/pm3_mbox_loc
I0528 06:56:25.309332    79 net.cpp:100] Creating Layer ext/pm3_mbox_loc
I0528 06:56:25.309339    79 net.cpp:434] ext/pm3_mbox_loc <- stage4_tb/ext/pm3/res_stage4_tb/ext/pm3/res/relu_0_split_0
I0528 06:56:25.309345    79 net.cpp:408] ext/pm3_mbox_loc -> ext/pm3_mbox_loc
I0528 06:56:25.311187    79 net.cpp:150] Setting up ext/pm3_mbox_loc
I0528 06:56:25.311202    79 net.cpp:157] Top shape: 1 24 10 10 (2400)
I0528 06:56:25.311208    79 net.cpp:165] Memory required for data: 178925952
I0528 06:56:25.311214    79 layer_factory.hpp:77] Creating layer ext/pm3_mbox_loc_perm
I0528 06:56:25.311221    79 net.cpp:100] Creating Layer ext/pm3_mbox_loc_perm
I0528 06:56:25.311228    79 net.cpp:434] ext/pm3_mbox_loc_perm <- ext/pm3_mbox_loc
I0528 06:56:25.311234    79 net.cpp:408] ext/pm3_mbox_loc_perm -> ext/pm3_mbox_loc_perm
I0528 06:56:25.311337    79 net.cpp:150] Setting up ext/pm3_mbox_loc_perm
I0528 06:56:25.311349    79 net.cpp:157] Top shape: 1 10 10 24 (2400)
I0528 06:56:25.311353    79 net.cpp:165] Memory required for data: 178935552
I0528 06:56:25.311360    79 layer_factory.hpp:77] Creating layer ext/pm3_mbox_loc_flat
I0528 06:56:25.311368    79 net.cpp:100] Creating Layer ext/pm3_mbox_loc_flat
I0528 06:56:25.311373    79 net.cpp:434] ext/pm3_mbox_loc_flat <- ext/pm3_mbox_loc_perm
I0528 06:56:25.311379    79 net.cpp:408] ext/pm3_mbox_loc_flat -> ext/pm3_mbox_loc_flat
I0528 06:56:25.311404    79 net.cpp:150] Setting up ext/pm3_mbox_loc_flat
I0528 06:56:25.311413    79 net.cpp:157] Top shape: 1 2400 (2400)
I0528 06:56:25.311417    79 net.cpp:165] Memory required for data: 178945152
I0528 06:56:25.311421    79 layer_factory.hpp:77] Creating layer ext/pm3_mbox_conf
I0528 06:56:25.311430    79 net.cpp:100] Creating Layer ext/pm3_mbox_conf
I0528 06:56:25.311435    79 net.cpp:434] ext/pm3_mbox_conf <- stage4_tb/ext/pm3/res_stage4_tb/ext/pm3/res/relu_0_split_1
I0528 06:56:25.311442    79 net.cpp:408] ext/pm3_mbox_conf -> ext/pm3_mbox_conf
I0528 06:56:25.313277    79 net.cpp:150] Setting up ext/pm3_mbox_conf
I0528 06:56:25.313292    79 net.cpp:157] Top shape: 1 12 10 10 (1200)
I0528 06:56:25.313297    79 net.cpp:165] Memory required for data: 178949952
I0528 06:56:25.313304    79 layer_factory.hpp:77] Creating layer ext/pm3_mbox_conf_perm
I0528 06:56:25.313311    79 net.cpp:100] Creating Layer ext/pm3_mbox_conf_perm
I0528 06:56:25.313318    79 net.cpp:434] ext/pm3_mbox_conf_perm <- ext/pm3_mbox_conf
I0528 06:56:25.313324    79 net.cpp:408] ext/pm3_mbox_conf_perm -> ext/pm3_mbox_conf_perm
I0528 06:56:25.313433    79 net.cpp:150] Setting up ext/pm3_mbox_conf_perm
I0528 06:56:25.313446    79 net.cpp:157] Top shape: 1 10 10 12 (1200)
I0528 06:56:25.313452    79 net.cpp:165] Memory required for data: 178954752
I0528 06:56:25.313457    79 layer_factory.hpp:77] Creating layer ext/pm3_mbox_conf_flat
I0528 06:56:25.313462    79 net.cpp:100] Creating Layer ext/pm3_mbox_conf_flat
I0528 06:56:25.313468    79 net.cpp:434] ext/pm3_mbox_conf_flat <- ext/pm3_mbox_conf_perm
I0528 06:56:25.313474    79 net.cpp:408] ext/pm3_mbox_conf_flat -> ext/pm3_mbox_conf_flat
I0528 06:56:25.313499    79 net.cpp:150] Setting up ext/pm3_mbox_conf_flat
I0528 06:56:25.313519    79 net.cpp:157] Top shape: 1 1200 (1200)
I0528 06:56:25.313524    79 net.cpp:165] Memory required for data: 178959552
I0528 06:56:25.313529    79 layer_factory.hpp:77] Creating layer ext/pm3_mbox_priorbox
I0528 06:56:25.313535    79 net.cpp:100] Creating Layer ext/pm3_mbox_priorbox
I0528 06:56:25.313540    79 net.cpp:434] ext/pm3_mbox_priorbox <- stage4_tb/ext/pm3/res_stage4_tb/ext/pm3/res/relu_0_split_2
I0528 06:56:25.313546    79 net.cpp:434] ext/pm3_mbox_priorbox <- data_data_0_split_3
I0528 06:56:25.313554    79 net.cpp:408] ext/pm3_mbox_priorbox -> ext/pm3_mbox_priorbox
I0528 06:56:25.313583    79 net.cpp:150] Setting up ext/pm3_mbox_priorbox
I0528 06:56:25.313592    79 net.cpp:157] Top shape: 1 2 2400 (4800)
I0528 06:56:25.313596    79 net.cpp:165] Memory required for data: 178978752
I0528 06:56:25.313601    79 layer_factory.hpp:77] Creating layer ext/pm4_mbox_loc
I0528 06:56:25.313609    79 net.cpp:100] Creating Layer ext/pm4_mbox_loc
I0528 06:56:25.313616    79 net.cpp:434] ext/pm4_mbox_loc <- stage4_tb/ext/pm4/res_stage4_tb/ext/pm4/res/relu_0_split_0
I0528 06:56:25.313622    79 net.cpp:408] ext/pm4_mbox_loc -> ext/pm4_mbox_loc
I0528 06:56:25.315438    79 net.cpp:150] Setting up ext/pm4_mbox_loc
I0528 06:56:25.315452    79 net.cpp:157] Top shape: 1 24 5 5 (600)
I0528 06:56:25.315456    79 net.cpp:165] Memory required for data: 178981152
I0528 06:56:25.315464    79 layer_factory.hpp:77] Creating layer ext/pm4_mbox_loc_perm
I0528 06:56:25.315471    79 net.cpp:100] Creating Layer ext/pm4_mbox_loc_perm
I0528 06:56:25.315477    79 net.cpp:434] ext/pm4_mbox_loc_perm <- ext/pm4_mbox_loc
I0528 06:56:25.315484    79 net.cpp:408] ext/pm4_mbox_loc_perm -> ext/pm4_mbox_loc_perm
I0528 06:56:25.315587    79 net.cpp:150] Setting up ext/pm4_mbox_loc_perm
I0528 06:56:25.315596    79 net.cpp:157] Top shape: 1 5 5 24 (600)
I0528 06:56:25.315600    79 net.cpp:165] Memory required for data: 178983552
I0528 06:56:25.315605    79 layer_factory.hpp:77] Creating layer ext/pm4_mbox_loc_flat
I0528 06:56:25.315620    79 net.cpp:100] Creating Layer ext/pm4_mbox_loc_flat
I0528 06:56:25.315629    79 net.cpp:434] ext/pm4_mbox_loc_flat <- ext/pm4_mbox_loc_perm
I0528 06:56:25.315636    79 net.cpp:408] ext/pm4_mbox_loc_flat -> ext/pm4_mbox_loc_flat
I0528 06:56:25.315663    79 net.cpp:150] Setting up ext/pm4_mbox_loc_flat
I0528 06:56:25.315671    79 net.cpp:157] Top shape: 1 600 (600)
I0528 06:56:25.315676    79 net.cpp:165] Memory required for data: 178985952
I0528 06:56:25.315681    79 layer_factory.hpp:77] Creating layer ext/pm4_mbox_conf
I0528 06:56:25.315690    79 net.cpp:100] Creating Layer ext/pm4_mbox_conf
I0528 06:56:25.315696    79 net.cpp:434] ext/pm4_mbox_conf <- stage4_tb/ext/pm4/res_stage4_tb/ext/pm4/res/relu_0_split_1
I0528 06:56:25.315704    79 net.cpp:408] ext/pm4_mbox_conf -> ext/pm4_mbox_conf
I0528 06:56:25.317556    79 net.cpp:150] Setting up ext/pm4_mbox_conf
I0528 06:56:25.317571    79 net.cpp:157] Top shape: 1 12 5 5 (300)
I0528 06:56:25.317576    79 net.cpp:165] Memory required for data: 178987152
I0528 06:56:25.317584    79 layer_factory.hpp:77] Creating layer ext/pm4_mbox_conf_perm
I0528 06:56:25.317591    79 net.cpp:100] Creating Layer ext/pm4_mbox_conf_perm
I0528 06:56:25.317596    79 net.cpp:434] ext/pm4_mbox_conf_perm <- ext/pm4_mbox_conf
I0528 06:56:25.317603    79 net.cpp:408] ext/pm4_mbox_conf_perm -> ext/pm4_mbox_conf_perm
I0528 06:56:25.317705    79 net.cpp:150] Setting up ext/pm4_mbox_conf_perm
I0528 06:56:25.317718    79 net.cpp:157] Top shape: 1 5 5 12 (300)
I0528 06:56:25.317723    79 net.cpp:165] Memory required for data: 178988352
I0528 06:56:25.317728    79 layer_factory.hpp:77] Creating layer ext/pm4_mbox_conf_flat
I0528 06:56:25.317737    79 net.cpp:100] Creating Layer ext/pm4_mbox_conf_flat
I0528 06:56:25.317742    79 net.cpp:434] ext/pm4_mbox_conf_flat <- ext/pm4_mbox_conf_perm
I0528 06:56:25.317749    79 net.cpp:408] ext/pm4_mbox_conf_flat -> ext/pm4_mbox_conf_flat
I0528 06:56:25.317773    79 net.cpp:150] Setting up ext/pm4_mbox_conf_flat
I0528 06:56:25.317792    79 net.cpp:157] Top shape: 1 300 (300)
I0528 06:56:25.317796    79 net.cpp:165] Memory required for data: 178989552
I0528 06:56:25.317801    79 layer_factory.hpp:77] Creating layer ext/pm4_mbox_priorbox
I0528 06:56:25.317808    79 net.cpp:100] Creating Layer ext/pm4_mbox_priorbox
I0528 06:56:25.317816    79 net.cpp:434] ext/pm4_mbox_priorbox <- stage4_tb/ext/pm4/res_stage4_tb/ext/pm4/res/relu_0_split_2
I0528 06:56:25.317823    79 net.cpp:434] ext/pm4_mbox_priorbox <- data_data_0_split_4
I0528 06:56:25.317832    79 net.cpp:408] ext/pm4_mbox_priorbox -> ext/pm4_mbox_priorbox
I0528 06:56:25.317870    79 net.cpp:150] Setting up ext/pm4_mbox_priorbox
I0528 06:56:25.317883    79 net.cpp:157] Top shape: 1 2 600 (1200)
I0528 06:56:25.317890    79 net.cpp:165] Memory required for data: 178994352
I0528 06:56:25.317896    79 layer_factory.hpp:77] Creating layer ext/pm5_mbox_loc
I0528 06:56:25.317906    79 net.cpp:100] Creating Layer ext/pm5_mbox_loc
I0528 06:56:25.317912    79 net.cpp:434] ext/pm5_mbox_loc <- stage4_tb/ext/pm5/res_stage4_tb/ext/pm5/res/relu_0_split_0
I0528 06:56:25.317919    79 net.cpp:408] ext/pm5_mbox_loc -> ext/pm5_mbox_loc
I0528 06:56:25.319752    79 net.cpp:150] Setting up ext/pm5_mbox_loc
I0528 06:56:25.319767    79 net.cpp:157] Top shape: 1 24 3 3 (216)
I0528 06:56:25.319773    79 net.cpp:165] Memory required for data: 178995216
I0528 06:56:25.319780    79 layer_factory.hpp:77] Creating layer ext/pm5_mbox_loc_perm
I0528 06:56:25.319787    79 net.cpp:100] Creating Layer ext/pm5_mbox_loc_perm
I0528 06:56:25.319793    79 net.cpp:434] ext/pm5_mbox_loc_perm <- ext/pm5_mbox_loc
I0528 06:56:25.319800    79 net.cpp:408] ext/pm5_mbox_loc_perm -> ext/pm5_mbox_loc_perm
I0528 06:56:25.319923    79 net.cpp:150] Setting up ext/pm5_mbox_loc_perm
I0528 06:56:25.319937    79 net.cpp:157] Top shape: 1 3 3 24 (216)
I0528 06:56:25.319944    79 net.cpp:165] Memory required for data: 178996080
I0528 06:56:25.319952    79 layer_factory.hpp:77] Creating layer ext/pm5_mbox_loc_flat
I0528 06:56:25.319962    79 net.cpp:100] Creating Layer ext/pm5_mbox_loc_flat
I0528 06:56:25.319967    79 net.cpp:434] ext/pm5_mbox_loc_flat <- ext/pm5_mbox_loc_perm
I0528 06:56:25.319974    79 net.cpp:408] ext/pm5_mbox_loc_flat -> ext/pm5_mbox_loc_flat
I0528 06:56:25.320001    79 net.cpp:150] Setting up ext/pm5_mbox_loc_flat
I0528 06:56:25.320009    79 net.cpp:157] Top shape: 1 216 (216)
I0528 06:56:25.320014    79 net.cpp:165] Memory required for data: 178996944
I0528 06:56:25.320019    79 layer_factory.hpp:77] Creating layer ext/pm5_mbox_conf
I0528 06:56:25.320027    79 net.cpp:100] Creating Layer ext/pm5_mbox_conf
I0528 06:56:25.320034    79 net.cpp:434] ext/pm5_mbox_conf <- stage4_tb/ext/pm5/res_stage4_tb/ext/pm5/res/relu_0_split_1
I0528 06:56:25.320039    79 net.cpp:408] ext/pm5_mbox_conf -> ext/pm5_mbox_conf
I0528 06:56:25.321869    79 net.cpp:150] Setting up ext/pm5_mbox_conf
I0528 06:56:25.321884    79 net.cpp:157] Top shape: 1 12 3 3 (108)
I0528 06:56:25.321889    79 net.cpp:165] Memory required for data: 178997376
I0528 06:56:25.321897    79 layer_factory.hpp:77] Creating layer ext/pm5_mbox_conf_perm
I0528 06:56:25.321904    79 net.cpp:100] Creating Layer ext/pm5_mbox_conf_perm
I0528 06:56:25.321910    79 net.cpp:434] ext/pm5_mbox_conf_perm <- ext/pm5_mbox_conf
I0528 06:56:25.321918    79 net.cpp:408] ext/pm5_mbox_conf_perm -> ext/pm5_mbox_conf_perm
I0528 06:56:25.322036    79 net.cpp:150] Setting up ext/pm5_mbox_conf_perm
I0528 06:56:25.322051    79 net.cpp:157] Top shape: 1 3 3 12 (108)
I0528 06:56:25.322057    79 net.cpp:165] Memory required for data: 178997808
I0528 06:56:25.322063    79 layer_factory.hpp:77] Creating layer ext/pm5_mbox_conf_flat
I0528 06:56:25.322070    79 net.cpp:100] Creating Layer ext/pm5_mbox_conf_flat
I0528 06:56:25.322075    79 net.cpp:434] ext/pm5_mbox_conf_flat <- ext/pm5_mbox_conf_perm
I0528 06:56:25.322082    79 net.cpp:408] ext/pm5_mbox_conf_flat -> ext/pm5_mbox_conf_flat
I0528 06:56:25.322108    79 net.cpp:150] Setting up ext/pm5_mbox_conf_flat
I0528 06:56:25.322116    79 net.cpp:157] Top shape: 1 108 (108)
I0528 06:56:25.322131    79 net.cpp:165] Memory required for data: 178998240
I0528 06:56:25.322137    79 layer_factory.hpp:77] Creating layer ext/pm5_mbox_priorbox
I0528 06:56:25.322144    79 net.cpp:100] Creating Layer ext/pm5_mbox_priorbox
I0528 06:56:25.322149    79 net.cpp:434] ext/pm5_mbox_priorbox <- stage4_tb/ext/pm5/res_stage4_tb/ext/pm5/res/relu_0_split_2
I0528 06:56:25.322156    79 net.cpp:434] ext/pm5_mbox_priorbox <- data_data_0_split_5
I0528 06:56:25.322163    79 net.cpp:408] ext/pm5_mbox_priorbox -> ext/pm5_mbox_priorbox
I0528 06:56:25.322190    79 net.cpp:150] Setting up ext/pm5_mbox_priorbox
I0528 06:56:25.322206    79 net.cpp:157] Top shape: 1 2 216 (432)
I0528 06:56:25.322211    79 net.cpp:165] Memory required for data: 178999968
I0528 06:56:25.322216    79 layer_factory.hpp:77] Creating layer ext/pm6_mbox_loc
I0528 06:56:25.322227    79 net.cpp:100] Creating Layer ext/pm6_mbox_loc
I0528 06:56:25.322233    79 net.cpp:434] ext/pm6_mbox_loc <- stage4_tb/ext/pm6/res_stage4_tb/ext/pm6/res/relu_0_split_0
I0528 06:56:25.322240    79 net.cpp:408] ext/pm6_mbox_loc -> ext/pm6_mbox_loc
I0528 06:56:25.324071    79 net.cpp:150] Setting up ext/pm6_mbox_loc
I0528 06:56:25.324086    79 net.cpp:157] Top shape: 1 24 1 1 (24)
I0528 06:56:25.324091    79 net.cpp:165] Memory required for data: 179000064
I0528 06:56:25.324098    79 layer_factory.hpp:77] Creating layer ext/pm6_mbox_loc_perm
I0528 06:56:25.324108    79 net.cpp:100] Creating Layer ext/pm6_mbox_loc_perm
I0528 06:56:25.324115    79 net.cpp:434] ext/pm6_mbox_loc_perm <- ext/pm6_mbox_loc
I0528 06:56:25.324121    79 net.cpp:408] ext/pm6_mbox_loc_perm -> ext/pm6_mbox_loc_perm
I0528 06:56:25.324223    79 net.cpp:150] Setting up ext/pm6_mbox_loc_perm
I0528 06:56:25.324236    79 net.cpp:157] Top shape: 1 1 1 24 (24)
I0528 06:56:25.324241    79 net.cpp:165] Memory required for data: 179000160
I0528 06:56:25.324246    79 layer_factory.hpp:77] Creating layer ext/pm6_mbox_loc_flat
I0528 06:56:25.324254    79 net.cpp:100] Creating Layer ext/pm6_mbox_loc_flat
I0528 06:56:25.324260    79 net.cpp:434] ext/pm6_mbox_loc_flat <- ext/pm6_mbox_loc_perm
I0528 06:56:25.324266    79 net.cpp:408] ext/pm6_mbox_loc_flat -> ext/pm6_mbox_loc_flat
I0528 06:56:25.324291    79 net.cpp:150] Setting up ext/pm6_mbox_loc_flat
I0528 06:56:25.324299    79 net.cpp:157] Top shape: 1 24 (24)
I0528 06:56:25.324304    79 net.cpp:165] Memory required for data: 179000256
I0528 06:56:25.324308    79 layer_factory.hpp:77] Creating layer ext/pm6_mbox_conf
I0528 06:56:25.324316    79 net.cpp:100] Creating Layer ext/pm6_mbox_conf
I0528 06:56:25.324322    79 net.cpp:434] ext/pm6_mbox_conf <- stage4_tb/ext/pm6/res_stage4_tb/ext/pm6/res/relu_0_split_1
I0528 06:56:25.324329    79 net.cpp:408] ext/pm6_mbox_conf -> ext/pm6_mbox_conf
I0528 06:56:25.326184    79 net.cpp:150] Setting up ext/pm6_mbox_conf
I0528 06:56:25.326207    79 net.cpp:157] Top shape: 1 12 1 1 (12)
I0528 06:56:25.326213    79 net.cpp:165] Memory required for data: 179000304
I0528 06:56:25.326221    79 layer_factory.hpp:77] Creating layer ext/pm6_mbox_conf_perm
I0528 06:56:25.326228    79 net.cpp:100] Creating Layer ext/pm6_mbox_conf_perm
I0528 06:56:25.326234    79 net.cpp:434] ext/pm6_mbox_conf_perm <- ext/pm6_mbox_conf
I0528 06:56:25.326241    79 net.cpp:408] ext/pm6_mbox_conf_perm -> ext/pm6_mbox_conf_perm
I0528 06:56:25.326344    79 net.cpp:150] Setting up ext/pm6_mbox_conf_perm
I0528 06:56:25.326356    79 net.cpp:157] Top shape: 1 1 1 12 (12)
I0528 06:56:25.326361    79 net.cpp:165] Memory required for data: 179000352
I0528 06:56:25.326366    79 layer_factory.hpp:77] Creating layer ext/pm6_mbox_conf_flat
I0528 06:56:25.326373    79 net.cpp:100] Creating Layer ext/pm6_mbox_conf_flat
I0528 06:56:25.326380    79 net.cpp:434] ext/pm6_mbox_conf_flat <- ext/pm6_mbox_conf_perm
I0528 06:56:25.326387    79 net.cpp:408] ext/pm6_mbox_conf_flat -> ext/pm6_mbox_conf_flat
I0528 06:56:25.326418    79 net.cpp:150] Setting up ext/pm6_mbox_conf_flat
I0528 06:56:25.326427    79 net.cpp:157] Top shape: 1 12 (12)
I0528 06:56:25.326432    79 net.cpp:165] Memory required for data: 179000400
I0528 06:56:25.326447    79 layer_factory.hpp:77] Creating layer ext/pm6_mbox_priorbox
I0528 06:56:25.326454    79 net.cpp:100] Creating Layer ext/pm6_mbox_priorbox
I0528 06:56:25.326460    79 net.cpp:434] ext/pm6_mbox_priorbox <- stage4_tb/ext/pm6/res_stage4_tb/ext/pm6/res/relu_0_split_2
I0528 06:56:25.326468    79 net.cpp:434] ext/pm6_mbox_priorbox <- data_data_0_split_6
I0528 06:56:25.326476    79 net.cpp:408] ext/pm6_mbox_priorbox -> ext/pm6_mbox_priorbox
I0528 06:56:25.326514    79 net.cpp:150] Setting up ext/pm6_mbox_priorbox
I0528 06:56:25.326529    79 net.cpp:157] Top shape: 1 2 24 (48)
I0528 06:56:25.326534    79 net.cpp:165] Memory required for data: 179000592
I0528 06:56:25.326542    79 layer_factory.hpp:77] Creating layer mbox_loc
I0528 06:56:25.326550    79 net.cpp:100] Creating Layer mbox_loc
I0528 06:56:25.326555    79 net.cpp:434] mbox_loc <- ext/pm1_mbox_loc_flat
I0528 06:56:25.326561    79 net.cpp:434] mbox_loc <- ext/pm2_mbox_loc_flat
I0528 06:56:25.326566    79 net.cpp:434] mbox_loc <- ext/pm3_mbox_loc_flat
I0528 06:56:25.326571    79 net.cpp:434] mbox_loc <- ext/pm4_mbox_loc_flat
I0528 06:56:25.326577    79 net.cpp:434] mbox_loc <- ext/pm5_mbox_loc_flat
I0528 06:56:25.326582    79 net.cpp:434] mbox_loc <- ext/pm6_mbox_loc_flat
I0528 06:56:25.326588    79 net.cpp:408] mbox_loc -> mbox_loc
I0528 06:56:25.326618    79 net.cpp:150] Setting up mbox_loc
I0528 06:56:25.326627    79 net.cpp:157] Top shape: 1 20568 (20568)
I0528 06:56:25.326632    79 net.cpp:165] Memory required for data: 179082864
I0528 06:56:25.326637    79 layer_factory.hpp:77] Creating layer mbox_conf
I0528 06:56:25.326642    79 net.cpp:100] Creating Layer mbox_conf
I0528 06:56:25.326648    79 net.cpp:434] mbox_conf <- ext/pm1_mbox_conf_flat
I0528 06:56:25.326654    79 net.cpp:434] mbox_conf <- ext/pm2_mbox_conf_flat
I0528 06:56:25.326661    79 net.cpp:434] mbox_conf <- ext/pm3_mbox_conf_flat
I0528 06:56:25.326668    79 net.cpp:434] mbox_conf <- ext/pm4_mbox_conf_flat
I0528 06:56:25.326676    79 net.cpp:434] mbox_conf <- ext/pm5_mbox_conf_flat
I0528 06:56:25.326683    79 net.cpp:434] mbox_conf <- ext/pm6_mbox_conf_flat
I0528 06:56:25.326689    79 net.cpp:408] mbox_conf -> mbox_conf
I0528 06:56:25.326719    79 net.cpp:150] Setting up mbox_conf
I0528 06:56:25.326731    79 net.cpp:157] Top shape: 1 10284 (10284)
I0528 06:56:25.326737    79 net.cpp:165] Memory required for data: 179124000
I0528 06:56:25.326743    79 layer_factory.hpp:77] Creating layer mbox_priorbox
I0528 06:56:25.326750    79 net.cpp:100] Creating Layer mbox_priorbox
I0528 06:56:25.326756    79 net.cpp:434] mbox_priorbox <- ext/pm1_mbox_priorbox
I0528 06:56:25.326761    79 net.cpp:434] mbox_priorbox <- ext/pm2_mbox_priorbox
I0528 06:56:25.326767    79 net.cpp:434] mbox_priorbox <- ext/pm3_mbox_priorbox
I0528 06:56:25.326773    79 net.cpp:434] mbox_priorbox <- ext/pm4_mbox_priorbox
I0528 06:56:25.326779    79 net.cpp:434] mbox_priorbox <- ext/pm5_mbox_priorbox
I0528 06:56:25.326784    79 net.cpp:434] mbox_priorbox <- ext/pm6_mbox_priorbox
I0528 06:56:25.326792    79 net.cpp:408] mbox_priorbox -> mbox_priorbox
I0528 06:56:25.326818    79 net.cpp:150] Setting up mbox_priorbox
I0528 06:56:25.326828    79 net.cpp:157] Top shape: 1 2 20568 (41136)
I0528 06:56:25.326833    79 net.cpp:165] Memory required for data: 179288544
I0528 06:56:25.326836    79 layer_factory.hpp:77] Creating layer mbox_conf_reshape
I0528 06:56:25.326844    79 net.cpp:100] Creating Layer mbox_conf_reshape
I0528 06:56:25.326850    79 net.cpp:434] mbox_conf_reshape <- mbox_conf
I0528 06:56:25.326858    79 net.cpp:408] mbox_conf_reshape -> mbox_conf_reshape
I0528 06:56:25.326891    79 net.cpp:150] Setting up mbox_conf_reshape
I0528 06:56:25.326900    79 net.cpp:157] Top shape: 1 5142 2 (10284)
I0528 06:56:25.326905    79 net.cpp:165] Memory required for data: 179329680
I0528 06:56:25.326910    79 layer_factory.hpp:77] Creating layer mbox_conf_softmax
I0528 06:56:25.326917    79 net.cpp:100] Creating Layer mbox_conf_softmax
I0528 06:56:25.326925    79 net.cpp:434] mbox_conf_softmax <- mbox_conf_reshape
I0528 06:56:25.326941    79 net.cpp:408] mbox_conf_softmax -> mbox_conf_softmax
I0528 06:56:25.327777    79 net.cpp:150] Setting up mbox_conf_softmax
I0528 06:56:25.327792    79 net.cpp:157] Top shape: 1 5142 2 (10284)
I0528 06:56:25.327797    79 net.cpp:165] Memory required for data: 179370816
I0528 06:56:25.327802    79 layer_factory.hpp:77] Creating layer mbox_conf_flatten
I0528 06:56:25.327816    79 net.cpp:100] Creating Layer mbox_conf_flatten
I0528 06:56:25.327822    79 net.cpp:434] mbox_conf_flatten <- mbox_conf_softmax
I0528 06:56:25.327828    79 net.cpp:408] mbox_conf_flatten -> mbox_conf_flatten
I0528 06:56:25.327860    79 net.cpp:150] Setting up mbox_conf_flatten
I0528 06:56:25.327869    79 net.cpp:157] Top shape: 1 10284 (10284)
I0528 06:56:25.327873    79 net.cpp:165] Memory required for data: 179411952
I0528 06:56:25.327878    79 layer_factory.hpp:77] Creating layer detection_out
I0528 06:56:25.327896    79 net.cpp:100] Creating Layer detection_out
I0528 06:56:25.327903    79 net.cpp:434] detection_out <- mbox_loc
I0528 06:56:25.327908    79 net.cpp:434] detection_out <- mbox_conf_flatten
I0528 06:56:25.327913    79 net.cpp:434] detection_out <- mbox_priorbox
I0528 06:56:25.327919    79 net.cpp:408] detection_out -> detection_out
W0528 06:56:25.327947    79 detection_output_layer.cpp:49] Failed to create directory: examples/Pelee/results/
I0528 06:56:25.328402    79 net.cpp:150] Setting up detection_out
I0528 06:56:25.328415    79 net.cpp:157] Top shape: 1 1 1 7 (7)
I0528 06:56:25.328420    79 net.cpp:165] Memory required for data: 179411980
I0528 06:56:25.328425    79 layer_factory.hpp:77] Creating layer detection_eval
I0528 06:56:25.328434    79 net.cpp:100] Creating Layer detection_eval
I0528 06:56:25.328439    79 net.cpp:434] detection_eval <- detection_out
I0528 06:56:25.328445    79 net.cpp:434] detection_eval <- label
I0528 06:56:25.328451    79 net.cpp:408] detection_eval -> detection_eval
I0528 06:56:25.328613    79 net.cpp:150] Setting up detection_eval
I0528 06:56:25.328624    79 net.cpp:157] Top shape: 1 1 2 5 (10)
I0528 06:56:25.328629    79 net.cpp:165] Memory required for data: 179412020
I0528 06:56:25.328634    79 net.cpp:228] detection_eval does not need backward computation.
I0528 06:56:25.328639    79 net.cpp:228] detection_out does not need backward computation.
I0528 06:56:25.328644    79 net.cpp:228] mbox_conf_flatten does not need backward computation.
I0528 06:56:25.328649    79 net.cpp:228] mbox_conf_softmax does not need backward computation.
…
