…
      sampler {
        min_scale: 0.3
        max_scale: 1
        min_aspect_ratio: 0.5
        max_aspect_ratio: 2
      }
      sample_constraint {
        min_jaccard_overlap: 0.9
      }
      max_sample: 1
      max_trials: 50
    }
    batch_sampler {
      sampler {
        min_scale: 0.3
        max_scale: 1
        min_aspect_ratio: 0.5
        max_aspect_ratio: 2
      }
      sample_constraint {
        max_jaccard_overlap: 1
      }
      max_sample: 1
      max_trials: 50
    }
    label_map_file: "data/VOC0712/labelmap_voc.prototxt"
  }
}
layer {
  name: "stem1"
  type: "Convolution"
  bottom: "data"
  top: "stem1"
  convolution_param {
    num_output: 32
    bias_term: false
    pad: 1
    kernel_size: 3
    stride: 2
    weight_filler {
      type: "xavier"
    }
    bias_filler {
      type: "constant"
    }
  }
}
layer {
  name: "stem1/bn"
  type: "BatchNorm"
  bottom: "stem1"
  top: "stem1"
  batch_norm_param {
    moving_average_fraction: 0.999
    eps: 0.001
  }
}
layer {
  name: "stem1/scale"
  type: "Scale"
  bottom: "stem1"
  top: "stem1"
  scale_param {
    filler {
      value: 1
    }
    bias_term: true
    bias_filler {
      value: 0
    }
  }
}
layer {
  name: "stem1/relu"
  type: "ReLU"
  bottom: "stem1"
  top: "stem1"
}
layer {
  name: "stem2a"
  type: "Convolution"
  bottom: "stem1"
  top: "stem2a"
  convolution_param {
    num_output: 16
    bias_term: false
    pad: 0
    kernel_size: 1
    stride: 1
    weight_filler {
      type: "xavier"
    }
    bias_filler {
      type: "constant"
    }
  }
}
layer {
  name: "stem2a/bn"
  type: "BatchNorm"
  bottom: "stem2a"
  top: "stem2a"
  batch_norm_param {
    moving_average_fraction: 0.999
    eps: 0.001
  }
}
layer {
  name: "stem2a/scale"
  type: "Scale"
  bottom: "stem2a"
  top: "stem2a"
  scale_param {
    filler {
      value: 1
    }
    bias_term: true
    bias_filler {
      value: 0
    }
  }
}
layer {
  name: "stem2a/relu"
  type: "ReLU"
  bottom: "stem2a"
  top: "stem2a"
}
layer {
  name: "stem2b"
  type: "Convolution"
  bottom: "stem2a"
  top: "stem2b"
  convolution_param {
    num_output: 32
    bias_term: false
    pad: 1
    kernel_size: 3
    stride: 2
    weight_filler {
      type: "xavier"
    }
    bias_filler {
      type: "constant"
    }
  }
}
layer {
  name: "stem2b/bn"
  type: "BatchNorm"
  bottom: "stem2b"
  top: "stem2b"
  batch_norm_param {
    moving_average_fraction: 0.999
    eps: 0.001
  }
}
layer {
  name: "stem2b/scale"
  type: "Scale"
  bottom: "stem2b"
  top: "stem2b"
  scale_param {
    filler {
      value: 1
    }
    bias_term: true
    bias_filler {
      value: 0
    }
  }
}
layer {
  name: "stem2b/relu"
  type: "ReLU"
  bottom: "stem2b"
  top: "stem2b"
}
layer {
  name: "stem/pool"
  type: "Pooling"
  bottom: "stem1"
  top: "stem/pool"
  pooling_param {
    pool: MAX
    kernel_size: 2
    stride: 2
  }
}
layer {
  name: "stem/concat"
  type: "Concat"
  bottom: "stem/pool"
  bottom: "stem2b"
  top: "stem/concat"
  concat_param {
    axis: 1
  }
}
layer {
  name: "stem3"
  type: "Convolution"
  bottom: "stem/concat"
  top: "stem3"
  convolution_param {
    num_output: 32
    bias_term: false
    pad: 0
    kernel_size: 1
    stride: 1
    weight_filler {
      type: "xavier"
    }
    bias_filler {
      type: "constant"
    }
  }
}
layer {
  name: "stem3/bn"
  type: "BatchNorm"
  bottom: "stem3"
  top: "stem3"
  batch_norm_param {
    moving_average_fraction: 0.999
    eps: 0.001
  }
}
layer {
  name: "stem3/scale"
  type: "Scale"
  bottom: "stem3"
  top: "stem3"
  scale_param {
    filler {
      value: 1
    }
    bias_term: true
    bias_filler {
      value: 0
    }
  }
}
layer {
  name: "stem3/relu"
  type: "ReLU"
  bottom: "stem3"
  top: "stem3"
}
layer {
  name: "stage1_1/branch1a"
  type: "Convolution"
  bottom: "stem3"
  top: "stage1_1/branch1a"
  convolution_param {
    num_output: 16
    bias_term: false
    pad: 0
    kernel_size: 1
    stride: 1
    weight_filler {
      type: "xavier"
    }
    bias_filler {
      type: "constant"
    }
  }
}
layer {
  name: "stage1_1/branch1a/bn"
  type: "BatchNorm"
  bottom: "stage1_1/branch1a"
  top: "stage1_1/branch1a"
  batch_norm_param {
    moving_average_fraction: 0.999
    eps: 0.001
  }
}
layer {
  name: "stage1_1/branch1a/scale"
  type: "Scale"
  bottom: "stage1_1/branch1a"
  top: "stage1_1/branch1a"
  scale_param {
    filler {
      value: 1
    }
    bias_term: true
    bias_filler {
      value: 0
    }
  }
}
layer {
  name: "stage1_1/branch1a/relu"
  type: "ReLU"
  bottom: "stage1_1/branch1a"
  top: "stage1_1/branch1a"
}
layer {
  name: "stage1_1/branch1b"
  type: "Convolution"
  bottom: "stage1_1/branch1a"
  top: "stage1_1/branch1b"
  convolution_param {
    num_output: 16
    bias_term: false
    pad: 1
    kernel_size: 3
    stride: 1
    weight_filler {
      type: "xavier"
    }
    bias_filler {
      type: "constant"
    }
  }
}
layer {
  name: "stage1_1/branch1b/bn"
  type: "BatchNorm"
  bottom: "stage1_1/branch1b"
  top: "stage1_1/branch1b"
  batch_norm_param {
    moving_average_fraction: 0.999
    eps: 0.001
  }
}
layer {
  name: "stage1_1/branch1b/scale"
  type: "Scale"
  bottom: "stage1_1/branch1b"
  top: "stage1_1/branch1b"
  scale_param {
    filler {
      value: 1
    }
    bias_term: true
    bias_filler {
      value: 0
    }
  }
}
layer {
  name: "stage1_1/branch1b/relu"
  type: "ReLU"
  bottom: "stage1_1/branch1b"
  top: "stage1_1/branch1b"
}
layer {
  name: "stage1_1/branch2a"
  type: "Convolution"
  bottom: "stem3"
  top: "stage1_1/branch2a"
  convolution_param {
    num_output: 16
    bias_term: false
    pad: 0
    kernel_size: 1
    stride: 1
    weight_filler {
      type: "xavier"
    }
    bias_filler {
      type: "constant"
    }
  }
}
layer {
  name: "stage1_1/branch2a/bn"
  type: "BatchNorm"
  bottom: "stage1_1/branch2a"
  top: "stage1_1/branch2a"
  batch_norm_param {
    moving_average_fraction: 0.999
    eps: 0.001
  }
}
layer {
  name: "stage1_1/branch2a/scale"
  type: "Scale"
  bottom: "stage1_1/branch2a"
  top: "stage1_1/branch2a"
  scale_param {
    filler {
      value: 1
    }
    bias_term: true
    bias_filler {
      value: 0
    }
  }
}
layer {
  name: "stage1_1/branch2a/relu"
  type: "ReLU"
  bottom: "stage1_1/branch2a"
  top: "stage1_1/branch2a"
}
layer {
  name: "stage1_1/branch2b"
  type: "Convolution"
  bottom: "stage1_1/branch2a"
  top: "stage1_1/branch2b"
  convolution_param {
    num_output: 16
    bias_term: false
    pad: 1
    kernel_size: 3
    stride: 1
    weight_filler {
      type: "xavier"
    }
    bias_filler {
      type: "constant"
    }
  }
}
layer {
  name: "stage1_1/branch2b/bn"
  type: "BatchNorm"
  bottom: "stage1_1/branch2b"
  top: "stage1_1/branch2b"
  batch_norm_param {
    moving_average_fraction: 0.999
    eps: 0.001
  }
}
layer {
  name: "stage1_1/branch2b/scale"
  type: "Scale"
  bottom: "stage1_1/branch2b"
  top: "stage1_1/branch2b"
  scale_param {
    filler {
      value: 1
    }
    bias_term: true
    bias_filler {
      value: 0
    }
  }
}
layer {
  name: "stage1_1/branch2b/relu"
  type: "ReLU"
  bottom: "stage1_1/branch2b"
  top: "stage1_1/branch2b"
}
layer {
  name: "stage1_1/branch2c"
  type: "Convolution"
  bottom: "stage1_1/branch2b"
  top: "stage1_1/branch2c"
  convolution_param {
    num_output: 16
    bias_term: false
    pad: 1
    kernel_size: 3
    stride: 1
    weight_filler {
      type: "xavier"
    }
    bias_filler {
      type: "constant"
    }
  }
}
layer {
  name: "stage1_1/branch2c/bn"
  type: "BatchNorm"
  bottom: "stage1_1/branch2c"
  top: "stage1_1/branch2c"
  batch_norm_param {
    moving_average_fraction: 0.999
    eps: 0.001
  }
}
layer {
  name: "stage1_1/branch2c/scale"
  type: "Scale"
  bottom: "stage1_1/branch2c"
  top: "stage1_1/branch2c"
  scale_param {
    filler {
      value: 1
    }
    bias_term: true
    bias_filler {
      value: 0
    }
  }
}
layer {
  name: "stage1_1/branch2c/relu"
  type: "ReLU"
  bottom: "stage1_1/branch2c"
  top: "stage1_1/branch2c"
}
layer {
  name: "stage1_1/concat"
  type: "Concat"
  bottom: "stem3"
  bottom: "stage1_1/branch1b"
  bottom: "stage1_1/branch2c"
  top: "stage1_1/concat"
  concat_param {
    axis: 1
  }
}
layer {
  name: "stage1_2/branch1a"
  type: "Convolution"
  bottom: "stage1_1/concat"
  top: "stage1_2/branch1a"
  convolution_param {
    num_output: 16
    bias_term: false
    pad: 0
    kernel_size: 1
    stride: 1
    weight_filler {
      type: "xavier"
    }
    bias_filler {
      type: "constant"
    }
  }
}
layer {
  name: "stage1_2/branch1a/bn"
  type: "BatchNorm"
  bottom: "stage1_2/branch1a"
  top: "stage1_2/branch1a"
  batch_norm_param {
    moving_average_fraction: 0.999
    eps: 0.001
  }
}
layer {
  name: "stage1_2/branch1a/scale"
  type: "Scale"
  bottom: "stage1_2/branch1a"
  top: "stage1_2/branch1a"
  scale_param {
    filler {
      value: 1
    }
    bias_term: true
    bias_filler {
      value: 0
    }
  }
}
layer {
  name: "stage1_2/branch1a/relu"
  type: "ReLU"
  bottom: "stage1_2/branch1a"
  top: "stage1_2/branch1a"
}
layer {
  name: "stage1_2/branch1b"
  type: "Convolution"
  bottom: "stage1_2/branch1a"
  top: "stage1_2/branch1b"
  convolution_param {
    num_output: 16
    bias_term: false
    pad: 1
    kernel_size: 3
    stride: 1
    weight_filler {
      type: "xavier"
    }
    bias_filler {
      type: "constant"
    }
  }
}
layer {
  name: "stage1_2/branch1b/bn"
  type: "BatchNorm"
  bottom: "stage1_2/branch1b"
  top: "stage1_2/branch1b"
  batch_norm_param {
    moving_average_fraction: 0.999
    eps: 0.001
  }
}
layer {
  name: "stage1_2/branch1b/scale"
  type: "Scale"
  bottom: "stage1_2/branch1b"
  top: "stage1_2/branch1b"
  scale_param {
    filler {
      value: 1
    }
    bias_term: true
    bias_filler {
      value: 0
    }
  }
}
layer {
  name: "stage1_2/branch1b/relu"
  type: "ReLU"
  bottom: "stage1_2/branch1b"
  top: "stage1_2/branch1b"
}
layer {
  name: "stage1_2/branch2a"
  type: "Convolution"
  bottom: "stage1_1/concat"
  top: "stage1_2/branch2a"
  convolution_param {
    num_output: 16
    bias_term: false
    pad: 0
    kernel_size: 1
    stride: 1
    weight_filler {
      type: "xavier"
    }
    bias_filler {
      type: "constant"
    }
  }
}
layer {
  name: "stage1_2/branch2a/bn"
  type: "BatchNorm"
  bottom: "stage1_2/branch2a"
  top: "stage1_2/branch2a"
  batch_norm_param {
    moving_average_fraction: 0.999
    eps: 0.001
  }
}
layer {
  name: "stage1_2/branch2a/scale"
  type: "Scale"
  bottom: "stage1_2/branch2a"
  top: "stage1_2/branch2a"
  scale_param {
    filler {
      value: 1
    }
    bias_term: true
    bias_filler {
      value: 0
    }
  }
}
layer {
  name: "stage1_2/branch2a/relu"
  type: "ReLU"
  bottom: "stage1_2/branch2a"
  top: "stage1_2/branch2a"
}
layer {
  name: "stage1_2/branch2b"
  type: "Convolution"
  bottom: "stage1_2/branch2a"
  top: "stage1_2/branch2b"
  convolution_param {
    num_output: 16
    bias_term: false
    pad: 1
    kernel_size: 3
    stride: 1
    weight_filler {
      type: "xavier"
    }
    bias_filler {
      type: "constant"
    }
  }
}
layer {
  name: "stage1_2/branch2b/bn"
  type: "BatchNorm"
  bottom: "stage1_2/branch2b"
  top: "stage1_2/branch2b"
  batch_norm_param {
    moving_average_fraction: 0.999
    eps: 0.001
  }
}
layer {
  name: "stage1_2/branch2b/scale"
  type: "Scale"
  bottom: "stage1_2/branch2b"
  top: "stage1_2/branch2b"
  scale_param {
    filler {
      value: 1
    }
    bias_term: true
    bias_filler {
      value: 0
    }
  }
}
layer {
  name: "stage1_2/branch2b/relu"
  type: "ReLU"
  bottom: "stage1_2/branch2b"
  top: "stage1_2/branch2b"
}
layer {
  name: "stage1_2/branch2c"
  type: "Convolution"
  bottom: "stage1_2/branch2b"
  top: "stage1_2/branch2c"
  convolution_param {
    num_output: 16
    bias_term: false
    pad: 1
    kernel_size: 3
    stride: 1
    weight_filler {
      type: "xavier"
    }
    bias_filler {
      type: "constant"
    }
  }
}
layer {
  name: "stage1_2/branch2c/bn"
  type: "BatchNorm"
  bottom: "stage1_2/branch2c"
  top: "stage1_2/branch2c"
  batch_norm_param {
    moving_average_fraction: 0.999
    eps: 0.001
  }
}
layer {
  name: "stage1_2/branch2c/scale"
  type: "Scale"
  bottom: "stage1_2/branch2c"
  top: "stage1_2/branch2c"
  scale_param {
    filler {
      value: 1
    }
    bias_term: true
    bias_filler {
      value: 0
    }
  }
}
layer {
  name: "stage1_2/branch2c/relu"
  type: "ReLU"
  bottom: "stage1_2/branch2c"
  top: "stage1_2/branch2c"
}
layer {
  name: "stage1_2/concat"
  type: "Concat"
  bottom: "stage1_1/concat"
  bottom: "stage1_2/branch1b"
  bottom: "stage1_2/branch2c"
  top: "stage1_2/concat"
  concat_param {
    axis: 1
  }
}
layer {
  name: "stage1_3/branch1a"
  type: "Convolution"
  bottom: "stage1_2/concat"
  top: "stage1_3/branch1a"
  convolution_param {
    num_output: 16
    bias_term: false
    pad: 0
    kernel_size: 1
    stride: 1
    weight_filler {
      type: "xavier"
    }
    bias_filler {
      type: "constant"
    }
  }
}
layer {
  name: "stage1_3/branch1a/bn"
  type: "BatchNorm"
  bottom: "stage1_3/branch1a"
  top: "stage1_3/branch1a"
  batch_norm_param {
    moving_average_fraction: 0.999
    eps: 0.001
  }
}
layer {
  name: "stage1_3/branch1a/scale"
  type: "Scale"
  bottom: "stage1_3/branch1a"
  top: "stage1_3/branch1a"
  scale_param {
    filler {
      value: 1
    }
    bias_term: true
    bias_filler {
      value: 0
    }
  }
}
layer {
  name: "stage1_3/branch1a/relu"
  type: "ReLU"
  bottom: "stage1_3/branch1a"
  top: "stage1_3/branch1a"
}
layer {
  name: "stage1_3/branch1b"
  type: "Convolution"
  bottom: "stage1_3/branch1a"
  top: "stage1_3/branch1b"
  convolution_param {
    num_output: 16
    bias_term: false
    pad: 1
    kernel_size: 3
    stride: 1
    weight_filler {
      type: "xavier"
    }
    bias_filler {
      type: "constant"
    }
  }
}
layer {
  name: "stage1_3/branch1b/bn"
  type: "BatchNorm"
  bottom: "stage1_3/branch1b"
  top: "stage1_3/branch1b"
  batch_norm_param {
    moving_average_fraction: 0.999
    eps: 0.001
  }
}
layer {
  name: "stage1_3/branch1b/scale"
  type: "Scale"
  bottom: "stage1_3/branch1b"
  top: "stage1_3/branch1b"
  scale_param {
    filler {
      value: 1
    }
    bias_term: true
    bias_filler {
      value: 0
    }
  }
}
layer {
  name: "stage1_3/branch1b/relu"
  type: "ReLU"
  bottom: "stage1_3/branch1b"
  top: "stage1_3/branch1b"
}
layer {
  name: "stage1_3/branch2a"
  type: "Convolution"
  bottom: "stage1_2/concat"
  top: "stage1_3/branch2a"
  convolution_param {
    num_output: 16
    bias_term: false
    pad: 0
    kernel_size: 1
    stride: 1
    weight_filler {
      type: "xavier"
    }
    bias_filler {
      type: "constant"
    }
  }
}
layer {
  name: "stage1_3/branch2a/bn"
  type: "BatchNorm"
  bottom: "stage1_3/branch2a"
  top: "stage1_3/branch2a"
  batch_norm_param {
    moving_average_fraction: 0.999
    eps: 0.001
  }
}
layer {
  name: "stage1_3/branch2a/scale"
  type: "Scale"
  bottom: "stage1_3/branch2a"
  top: "stage1_3/branch2a"
  scale_param {
    filler {
      value: 1
    }
    bias_term: true
    bias_filler {
      value: 0
    }
  }
}
layer {
  name: "stage1_3/branch2a/relu"
  type: "ReLU"
  bottom: "stage1_3/branch2a"
  top: "stage1_3/branch2a"
}
layer {
  name: "stage1_3/branch2b"
  type: "Convolution"
  bottom: "stage1_3/branch2a"
  top: "stage1_3/branch2b"
  convolution_param {
    num_output: 16
    bias_term: false
    pad: 1
    kernel_size: 3
    stride: 1
    weight_filler {
      type: "xavier"
    }
    bias_filler {
      type: "constant"
    }
  }
}
layer {
  name: "stage1_3/branch2b/bn"
  type: "BatchNorm"
  bottom: "stage1_3/branch2b"
  top: "stage1_3/branch2b"
  batch_norm_param {
    moving_average_fraction: 0.999
    eps: 0.001
  }
}
layer {
  name: "stage1_3/branch2b/scale"
  type: "Scale"
  bottom: "stage1_3/branch2b"
  top: "stage1_3/branch2b"
  scale_param {
    filler {
      value: 1
    }
    bias_term: true
    bias_filler {
      value: 0
    }
  }
}
layer {
  name: "stage1_3/branch2b/relu"
  type: "ReLU"
  bottom: "stage1_3/branch2b"
  top: "stage1_3/branch2b"
}
layer {
  name: "stage1_3/branch2c"
  type: "Convolution"
  bottom: "stage1_3/branch2b"
  top: "stage1_3/branch2c"
  convolution_param {
    num_output: 16
    bias_term: false
    pad: 1
    kernel_size: 3
    stride: 1
    weight_filler {
      type: "xavier"
    }
    bias_filler {
      type: "constant"
    }
  }
}
layer {
  name: "stage1_3/branch2c/bn"
  type: "BatchNorm"
  bottom: "stage1_3/branch2c"
  top: "stage1_3/branch2c"
  batch_norm_param {
    moving_average_fraction: 0.999
    eps: 0.001
  }
}
layer {
  name: "stage1_3/branch2c/scale"
  type: "Scale"
  bottom: "stage1_3/branch2c"
  top: "stage1_3/branch2c"
  scale_param {
    filler {
      value: 1
    }
    bias_term: true
    bias_filler {
      value: 0
    }
  }
}
layer {
  name: "stage1_3/branch2c/relu"
  type: "ReLU"
  bottom: "stage1_3/branch2c"
  top: "stage1_3/branch2c"
}
layer {
  name: "stage1_3/concat"
  type: "Concat"
  bottom: "stage1_2/concat"
  bottom: "stage1_3/branch1b"
  bottom: "stage1_3/branch2c"
  top: "stage1_3/concat"
  concat_param {
    axis: 1
  }
}
layer {
  name: "stage1_tb"
  type: "Convolution"
  bottom: "stage1_3/concat"
  top: "stage1_tb"
  convolution_param {
    num_output: 128
    bias_term: false
    pad: 0
    kernel_size: 1
    stride: 1
    weight_filler {
      type: "xavier"
    }
    bias_filler {
      type: "constant"
    }
  }
}
layer {
  name: "stage1_tb/bn"
  type: "BatchNorm"
  bottom: "stage1_tb"
  top: "stage1_tb"
  batch_norm_param {
    moving_average_fraction: 0.999
    eps: 0.001
  }
}
layer {
  name: "stage1_tb/scale"
  type: "Scale"
  bottom: "stage1_tb"
  top: "stage1_tb"
  scale_param {
    filler {
      value: 1
    }
    bias_term: true
    bias_filler {
      value: 0
    }
  }
}
layer {
  name: "stage1_tb/relu"
  type: "ReLU"
  bottom: "stage1_tb"
  top: "stage1_tb"
}
layer {
  name: "stage1_tb/pool"
  type: "Pooling"
  bottom: "stage1_tb"
  top: "stage1_tb/pool"
  pooling_param {
    pool: AVE
    kernel_size: 2
    stride: 2
  }
}
layer {
  name: "stage2_1/branch1a"
  type: "Convolution"
  bottom: "stage1_tb/pool"
  top: "stage2_1/branch1a"
  convolution_param {
    num_output: 32
    bias_term: false
    pad: 0
    kernel_size: 1
    stride: 1
    weight_filler {
      type: "xavier"
    }
    bias_filler {
      type: "constant"
    }
  }
}
layer {
  name: "stage2_1/branch1a/bn"
  type: "BatchNorm"
  bottom: "stage2_1/branch1a"
  top: "stage2_1/branch1a"
  batch_norm_param {
    moving_average_fraction: 0.999
    eps: 0.001
  }
}
layer {
  name: "stage2_1/branch1a/scale"
  type: "Scale"
  bottom: "stage2_1/branch1a"
  top: "stage2_1/branch1a"
  scale_param {
    filler {
      value: 1
    }
    bias_term: true
    bias_filler {
      value: 0
    }
  }
}
layer {
  name: "stage2_1/branch1a/relu"
  type: "ReLU"
  bottom: "stage2_1/branch1a"
  top: "stage2_1/branch1a"
}
layer {
  name: "stage2_1/branch1b"
  type: "Convolution"
  bottom: "stage2_1/branch1a"
  top: "stage2_1/branch1b"
  convolution_param {
    num_output: 16
    bias_term: false
    pad: 1
    kernel_size: 3
    stride: 1
    weight_filler {
      type: "xavier"
    }
    bias_filler {
      type: "constant"
    }
  }
}
layer {
  name: "stage2_1/branch1b/bn"
  type: "BatchNorm"
  bottom: "stage2_1/branch1b"
  top: "stage2_1/branch1b"
  batch_norm_param {
    moving_average_fraction: 0.999
    eps: 0.001
  }
}
layer {
  name: "stage2_1/branch1b/scale"
  type: "Scale"
  bottom: "stage2_1/branch1b"
  top: "stage2_1/branch1b"
  scale_param {
    filler {
      value: 1
    }
    bias_term: true
    bias_filler {
      value: 0
    }
  }
}
layer {
  name: "stage2_1/branch1b/relu"
  type: "ReLU"
  bottom: "stage2_1/branch1b"
  top: "stage2_1/branch1b"
}
layer {
  name: "stage2_1/branch2a"
  type: "Convolution"
  bottom: "stage1_tb/pool"
  top: "stage2_1/branch2a"
  convolution_param {
    num_output: 32
    bias_term: false
    pad: 0
    kernel_size: 1
    stride: 1
    weight_filler {
      type: "xavier"
    }
    bias_filler {
      type: "constant"
    }
  }
}
layer {
  name: "stage2_1/branch2a/bn"
  type: "BatchNorm"
  bottom: "stage2_1/branch2a"
  top: "stage2_1/branch2a"
  batch_norm_param {
    moving_average_fraction: 0.999
    eps: 0.001
  }
}
layer {
  name: "stage2_1/branch2a/scale"
  type: "Scale"
  bottom: "stage2_1/branch2a"
  top: "stage2_1/branch2a"
  scale_param {
    filler {
      value: 1
    }
    bias_term: true
    bias_filler {
      value: 0
    }
  }
}
layer {
  name: "stage2_1/branch2a/relu"
  type: "ReLU"
  bottom: "stage2_1/branch2a"
  top: "stage2_1/branch2a"
}
layer {
  name: "stage2_1/branch2b"
  type: "Convolution"
  bottom: "stage2_1/branch2a"
  top: "stage2_1/branch2b"
  convolution_param {
    num_output: 16
    bias_term: false
    pad: 1
    kernel_size: 3
    stride: 1
    weight_filler {
      type: "xavier"
    }
    bias_filler {
      type: "constant"
    }
  }
}
layer {
  name: "stage2_1/branch2b/bn"
  type: "BatchNorm"
  bottom: "stage2_1/branch2b"
  top: "stage2_1/branch2b"
  batch_norm_param {
    moving_average_fraction: 0.999
    eps: 0.001
  }
}
layer {
  name: "stage2_1/branch2b/scale"
  type: "Scale"
  bottom: "stage2_1/branch2b"
  top: "stage2_1/branch2b"
  scale_param {
    filler {
      value: 1
    }
    bias_term: true
    bias_filler {
      value: 0
    }
  }
}
layer {
  name: "stage2_1/branch2b/relu"
  type: "ReLU"
  bottom: "stage2_1/branch2b"
  top: "stage2_1/branch2b"
}
layer {
  name: "stage2_1/branch2c"
  type: "Convolution"
  bottom: "stage2_1/branch2b"
  top: "stage2_1/branch2c"
  convolution_param {
    num_output: 16
    bias_term: false
    pad: 1
    kernel_size: 3
    stride: 1
    weight_filler {
      type: "xavier"
    }
    bias_filler {
      type: "constant"
    }
  }
}
layer {
  name: "stage2_1/branch2c/bn"
  type: "BatchNorm"
  bottom: "stage2_1/branch2c"
  top: "stage2_1/branch2c"
  batch_norm_param {
    moving_average_fraction: 0.999
    eps: 0.001
  }
}
layer {
  name: "stage2_1/branch2c/scale"
  type: "Scale"
  bottom: "stage2_1/branch2c"
  top: "stage2_1/branch2c"
  scale_param {
    filler {
      value: 1
    }
    bias_term: true
    bias_filler {
      value: 0
    }
  }
}
layer {
  name: "stage2_1/branch2c/relu"
  type: "ReLU"
  bottom: "stage2_1/branch2c"
  top: "stage2_1/branch2c"
}
layer {
  name: "stage2_1/concat"
  type: "Concat"
  bottom: "stage1_tb/pool"
  bottom: "stage2_1/branch1b"
  bottom: "stage2_1/branch2c"
  top: "stage2_1/concat"
  concat_param {
    axis: 1
  }
}
layer {
  name: "stage2_2/branch1a"
  type: "Convolution"
  bottom: "stage2_1/concat"
  top: "stage2_2/branch1a"
  convolution_param {
    num_output: 32
    bias_term: false
    pad: 0
    kernel_size: 1
    stride: 1
    weight_filler {
      type: "xavier"
    }
    bias_filler {
      type: "constant"
    }
  }
}
layer {
  name: "stage2_2/branch1a/bn"
  type: "BatchNorm"
  bottom: "stage2_2/branch1a"
  top: "stage2_2/branch1a"
  batch_norm_param {
    moving_average_fraction: 0.999
    eps: 0.001
  }
}
layer {
  name: "stage2_2/branch1a/scale"
  type: "Scale"
  bottom: "stage2_2/branch1a"
  top: "stage2_2/branch1a"
  scale_param {
    filler {
      value: 1
    }
    bias_term: true
    bias_filler {
      value: 0
    }
  }
}
layer {
  name: "stage2_2/branch1a/relu"
  type: "ReLU"
  bottom: "stage2_2/branch1a"
  top: "stage2_2/branch1a"
}
layer {
  name: "stage2_2/branch1b"
  type: "Convolution"
  bottom: "stage2_2/branch1a"
  top: "stage2_2/branch1b"
  convolution_param {
    num_output: 16
    bias_term: false
    pad: 1
    kernel_size: 3
    stride: 1
    weight_filler {
      type: "xavier"
    }
    bias_filler {
      type: "constant"
    }
  }
}
layer {
  name: "stage2_2/branch1b/bn"
  type: "BatchNorm"
  bottom: "stage2_2/branch1b"
  top: "stage2_2/branch1b"
  batch_norm_param {
    moving_average_fraction: 0.999
    eps: 0.001
  }
}
layer {
  name: "stage2_2/branch1b/scale"
  type: "Scale"
  bottom: "stage2_2/branch1b"
  top: "stage2_2/branch1b"
  scale_param {
    filler {
      value: 1
    }
    bias_term: true
    bias_filler {
      value: 0
    }
  }
}
layer {
  name: "stage2_2/branch1b/relu"
  type: "ReLU"
  bottom: "stage2_2/branch1b"
  top: "stage2_2/branch1b"
}
layer {
  name: "stage2_2/branch2a"
  type: "Convolution"
  bottom: "stage2_1/concat"
  top: "stage2_2/branch2a"
  convolution_param {
    num_output: 32
    bias_term: false
    pad: 0
    kernel_size: 1
    stride: 1
    weight_filler {
      type: "xavier"
    }
    bias_filler {
      type: "constant"
    }
  }
}
layer {
  name: "stage2_2/branch2a/bn"
  type: "BatchNorm"
  bottom: "stage2_2/branch2a"
  top: "stage2_2/branch2a"
  batch_norm_param {
    moving_average_fraction: 0.999
    eps: 0.001
  }
}
layer {
  name: "stage2_2/branch2a/scale"
  type: "Scale"
  bottom: "stage2_2/branch2a"
  top: "stage2_2/branch2a"
  scale_param {
    filler {
      value: 1
    }
    bias_term: true
    bias_filler {
      value: 0
    }
  }
}
layer {
  name: "stage2_2/branch2a/relu"
  type: "ReLU"
  bottom: "stage2_2/branch2a"
  top: "stage2_2/branch2a"
}
layer {
  name: "stage2_2/branch2b"
  type: "Convolution"
  bottom: "stage2_2/branch2a"
  top: "stage2_2/branch2b"
  convolution_param {
    num_output: 16
    bias_term: false
    pad: 1
    kernel_size: 3
    stride: 1
    weight_filler {
      type: "xavier"
    }
    bias_filler {
      type: "constant"
    }
  }
}
layer {
  name: "stage2_2/branch2b/bn"
  type: "BatchNorm"
  bottom: "stage2_2/branch2b"
  top: "stage2_2/branch2b"
  batch_norm_param {
    moving_average_fraction: 0.999
    eps: 0.001
  }
}
layer {
  name: "stage2_2/branch2b/scale"
  type: "Scale"
  bottom: "stage2_2/branch2b"
  top: "stage2_2/branch2b"
  scale_param {
    filler {
      value: 1
    }
    bias_term: true
    bias_filler {
      value: 0
    }
  }
}
layer {
  name: "stage2_2/branch2b/relu"
  type: "ReLU"
  bottom: "stage2_2/branch2b"
  top: "stage2_2/branch2b"
}
layer {
  name: "stage2_2/branch2c"
  type: "Convolution"
  bottom: "stage2_2/branch2b"
  top: "stage2_2/branch2c"
  convolution_param {
    num_output: 16
    bias_term: false
    pad: 1
    kernel_size: 3
    stride: 1
    weight_filler {
      type: "xavier"
    }
    bias_filler {
      type: "constant"
    }
  }
}
layer {
  name: "stage2_2/branch2c/bn"
  type: "BatchNorm"
  bottom: "stage2_2/branch2c"
  top: "stage2_2/branch2c"
  batch_norm_param {
    moving_average_fraction: 0.999
    eps: 0.001
  }
}
layer {
  name: "stage2_2/branch2c/scale"
  type: "Scale"
  bottom: "stage2_2/branch2c"
  top: "stage2_2/branch2c"
  scale_param {
    filler {
      value: 1
    }
    bias_term: true
    bias_filler {
      value: 0
    }
  }
}
layer {
  name: "stage2_2/branch2c/relu"
  type: "ReLU"
  bottom: "stage2_2/branch2c"
  top: "stage2_2/branch2c"
}
layer {
  name: "stage2_2/concat"
  type: "Concat"
  bottom: "stage2_1/concat"
  bottom: "stage2_2/branch1b"
  bottom: "stage2_2/branch2c"
  top: "stage2_2/concat"
  concat_param {
    axis: 1
  }
}
layer {
  name: "stage2_3/branch1a"
  type: "Convolution"
  bottom: "stage2_2/concat"
  top: "stage2_3/branch1a"
  convolution_param {
    num_output: 32
    bias_term: false
    pad: 0
    kernel_size: 1
    stride: 1
    weight_filler {
      type: "xavier"
    }
    bias_filler {
      type: "constant"
    }
  }
}
layer {
  name: "stage2_3/branch1a/bn"
  type: "BatchNorm"
  bottom: "stage2_3/branch1a"
  top: "stage2_3/branch1a"
  batch_norm_param {
    moving_average_fraction: 0.999
    eps: 0.001
  }
}
layer {
  name: "stage2_3/branch1a/scale"
  type: "Scale"
  bottom: "stage2_3/branch1a"
  top: "stage2_3/branch1a"
  scale_param {
    filler {
      value: 1
    }
    bias_term: true
    bias_filler {
      value: 0
    }
  }
}
layer {
  name: "stage2_3/branch1a/relu"
  type: "ReLU"
  bottom: "stage2_3/branch1a"
  top: "stage2_3/branch1a"
}
layer {
  name: "stage2_3/branch1b"
  type: "Convolution"
  bottom: "stage2_3/branch1a"
  top: "stage2_3/branch1b"
  c
I0529 09:14:33.290150 23214 layer_factory.hpp:77] Creating layer data
I0529 09:14:33.290292 23214 net.cpp:100] Creating Layer data
I0529 09:14:33.290303 23214 net.cpp:408] data -> data
I0529 09:14:33.290328 23214 net.cpp:408] data -> label
I0529 09:14:33.291038 23222 db_lmdb.cpp:35] Opened lmdb examples/Pelee/trainval_lmdb
I0529 09:14:33.312724 23214 annotated_data_layer.cpp:62] output data size: 16,3,304,304
I0529 09:14:33.339810 23214 net.cpp:150] Setting up data
I0529 09:14:33.339838 23214 net.cpp:157] Top shape: 16 3 304 304 (4435968)
I0529 09:14:33.339843 23214 net.cpp:157] Top shape: 1 1 5 8 (40)
I0529 09:14:33.339844 23214 net.cpp:165] Memory required for data: 17744032
I0529 09:14:33.339855 23214 layer_factory.hpp:77] Creating layer data_data_0_split
I0529 09:14:33.339874 23214 net.cpp:100] Creating Layer data_data_0_split
I0529 09:14:33.339880 23214 net.cpp:434] data_data_0_split <- data
I0529 09:14:33.339901 23214 net.cpp:408] data_data_0_split -> data_data_0_split_0
I0529 09:14:33.339910 23214 net.cpp:408] data_data_0_split -> data_data_0_split_1
I0529 09:14:33.339915 23214 net.cpp:408] data_data_0_split -> data_data_0_split_2
I0529 09:14:33.339920 23214 net.cpp:408] data_data_0_split -> data_data_0_split_3
I0529 09:14:33.339924 23214 net.cpp:408] data_data_0_split -> data_data_0_split_4
I0529 09:14:33.339927 23214 net.cpp:408] data_data_0_split -> data_data_0_split_5
I0529 09:14:33.339931 23214 net.cpp:408] data_data_0_split -> data_data_0_split_6
I0529 09:14:33.340108 23214 net.cpp:150] Setting up data_data_0_split
I0529 09:14:33.340116 23214 net.cpp:157] Top shape: 16 3 304 304 (4435968)
I0529 09:14:33.340119 23214 net.cpp:157] Top shape: 16 3 304 304 (4435968)
I0529 09:14:33.340122 23214 net.cpp:157] Top shape: 16 3 304 304 (4435968)
I0529 09:14:33.340126 23214 net.cpp:157] Top shape: 16 3 304 304 (4435968)
I0529 09:14:33.340128 23214 net.cpp:157] Top shape: 16 3 304 304 (4435968)
I0529 09:14:33.340131 23214 net.cpp:157] Top shape: 16 3 304 304 (4435968)
I0529 09:14:33.340134 23214 net.cpp:157] Top shape: 16 3 304 304 (4435968)
I0529 09:14:33.340137 23214 net.cpp:165] Memory required for data: 141951136
I0529 09:14:33.340139 23214 layer_factory.hpp:77] Creating layer stem1
I0529 09:14:33.340152 23214 net.cpp:100] Creating Layer stem1
I0529 09:14:33.340155 23214 net.cpp:434] stem1 <- data_data_0_split_0
I0529 09:14:33.340159 23214 net.cpp:408] stem1 -> stem1
I0529 09:14:33.358013 23223 blocking_queue.cpp:50] Waiting for data
I0529 09:14:33.865195 23214 net.cpp:150] Setting up stem1
I0529 09:14:33.865350 23214 net.cpp:157] Top shape: 16 32 152 152 (11829248)
I0529 09:14:33.865356 23214 net.cpp:165] Memory required for data: 189268128
I0529 09:14:33.865373 23214 layer_factory.hpp:77] Creating layer stem1/bn
I0529 09:14:33.865386 23214 net.cpp:100] Creating Layer stem1/bn
I0529 09:14:33.865391 23214 net.cpp:434] stem1/bn <- stem1
I0529 09:14:33.865396 23214 net.cpp:395] stem1/bn -> stem1 (in-place)
I0529 09:14:33.866328 23214 net.cpp:150] Setting up stem1/bn
I0529 09:14:33.866339 23214 net.cpp:157] Top shape: 16 32 152 152 (11829248)
I0529 09:14:33.866341 23214 net.cpp:165] Memory required for data: 236585120
I0529 09:14:33.866350 23214 layer_factory.hpp:77] Creating layer stem1/scale
I0529 09:14:33.866358 23214 net.cpp:100] Creating Layer stem1/scale
I0529 09:14:33.866361 23214 net.cpp:434] stem1/scale <- stem1
I0529 09:14:33.866365 23214 net.cpp:395] stem1/scale -> stem1 (in-place)
I0529 09:14:33.866400 23214 layer_factory.hpp:77] Creating layer stem1/scale
I0529 09:14:33.866508 23214 net.cpp:150] Setting up stem1/scale
I0529 09:14:33.866514 23214 net.cpp:157] Top shape: 16 32 152 152 (11829248)
I0529 09:14:33.866518 23214 net.cpp:165] Memory required for data: 283902112
I0529 09:14:33.866523 23214 layer_factory.hpp:77] Creating layer stem1/relu
I0529 09:14:33.866526 23214 net.cpp:100] Creating Layer stem1/relu
I0529 09:14:33.866529 23214 net.cpp:434] stem1/relu <- stem1
I0529 09:14:33.866533 23214 net.cpp:395] stem1/relu -> stem1 (in-place)
I0529 09:14:33.866830 23214 net.cpp:150] Setting up stem1/relu
I0529 09:14:33.866839 23214 net.cpp:157] Top shape: 16 32 152 152 (11829248)
I0529 09:14:33.866842 23214 net.cpp:165] Memory required for data: 331219104
I0529 09:14:33.866844 23214 layer_factory.hpp:77] Creating layer stem1_stem1/relu_0_split
I0529 09:14:33.866849 23214 net.cpp:100] Creating Layer stem1_stem1/relu_0_split
I0529 09:14:33.866852 23214 net.cpp:434] stem1_stem1/relu_0_split <- stem1
I0529 09:14:33.866856 23214 net.cpp:408] stem1_stem1/relu_0_split -> stem1_stem1/relu_0_split_0
I0529 09:14:33.866861 23214 net.cpp:408] stem1_stem1/relu_0_split -> stem1_stem1/relu_0_split_1
I0529 09:14:33.866890 23214 net.cpp:150] Setting up stem1_stem1/relu_0_split
I0529 09:14:33.866896 23214 net.cpp:157] Top shape: 16 32 152 152 (11829248)
I0529 09:14:33.866899 23214 net.cpp:157] Top shape: 16 32 152 152 (11829248)
I0529 09:14:33.866901 23214 net.cpp:165] Memory required for data: 425853088
I0529 09:14:33.866904 23214 layer_factory.hpp:77] Creating layer stem2a
I0529 09:14:33.866911 23214 net.cpp:100] Creating Layer stem2a
I0529 09:14:33.866914 23214 net.cpp:434] stem2a <- stem1_stem1/relu_0_split_0
I0529 09:14:33.866919 23214 net.cpp:408] stem2a -> stem2a
I0529 09:14:33.868265 23214 net.cpp:150] Setting up stem2a
I0529 09:14:33.868278 23214 net.cpp:157] Top shape: 16 16 152 152 (5914624)
I0529 09:14:33.868280 23214 net.cpp:165] Memory required for data: 449511584
I0529 09:14:33.868284 23214 layer_factory.hpp:77] Creating layer stem2a/bn
I0529 09:14:33.868290 23214 net.cpp:100] Creating Layer stem2a/bn
I0529 09:14:33.868307 23214 net.cpp:434] stem2a/bn <- stem2a
I0529 09:14:33.868312 23214 net.cpp:395] stem2a/bn -> stem2a (in-place)
I0529 09:14:33.868463 23214 net.cpp:150] Setting up stem2a/bn
I0529 09:14:33.868468 23214 net.cpp:157] Top shape: 16 16 152 152 (5914624)
I0529 09:14:33.868471 23214 net.cpp:165] Memory required for data: 473170080
I0529 09:14:33.868479 23214 layer_factory.hpp:77] Creating layer stem2a/scale
I0529 09:14:33.868482 23214 net.cpp:100] Creating Layer stem2a/scale
I0529 09:14:33.868485 23214 net.cpp:434] stem2a/scale <- stem2a
I0529 09:14:33.868489 23214 net.cpp:395] stem2a/scale -> stem2a (in-place)
I0529 09:14:33.868521 23214 layer_factory.hpp:77] Creating layer stem2a/scale
I0529 09:14:33.868615 23214 net.cpp:150] Setting up stem2a/scale
I0529 09:14:33.868621 23214 net.cpp:157] Top shape: 16 16 152 152 (5914624)
I0529 09:14:33.868624 23214 net.cpp:165] Memory required for data: 496828576
I0529 09:14:33.868628 23214 layer_factory.hpp:77] Creating layer stem2a/relu
I0529 09:14:33.868633 23214 net.cpp:100] Creating Layer stem2a/relu
I0529 09:14:33.868634 23214 net.cpp:434] stem2a/relu <- stem2a
I0529 09:14:33.868638 23214 net.cpp:395] stem2a/relu -> stem2a (in-place)
I0529 09:14:33.868924 23214 net.cpp:150] Setting up stem2a/relu
I0529 09:14:33.868947 23214 net.cpp:157] Top shape: 16 16 152 152 (5914624)
I0529 09:14:33.868950 23214 net.cpp:165] Memory required for data: 520487072
I0529 09:14:33.868953 23214 layer_factory.hpp:77] Creating layer stem2b
I0529 09:14:33.868973 23214 net.cpp:100] Creating Layer stem2b
I0529 09:14:33.868976 23214 net.cpp:434] stem2b <- stem2a
I0529 09:14:33.868980 23214 net.cpp:408] stem2b -> stem2b
I0529 09:14:33.871326 23214 net.cpp:150] Setting up stem2b
I0529 09:14:33.871337 23214 net.cpp:157] Top shape: 16 32 76 76 (2957312)
I0529 09:14:33.871340 23214 net.cpp:165] Memory required for data: 532316320
I0529 09:14:33.871345 23214 layer_factory.hpp:77] Creating layer stem2b/bn
I0529 09:14:33.871350 23214 net.cpp:100] Creating Layer stem2b/bn
I0529 09:14:33.871352 23214 net.cpp:434] stem2b/bn <- stem2b
I0529 09:14:33.871356 23214 net.cpp:395] stem2b/bn -> stem2b (in-place)
I0529 09:14:33.871531 23214 net.cpp:150] Setting up stem2b/bn
I0529 09:14:33.871538 23214 net.cpp:157] Top shape: 16 32 76 76 (2957312)
I0529 09:14:33.871541 23214 net.cpp:165] Memory required for data: 544145568
I0529 09:14:33.871546 23214 layer_factory.hpp:77] Creating layer stem2b/scale
I0529 09:14:33.871549 23214 net.cpp:100] Creating Layer stem2b/scale
I0529 09:14:33.871553 23214 net.cpp:434] stem2b/scale <- stem2b
I0529 09:14:33.871556 23214 net.cpp:395] stem2b/scale -> stem2b (in-place)
I0529 09:14:33.871584 23214 layer_factory.hpp:77] Creating layer stem2b/scale
I0529 09:14:33.871670 23214 net.cpp:150] Setting up stem2b/scale
I0529 09:14:33.871677 23214 net.cpp:157] Top shape: 16 32 76 76 (2957312)
I0529 09:14:33.871680 23214 net.cpp:165] Memory required for data: 555974816
I0529 09:14:33.871685 23214 layer_factory.hpp:77] Creating layer stem2b/relu
I0529 09:14:33.871690 23214 net.cpp:100] Creating Layer stem2b/relu
I0529 09:14:33.871692 23214 net.cpp:434] stem2b/relu <- stem2b
I0529 09:14:33.871695 23214 net.cpp:395] stem2b/relu -> stem2b (in-place)
I0529 09:14:33.872298 23214 net.cpp:150] Setting up stem2b/relu
I0529 09:14:33.872308 23214 net.cpp:157] Top shape: 16 32 76 76 (2957312)
I0529 09:14:33.872311 23214 net.cpp:165] Memory required for data: 567804064
I0529 09:14:33.872314 23214 layer_factory.hpp:77] Creating layer stem/pool
I0529 09:14:33.872320 23214 net.cpp:100] Creating Layer stem/pool
I0529 09:14:33.872323 23214 net.cpp:434] stem/pool <- stem1_stem1/relu_0_split_1
I0529 09:14:33.872328 23214 net.cpp:408] stem/pool -> stem/pool
I0529 09:14:33.872372 23214 net.cpp:150] Setting up stem/pool
I0529 09:14:33.872382 23214 net.cpp:157] Top shape: 16 32 76 76 (2957312)
I0529 09:14:33.872385 23214 net.cpp:165] Memory required for data: 579633312
I0529 09:14:33.872388 23214 layer_factory.hpp:77] Creating layer stem/concat
I0529 09:14:33.872393 23214 net.cpp:100] Creating Layer stem/concat
I0529 09:14:33.872406 23214 net.cpp:434] stem/concat <- stem/pool
I0529 09:14:33.872409 23214 net.cpp:434] stem/concat <- stem2b
I0529 09:14:33.872413 23214 net.cpp:408] stem/concat -> stem/concat
I0529 09:14:33.872433 23214 net.cpp:150] Setting up stem/concat
I0529 09:14:33.872439 23214 net.cpp:157] Top shape: 16 64 76 76 (5914624)
I0529 09:14:33.872442 23214 net.cpp:165] Memory required for data: 603291808
I0529 09:14:33.872445 23214 layer_factory.hpp:77] Creating layer stem3
I0529 09:14:33.872450 23214 net.cpp:100] Creating Layer stem3
I0529 09:14:33.872453 23214 net.cpp:434] stem3 <- stem/concat
I0529 09:14:33.872457 23214 net.cpp:408] stem3 -> stem3
I0529 09:14:33.874634 23214 net.cpp:150] Setting up stem3
I0529 09:14:33.874646 23214 net.cpp:157] Top shape: 16 32 76 76 (2957312)
I0529 09:14:33.874665 23214 net.cpp:165] Memory required for data: 615121056
I0529 09:14:33.874668 23214 layer_factory.hpp:77] Creating layer stem3/bn
I0529 09:14:33.874673 23214 net.cpp:100] Creating Layer stem3/bn
I0529 09:14:33.874676 23214 net.cpp:434] stem3/bn <- stem3
I0529 09:14:33.874680 23214 net.cpp:395] stem3/bn -> stem3 (in-place)
I0529 09:14:33.874830 23214 net.cpp:150] Setting up stem3/bn
I0529 09:14:33.874836 23214 net.cpp:157] Top shape: 16 32 76 76 (2957312)
I0529 09:14:33.874838 23214 net.cpp:165] Memory required for data: 626950304
I0529 09:14:33.874843 23214 layer_factory.hpp:77] Creating layer stem3/scale
I0529 09:14:33.874847 23214 net.cpp:100] Creating Layer stem3/scale
I0529 09:14:33.874850 23214 net.cpp:434] stem3/scale <- stem3
I0529 09:14:33.874853 23214 net.cpp:395] stem3/scale -> stem3 (in-place)
I0529 09:14:33.874881 23214 layer_factory.hpp:77] Creating layer stem3/scale
I0529 09:14:33.874970 23214 net.cpp:150] Setting up stem3/scale
I0529 09:14:33.874977 23214 net.cpp:157] Top shape: 16 32 76 76 (2957312)
I0529 09:14:33.874979 23214 net.cpp:165] Memory required for data: 638779552
I0529 09:14:33.874984 23214 layer_factory.hpp:77] Creating layer stem3/relu
I0529 09:14:33.874987 23214 net.cpp:100] Creating Layer stem3/relu
I0529 09:14:33.874990 23214 net.cpp:434] stem3/relu <- stem3
I0529 09:14:33.874992 23214 net.cpp:395] stem3/relu -> stem3 (in-place)
I0529 09:14:33.875286 23214 net.cpp:150] Setting up stem3/relu
I0529 09:14:33.875294 23214 net.cpp:157] Top shape: 16 32 76 76 (2957312)
I0529 09:14:33.875298 23214 net.cpp:165] Memory required for data: 650608800
I0529 09:14:33.875299 23214 layer_factory.hpp:77] Creating layer stem3_stem3/relu_0_split
I0529 09:14:33.875303 23214 net.cpp:100] Creating Layer stem3_stem3/relu_0_split
I0529 09:14:33.875306 23214 net.cpp:434] stem3_stem3/relu_0_split <- stem3
I0529 09:14:33.875310 23214 net.cpp:408] stem3_stem3/relu_0_split -> stem3_stem3/relu_0_split_0
I0529 09:14:33.875314 23214 net.cpp:408] stem3_stem3/relu_0_split -> stem3_stem3/relu_0_split_1
I0529 09:14:33.875319 23214 net.cpp:408] stem3_stem3/relu_0_split -> stem3_stem3/relu_0_split_2
I0529 09:14:33.875355 23214 net.cpp:150] Setting up stem3_stem3/relu_0_split
I0529 09:14:33.875363 23214 net.cpp:157] Top shape: 16 32 76 76 (2957312)
I0529 09:14:33.875366 23214 net.cpp:157] Top shape: 16 32 76 76 (2957312)
I0529 09:14:33.875370 23214 net.cpp:157] Top shape: 16 32 76 76 (2957312)
I0529 09:14:33.875371 23214 net.cpp:165] Memory required for data: 686096544
I0529 09:14:33.875373 23214 layer_factory.hpp:77] Creating layer stage1_1/branch1a
I0529 09:14:33.875378 23214 net.cpp:100] Creating Layer stage1_1/branch1a
I0529 09:14:33.875381 23214 net.cpp:434] stage1_1/branch1a <- stem3_stem3/relu_0_split_0
I0529 09:14:33.875391 23214 net.cpp:408] stage1_1/branch1a -> stage1_1/branch1a
I0529 09:14:33.876761 23214 net.cpp:150] Setting up stage1_1/branch1a
I0529 09:14:33.876773 23214 net.cpp:157] Top shape: 16 16 76 76 (1478656)
I0529 09:14:33.876791 23214 net.cpp:165] Memory required for data: 692011168
I0529 09:14:33.876796 23214 layer_factory.hpp:77] Creating layer stage1_1/branch1a/bn
I0529 09:14:33.876801 23214 net.cpp:100] Creating Layer stage1_1/branch1a/bn
I0529 09:14:33.876813 23214 net.cpp:434] stage1_1/branch1a/bn <- stage1_1/branch1a
I0529 09:14:33.876817 23214 net.cpp:395] stage1_1/branch1a/bn -> stage1_1/branch1a (in-place)
I0529 09:14:33.876969 23214 net.cpp:150] Setting up stage1_1/branch1a/bn
I0529 09:14:33.876977 23214 net.cpp:157] Top shape: 16 16 76 76 (1478656)
I0529 09:14:33.876979 23214 net.cpp:165] Memory required for data: 697925792
I0529 09:14:33.876984 23214 layer_factory.hpp:77] Creating layer stage1_1/branch1a/scale
I0529 09:14:33.876988 23214 net.cpp:100] Creating Layer stage1_1/branch1a/scale
I0529 09:14:33.876992 23214 net.cpp:434] stage1_1/branch1a/scale <- stage1_1/branch1a
I0529 09:14:33.876996 23214 net.cpp:395] stage1_1/branch1a/scale -> stage1_1/branch1a (in-place)
I0529 09:14:33.877022 23214 layer_factory.hpp:77] Creating layer stage1_1/branch1a/scale
I0529 09:14:33.877112 23214 net.cpp:150] Setting up stage1_1/branch1a/scale
I0529 09:14:33.877118 23214 net.cpp:157] Top shape: 16 16 76 76 (1478656)
I0529 09:14:33.877121 23214 net.cpp:165] Memory required for data: 703840416
I0529 09:14:33.877125 23214 layer_factory.hpp:77] Creating layer stage1_1/branch1a/relu
I0529 09:14:33.877128 23214 net.cpp:100] Creating Layer stage1_1/branch1a/relu
I0529 09:14:33.877131 23214 net.cpp:434] stage1_1/branch1a/relu <- stage1_1/branch1a
I0529 09:14:33.877135 23214 net.cpp:395] stage1_1/branch1a/relu -> stage1_1/branch1a (in-place)
I0529 09:14:33.877432 23214 net.cpp:150] Setting up stage1_1/branch1a/relu
I0529 09:14:33.877440 23214 net.cpp:157] Top shape: 16 16 76 76 (1478656)
I0529 09:14:33.877444 23214 net.cpp:165] Memory required for data: 709755040
I0529 09:14:33.877446 23214 layer_factory.hpp:77] Creating layer stage1_1/branch1b
I0529 09:14:33.877452 23214 net.cpp:100] Creating Layer stage1_1/branch1b
I0529 09:14:33.877455 23214 net.cpp:434] stage1_1/branch1b <- stage1_1/branch1a
I0529 09:14:33.877460 23214 net.cpp:408] stage1_1/branch1b -> stage1_1/branch1b
I0529 09:14:33.878842 23214 net.cpp:150] Setting up stage1_1/branch1b
I0529 09:14:33.878854 23214 net.cpp:157] Top shape: 16 16 76 76 (1478656)
I0529 09:14:33.878856 23214 net.cpp:165] Memory required for data: 715669664
I0529 09:14:33.878861 23214 layer_factory.hpp:77] Creating layer stage1_1/branch1b/bn
I0529 09:14:33.878866 23214 net.cpp:100] Creating Layer stage1_1/branch1b/bn
I0529 09:14:33.878870 23214 net.cpp:434] stage1_1/branch1b/bn <- stage1_1/branch1b
I0529 09:14:33.878873 23214 net.cpp:395] stage1_1/branch1b/bn -> stage1_1/branch1b (in-place)
I0529 09:14:33.879036 23214 net.cpp:150] Setting up stage1_1/branch1b/bn
I0529 09:14:33.879042 23214 net.cpp:157] Top shape: 16 16 76 76 (1478656)
I0529 09:14:33.879045 23214 net.cpp:165] Memory required for data: 721584288
I0529 09:14:33.879052 23214 layer_factory.hpp:77] Creating layer stage1_1/branch1b/scale
I0529 09:14:33.879058 23214 net.cpp:100] Creating Layer stage1_1/branch1b/scale
I0529 09:14:33.879060 23214 net.cpp:434] stage1_1/branch1b/scale <- stage1_1/branch1b
I0529 09:14:33.879065 23214 net.cpp:395] stage1_1/branch1b/scale -> stage1_1/branch1b (in-place)
I0529 09:14:33.879092 23214 layer_factory.hpp:77] Creating layer stage1_1/branch1b/scale
I0529 09:14:33.879197 23214 net.cpp:150] Setting up stage1_1/branch1b/scale
I0529 09:14:33.879204 23214 net.cpp:157] Top shape: 16 16 76 76 (1478656)
I0529 09:14:33.879205 23214 net.cpp:165] Memory required for data: 727498912
I0529 09:14:33.879209 23214 layer_factory.hpp:77] Creating layer stage1_1/branch1b/relu
I0529 09:14:33.879220 23214 net.cpp:100] Creating Layer stage1_1/branch1b/relu
I0529 09:14:33.879223 23214 net.cpp:434] stage1_1/branch1b/relu <- stage1_1/branch1b
I0529 09:14:33.879226 23214 net.cpp:395] stage1_1/branch1b/relu -> stage1_1/branch1b (in-place)
I0529 09:14:33.879801 23214 net.cpp:150] Setting up stage1_1/branch1b/relu
I0529 09:14:33.879812 23214 net.cpp:157] Top shape: 16 16 76 76 (1478656)
I0529 09:14:33.879829 23214 net.cpp:165] Memory required for data: 733413536
I0529 09:14:33.879832 23214 layer_factory.hpp:77] Creating layer stage1_1/branch2a
I0529 09:14:33.879838 23214 net.cpp:100] Creating Layer stage1_1/branch2a
I0529 09:14:33.879851 23214 net.cpp:434] stage1_1/branch2a <- stem3_stem3/relu_0_split_1
I0529 09:14:33.879856 23214 net.cpp:408] stage1_1/branch2a -> stage1_1/branch2a
I0529 09:14:33.881228 23214 net.cpp:150] Setting up stage1_1/branch2a
I0529 09:14:33.881239 23214 net.cpp:157] Top shape: 16 16 76 76 (1478656)
I0529 09:14:33.881258 23214 net.cpp:165] Memory required for data: 739328160
I0529 09:14:33.881261 23214 layer_factory.hpp:77] Creating layer stage1_1/branch2a/bn
I0529 09:14:33.881266 23214 net.cpp:100] Creating Layer stage1_1/branch2a/bn
I0529 09:14:33.881269 23214 net.cpp:434] stage1_1/branch2a/bn <- stage1_1/branch2a
I0529 09:14:33.881274 23214 net.cpp:395] stage1_1/branch2a/bn -> stage1_1/branch2a (in-place)
I0529 09:14:33.881436 23214 net.cpp:150] Setting up stage1_1/branch2a/bn
I0529 09:14:33.881443 23214 net.cpp:157] Top shape: 16 16 76 76 (1478656)
I0529 09:14:33.881444 23214 net.cpp:165] Memory required for data: 745242784
I0529 09:14:33.881450 23214 layer_factory.hpp:77] Creating layer stage1_1/branch2a/scale
I0529 09:14:33.881456 23214 net.cpp:100] Creating Layer stage1_1/branch2a/scale
I0529 09:14:33.881459 23214 net.cpp:434] stage1_1/branch2a/scale <- stage1_1/branch2a
I0529 09:14:33.881462 23214 net.cpp:395] stage1_1/branch2a/scale -> stage1_1/branch2a (in-place)
I0529 09:14:33.881497 23214 layer_factory.hpp:77] Creating layer stage1_1/branch2a/scale
I0529 09:14:33.881584 23214 net.cpp:150] Setting up stage1_1/branch2a/scale
I0529 09:14:33.881590 23214 net.cpp:157] Top shape: 16 16 76 76 (1478656)
I0529 09:14:33.881593 23214 net.cpp:165] Memory required for data: 751157408
I0529 09:14:33.881597 23214 layer_factory.hpp:77] Creating layer stage1_1/branch2a/relu
I0529 09:14:33.881602 23214 net.cpp:100] Creating Layer stage1_1/branch2a/relu
I0529 09:14:33.881603 23214 net.cpp:434] stage1_1/branch2a/relu <- stage1_1/branch2a
I0529 09:14:33.881606 23214 net.cpp:395] stage1_1/branch2a/relu -> stage1_1/branch2a (in-place)
I0529 09:14:33.881899 23214 net.cpp:150] Setting up stage1_1/branch2a/relu
I0529 09:14:33.881907 23214 net.cpp:157] Top shape: 16 16 76 76 (1478656)
I0529 09:14:33.881909 23214 net.cpp:165] Memory required for data: 757072032
I0529 09:14:33.881911 23214 layer_factory.hpp:77] Creating layer stage1_1/branch2b
I0529 09:14:33.881917 23214 net.cpp:100] Creating Layer stage1_1/branch2b
I0529 09:14:33.881920 23214 net.cpp:434] stage1_1/branch2b <- stage1_1/branch2a
I0529 09:14:33.881924 23214 net.cpp:408] stage1_1/branch2b -> stage1_1/branch2b
I0529 09:14:33.883316 23214 net.cpp:150] Setting up stage1_1/branch2b
I0529 09:14:33.883327 23214 net.cpp:157] Top shape: 16 16 76 76 (1478656)
I0529 09:14:33.883345 23214 net.cpp:165] Memory required for data: 762986656
I0529 09:14:33.883349 23214 layer_factory.hpp:77] Creating layer stage1_1/branch2b/bn
I0529 09:14:33.883354 23214 net.cpp:100] Creating Layer stage1_1/branch2b/bn
I0529 09:14:33.883358 23214 net.cpp:434] stage1_1/branch2b/bn <- stage1_1/branch2b
I0529 09:14:33.883361 23214 net.cpp:395] stage1_1/branch2b/bn -> stage1_1/branch2b (in-place)
I0529 09:14:33.883512 23214 net.cpp:150] Setting up stage1_1/branch2b/bn
I0529 09:14:33.883518 23214 net.cpp:157] Top shape: 16 16 76 76 (1478656)
I0529 09:14:33.883522 23214 net.cpp:165] Memory required for data: 768901280
I0529 09:14:33.883525 23214 layer_factory.hpp:77] Creating layer stage1_1/branch2b/scale
I0529 09:14:33.883530 23214 net.cpp:100] Creating Layer stage1_1/branch2b/scale
I0529 09:14:33.883533 23214 net.cpp:434] stage1_1/branch2b/scale <- stage1_1/branch2b
I0529 09:14:33.883536 23214 net.cpp:395] stage1_1/branch2b/scale -> stage1_1/branch2b (in-place)
I0529 09:14:33.883570 23214 layer_factory.hpp:77] Creating layer stage1_1/branch2b/scale
I0529 09:14:33.883662 23214 net.cpp:150] Setting up stage1_1/branch2b/scale
I0529 09:14:33.883668 23214 net.cpp:157] Top shape: 16 16 76 76 (1478656)
I0529 09:14:33.883671 23214 net.cpp:165] Memory required for data: 774815904
I0529 09:14:33.883675 23214 layer_factory.hpp:77] Creating layer stage1_1/branch2b/relu
I0529 09:14:33.883688 23214 net.cpp:100] Creating Layer stage1_1/branch2b/relu
I0529 09:14:33.883692 23214 net.cpp:434] stage1_1/branch2b/relu <- stage1_1/branch2b
I0529 09:14:33.883695 23214 net.cpp:395] stage1_1/branch2b/relu -> stage1_1/branch2b (in-place)
I0529 09:14:33.883982 23214 net.cpp:150] Setting up stage1_1/branch2b/relu
I0529 09:14:33.883991 23214 net.cpp:157] Top shape: 16 16 76 76 (1478656)
I0529 09:14:33.883993 23214 net.cpp:165] Memory required for data: 780730528
I0529 09:14:33.883996 23214 layer_factory.hpp:77] Creating layer stage1_1/branch2c
I0529 09:14:33.884007 23214 net.cpp:100] Creating Layer stage1_1/branch2c
I0529 09:14:33.884011 23214 net.cpp:434] stage1_1/branch2c <- stage1_1/branch2b
I0529 09:14:33.884014 23214 net.cpp:408] stage1_1/branch2c -> stage1_1/branch2c
I0529 09:14:33.885392 23214 net.cpp:150] Setting up stage1_1/branch2c
I0529 09:14:33.885403 23214 net.cpp:157] Top shape: 16 16 76 76 (1478656)
I0529 09:14:33.885421 23214 net.cpp:165] Memory required for data: 786645152
I0529 09:14:33.885424 23214 layer_factory.hpp:77] Creating layer stage1_1/branch2c/bn
I0529 09:14:33.885430 23214 net.cpp:100] Creating Layer stage1_1/branch2c/bn
I0529 09:14:33.885433 23214 net.cpp:434] stage1_1/branch2c/bn <- stage1_1/branch2c
I0529 09:14:33.885437 23214 net.cpp:395] stage1_1/branch2c/bn -> stage1_1/branch2c (in-place)
I0529 09:14:33.885594 23214 net.cpp:150] Setting up stage1_1/branch2c/bn
I0529 09:14:33.885601 23214 net.cpp:157] Top shape: 16 16 76 76 (1478656)
I0529 09:14:33.885603 23214 net.cpp:165] Memory required for data: 792559776
I0529 09:14:33.885608 23214 layer_factory.hpp:77] Creating layer stage1_1/branch2c/scale
I0529 09:14:33.885612 23214 net.cpp:100] Creating Layer stage1_1/branch2c/scale
I0529 09:14:33.885617 23214 net.cpp:434] stage1_1/branch2c/scale <- stage1_1/branch2c
I0529 09:14:33.885619 23214 net.cpp:395] stage1_1/branch2c/scale -> stage1_1/branch2c (in-place)
I0529 09:14:33.885646 23214 layer_factory.hpp:77] Creating layer stage1_1/branch2c/scale
I0529 09:14:33.885730 23214 net.cpp:150] Setting up stage1_1/branch2c/scale
I0529 09:14:33.885737 23214 net.cpp:157] Top shape: 16 16 76 76 (1478656)
I0529 09:14:33.885740 23214 net.cpp:165] Memory required for data: 798474400
I0529 09:14:33.885743 23214 layer_factory.hpp:77] Creating layer stage1_1/branch2c/relu
I0529 09:14:33.885746 23214 net.cpp:100] Creating Layer stage1_1/branch2c/relu
I0529 09:14:33.885749 23214 net.cpp:434] stage1_1/branch2c/relu <- stage1_1/branch2c
I0529 09:14:33.885752 23214 net.cpp:395] stage1_1/branch2c/relu -> stage1_1/branch2c (in-place)
I0529 09:14:33.886039 23214 net.cpp:150] Setting up stage1_1/branch2c/relu
I0529 09:14:33.886047 23214 net.cpp:157] Top shape: 16 16 76 76 (1478656)
I0529 09:14:33.886050 23214 net.cpp:165] Memory required for data: 804389024
I0529 09:14:33.886052 23214 layer_factory.hpp:77] Creating layer stage1_1/concat
I0529 09:14:33.886057 23214 net.cpp:100] Creating Layer stage1_1/concat
I0529 09:14:33.886060 23214 net.cpp:434] stage1_1/concat <- stem3_stem3/relu_0_split_2
I0529 09:14:33.886065 23214 net.cpp:434] stage1_1/concat <- stage1_1/branch1b
I0529 09:14:33.886067 23214 net.cpp:434] stage1_1/concat <- stage1_1/branch2c
I0529 09:14:33.886070 23214 net.cpp:408] stage1_1/concat -> stage1_1/concat
I0529 09:14:33.886098 23214 net.cpp:150] Setting up stage1_1/concat
I0529 09:14:33.886103 23214 net.cpp:157] Top shape: 16 64 76 76 (5914624)
I0529 09:14:33.886106 23214 net.cpp:165] Memory required for data: 828047520
I0529 09:14:33.886108 23214 layer_factory.hpp:77] Creating layer stage1_1/concat_stage1_1/concat_0_split
I0529 09:14:33.886111 23214 net.cpp:100] Creating Layer stage1_1/concat_stage1_1/concat_0_split
I0529 09:14:33.886114 23214 net.cpp:434] stage1_1/concat_stage1_1/concat_0_split <- stage1_1/concat
I0529 09:14:33.886118 23214 net.cpp:408] stage1_1/concat_stage1_1/concat_0_split -> stage1_1/concat_stage1_1/concat_0_split_0
I0529 09:14:33.886122 23214 net.cpp:408] stage1_1/concat_stage1_1/concat_0_split -> stage1_1/concat_stage1_1/concat_0_split_1
I0529 09:14:33.886126 23214 net.cpp:408] stage1_1/concat_stage1_1/concat_0_split -> stage1_1/concat_stage1_1/concat_0_split_2
I0529 09:14:33.886175 23214 net.cpp:150] Setting up stage1_1/concat_stage1_1/concat_0_split
I0529 09:14:33.886181 23214 net.cpp:157] Top shape: 16 64 76 76 (5914624)
I0529 09:14:33.886184 23214 net.cpp:157] Top shape: 16 64 76 76 (5914624)
I0529 09:14:33.886188 23214 net.cpp:157] Top shape: 16 64 76 76 (5914624)
I0529 09:14:33.886189 23214 net.cpp:165] Memory required for data: 899023008
I0529 09:14:33.886193 23214 layer_factory.hpp:77] Creating layer stage1_2/branch1a
I0529 09:14:33.886205 23214 net.cpp:100] Creating Layer stage1_2/branch1a
I0529 09:14:33.886209 23214 net.cpp:434] stage1_2/branch1a <- stage1_1/concat_stage1_1/concat_0_split_0
I0529 09:14:33.886214 23214 net.cpp:408] stage1_2/branch1a -> stage1_2/branch1a
I0529 09:14:33.887588 23214 net.cpp:150] Setting up stage1_2/branch1a
I0529 09:14:33.887600 23214 net.cpp:157] Top shape: 16 16 76 76 (1478656)
I0529 09:14:33.887603 23214 net.cpp:165] Memory required for data: 904937632
I0529 09:14:33.887607 23214 layer_factory.hpp:77] Creating layer stage1_2/branch1a/bn
I0529 09:14:33.887617 23214 net.cpp:100] Creating Layer stage1_2/branch1a/bn
I0529 09:14:33.887620 23214 net.cpp:434] stage1_2/branch1a/bn <- stage1_2/branch1a
I0529 09:14:33.887624 23214 net.cpp:395] stage1_2/branch1a/bn -> stage1_2/branch1a (in-place)
I0529 09:14:33.887796 23214 net.cpp:150] Setting up stage1_2/branch1a/bn
I0529 09:14:33.887809 23214 net.cpp:157] Top shape: 16 16 76 76 (1478656)
I0529 09:14:33.887811 23214 net.cpp:165] Memory required for data: 910852256
I0529 09:14:33.887816 23214 layer_factory.hpp:77] Creating layer stage1_2/branch1a/scale
I0529 09:14:33.887826 23214 net.cpp:100] Creating Layer stage1_2/branch1a/scale
I0529 09:14:33.887830 23214 net.cpp:434] stage1_2/branch1a/scale <- stage1_2/branch1a
I0529 09:14:33.887832 23214 net.cpp:395] stage1_2/branch1a/scale -> stage1_2/branch1a (in-place)
I0529 09:14:33.887861 23214 layer_factory.hpp:77] Creating layer stage1_2/branch1a/scale
I0529 09:14:33.887955 23214 net.cpp:150] Setting up stage1_2/branch1a/scale
I0529 09:14:33.887961 23214 net.cpp:157] Top shape: 16 16 76 76 (1478656)
I0529 09:14:33.887964 23214 net.cpp:165] Memory required for data: 916766880
I0529 09:14:33.887967 23214 layer_factory.hpp:77] Creating layer stage1_2/branch1a/relu
I0529 09:14:33.887971 23214 net.cpp:100] Creating Layer stage1_2/branch1a/relu
I0529 09:14:33.887974 23214 net.cpp:434] stage1_2/branch1a/relu <- stage1_2/branch1a
I0529 09:14:33.887977 23214 net.cpp:395] stage1_2/branch1a/relu -> stage1_2/branch1a (in-place)
I0529 09:14:33.888561 23214 net.cpp:150] Setting up stage1_2/branch1a/relu
I0529 09:14:33.888571 23214 net.cpp:157] Top shape: 16 16 76 76 (1478656)
I0529 09:14:33.888574 23214 net.cpp:165] Memory required for data: 922681504
I0529 09:14:33.888577 23214 layer_factory.hpp:77] Creating layer stage1_2/branch1b
I0529 09:14:33.888583 23214 net.cpp:100] Creating Layer stage1_2/branch1b
I0529 09:14:33.888587 23214 net.cpp:434] stage1_2/branch1b <- stage1_2/branch1a
I0529 09:14:33.888592 23214 net.cpp:408] stage1_2/branch1b -> stage1_2/branch1b
I0529 09:14:33.889968 23214 net.cpp:150] Setting up stage1_2/branch1b
I0529 09:14:33.889979 23214 net.cpp:157] Top shape: 16 16 76 76 (1478656)
I0529 09:14:33.889982 23214 net.cpp:165] Memory required for data: 928596128
I0529 09:14:33.889986 23214 layer_factory.hpp:77] Creating layer stage1_2/branch1b/bn
I0529 09:14:33.889991 23214 net.cpp:100] Creating Layer stage1_2/branch1b/bn
I0529 09:14:33.889994 23214 net.cpp:434] stage1_2/branch1b/bn <- stage1_2/branch1b
I0529 09:14:33.889998 23214 net.cpp:395] stage1_2/branch1b/bn -> stage1_2/branch1b (in-place)
I0529 09:14:33.890166 23214 net.cpp:150] Setting up stage1_2/branch1b/bn
I0529 09:14:33.890172 23214 net.cpp:157] Top shape: 16 16 76 76 (1478656)
I0529 09:14:33.890174 23214 net.cpp:165] Memory required for data: 934510752
I0529 09:14:33.890180 23214 layer_factory.hpp:77] Creating layer stage1_2/branch1b/scale
I0529 09:14:33.890184 23214 net.cpp:100] Creating Layer stage1_2/branch1b/scale
I0529 09:14:33.890197 23214 net.cpp:434] stage1_2/branch1b/scale <- stage1_2/branch1b
I0529 09:14:33.890206 23214 net.cpp:395] stage1_2/branch1b/scale -> stage1_2/branch1b (in-place)
I0529 09:14:33.890238 23214 layer_factory.hpp:77] Creating layer stage1_2/branch1b/scale
I0529 09:14:33.890332 23214 net.cpp:150] Setting up stage1_2/branch1b/scale
I0529 09:14:33.890338 23214 net.cpp:157] Top shape: 16 16 76 76 (1478656)
I0529 09:14:33.890341 23214 net.cpp:165] Memory required for data: 940425376
I0529 09:14:33.890348 23214 layer_factory.hpp:77] Creating layer stage1_2/branch1b/relu
I0529 09:14:33.890353 23214 net.cpp:100] Creating Layer stage1_2/branch1b/relu
I0529 09:14:33.890355 23214 net.cpp:434] stage1_2/branch1b/relu <- stage1_2/branch1b
I0529 09:14:33.890358 23214 net.cpp:395] stage1_2/branch1b/relu -> stage1_2/branch1b (in-place)
I0529 09:14:33.890682 23214 net.cpp:150] Setting up stage1_2/branch1b/relu
I0529 09:14:33.890691 23214 net.cpp:157] Top shape: 16 16 76 76 (1478656)
I0529 09:14:33.890708 23214 net.cpp:165] Memory required for data: 946340000
I0529 09:14:33.890712 23214 layer_factory.hpp:77] Creating layer stage1_2/branch2a
I0529 09:14:33.890717 23214 net.cpp:100] Creating Layer stage1_2/branch2a
I0529 09:14:33.890720 23214 net.cpp:434] stage1_2/branch2a <- stage1_1/concat_stage1_1/concat_0_split_1
I0529 09:14:33.890733 23214 net.cpp:408] stage1_2/branch2a -> stage1_2/branch2a
I0529 09:14:33.892109 23214 net.cpp:150] Setting up stage1_2/branch2a
I0529 09:14:33.892120 23214 net.cpp:157] Top shape: 16 16 76 76 (1478656)
I0529 09:14:33.892123 23214 net.cpp:165] Memory required for data: 952254624
I0529 09:14:33.892127 23214 layer_factory.hpp:77] Creating layer stage1_2/branch2a/bn
I0529 09:14:33.892132 23214 net.cpp:100] Creating Layer stage1_2/branch2a/bn
I0529 09:14:33.892135 23214 net.cpp:434] stage1_2/branch2a/bn <- stage1_2/branch2a
I0529 09:14:33.892139 23214 net.cpp:395] stage1_2/branch2a/bn -> stage1_2/branch2a (in-place)
I0529 09:14:33.892314 23214 net.cpp:150] Setting up stage1_2/branch2a/bn
I0529 09:14:33.892321 23214 net.cpp:157] Top shape: 16 16 76 76 (1478656)
I0529 09:14:33.892324 23214 net.cpp:165] Memory required for data: 958169248
I0529 09:14:33.892328 23214 layer_factory.hpp:77] Creating layer stage1_2/branch2a/scale
I0529 09:14:33.892333 23214 net.cpp:100] Creating Layer stage1_2/branch2a/scale
I0529 09:14:33.892336 23214 net.cpp:434] stage1_2/branch2a/scale <- stage1_2/branch2a
I0529 09:14:33.892339 23214 net.cpp:395] stage1_2/branch2a/scale -> stage1_2/branch2a (in-place)
I0529 09:14:33.892367 23214 layer_factory.hpp:77] Creating layer stage1_2/branch2a/scale
I0529 09:14:33.892462 23214 net.cpp:150] Setting up stage1_2/branch2a/scale
I0529 09:14:33.892469 23214 net.cpp:157] Top shape: 16 16 76 76 (1478656)
I0529 09:14:33.892472 23214 net.cpp:165] Memory required for data: 964083872
I0529 09:14:33.892475 23214 layer_factory.hpp:77] Creating layer stage1_2/branch2a/relu
I0529 09:14:33.892479 23214 net.cpp:100] Creating Layer stage1_2/branch2a/relu
I0529 09:14:33.892482 23214 net.cpp:434] stage1_2/branch2a/relu <- stage1_2/branch2a
I0529 09:14:33.892485 23214 net.cpp:395] stage1_2/branch2a/relu -> stage1_2/branch2a (in-place)
I0529 09:14:33.892789 23214 net.cpp:150] Setting up stage1_2/branch2a/relu
I0529 09:14:33.892812 23214 net.cpp:157] Top shape: 16 16 76 76 (1478656)
I0529 09:14:33.892814 23214 net.cpp:165] Memory required for data: 969998496
I0529 09:14:33.892828 23214 layer_factory.hpp:77] Creating layer stage1_2/branch2b
I0529 09:14:33.892834 23214 net.cpp:100] Creating Layer stage1_2/branch2b
I0529 09:14:33.892838 23214 net.cpp:434] stage1_2/branch2b <- stage1_2/branch2a
I0529 09:14:33.892848 23214 net.cpp:408] stage1_2/branch2b -> stage1_2/branch2b
I0529 09:14:33.894210 23214 net.cpp:150] Setting up stage1_2/branch2b
I0529 09:14:33.894222 23214 net.cpp:157] Top shape: 16 16 76 76 (1478656)
I0529 09:14:33.894235 23214 net.cpp:165] Memory required for data: 975913120
I0529 09:14:33.894239 23214 layer_factory.hpp:77] Creating layer stage1_2/branch2b/bn
I0529 09:14:33.894253 23214 net.cpp:100] Creating Layer stage1_2/branch2b/bn
I0529 09:14:33.894258 23214 net.cpp:434] stage1_2/branch2b/bn <- stage1_2/branch2b
I0529 09:14:33.894261 23214 net.cpp:395] stage1_2/branch2b/bn -> stage1_2/branch2b (in-place)
I0529 09:14:33.894425 23214 net.cpp:150] Setting up stage1_2/branch2b/bn
I0529 09:14:33.894433 23214 net.cpp:157] Top shape: 16 16 76 76 (1478656)
I0529 09:14:33.894434 23214 net.cpp:165] Memory required for data: 981827744
I0529 09:14:33.894439 23214 layer_factory.hpp:77] Creating layer stage1_2/branch2b/scale
I0529 09:14:33.894444 23214 net.cpp:100] Creating Layer stage1_2/branch2b/scale
I0529 09:14:33.894448 23214 net.cpp:434] stage1_2/branch2b/scale <- stage1_2/branch2b
I0529 09:14:33.894450 23214 net.cpp:395] stage1_2/branch2b/scale -> stage1_2/branch2b (in-place)
I0529 09:14:33.894479 23214 layer_factory.hpp:77] Creating layer stage1_2/branch2b/scale
I0529 09:14:33.894578 23214 net.cpp:150] Setting up stage1_2/branch2b/scale
I0529 09:14:33.894585 23214 net.cpp:157] Top shape: 16 16 76 76 (1478656)
I0529 09:14:33.894587 23214 net.cpp:165] Memory required for data: 987742368
I0529 09:14:33.894592 23214 layer_factory.hpp:77] Creating layer stage1_2/branch2b/relu
I0529 09:14:33.894594 23214 net.cpp:100] Creating Layer stage1_2/branch2b/relu
I0529 09:14:33.894598 23214 net.cpp:434] stage1_2/branch2b/relu <- stage1_2/branch2b
I0529 09:14:33.894600 23214 net.cpp:395] stage1_2/branch2b/relu -> stage1_2/branch2b (in-place)
I0529 09:14:33.895200 23214 net.cpp:150] Setting up stage1_2/branch2b/relu
I0529 09:14:33.895210 23214 net.cpp:157] Top shape: 16 16 76 76 (1478656)
I0529 09:14:33.895213 23214 net.cpp:165] Memory required for data: 993656992
I0529 09:14:33.895216 23214 layer_factory.hpp:77] Creating layer stage1_2/branch2c
I0529 09:14:33.895222 23214 net.cpp:100] Creating Layer stage1_2/branch2c
I0529 09:14:33.895226 23214 net.cpp:434] stage1_2/branch2c <- stage1_2/branch2b
I0529 09:14:33.895231 23214 net.cpp:408] stage1_2/branch2c -> stage1_2/branch2c
I0529 09:14:33.898640 23214 net.cpp:150] Setting up stage1_2/branch2c
I0529 09:14:33.898651 23214 net.cpp:157] Top shape: 16 16 76 76 (1478656)
I0529 09:14:33.898655 23214 net.cpp:165] Memory required for data: 999571616
I0529 09:14:33.898659 23214 layer_factory.hpp:77] Creating layer stage1_2/branch2c/bn
I0529 09:14:33.898664 23214 net.cpp:100] Creating Layer stage1_2/branch2c/bn
I0529 09:14:33.898684 23214 net.cpp:434] stage1_2/branch2c/bn <- stage1_2/branch2c
I0529 09:14:33.898687 23214 net.cpp:395] stage1_2/branch2c/bn -> stage1_2/branch2c (in-place)
I0529 09:14:33.898864 23214 net.cpp:150] Setting up stage1_2/branch2c/bn
I0529 09:14:33.898871 23214 net.cpp:157] Top shape: 16 16 76 76 (1478656)
I0529 09:14:33.898874 23214 net.cpp:165] Memory required for data: 1005486240
I0529 09:14:33.898878 23214 layer_factory.hpp:77] Creating layer stage1_2/branch2c/scale
I0529 09:14:33.898883 23214 net.cpp:100] Creating Layer stage1_2/branch2c/scale
I0529 09:14:33.898886 23214 net.cpp:434] stage1_2/branch2c/scale <- stage1_2/branch2c
I0529 09:14:33.898890 23214 net.cpp:395] stage1_2/branch2c/scale -> stage1_2/branch2c (in-place)
I0529 09:14:33.898916 23214 layer_factory.hpp:77] Creating layer stage1_2/branch2c/scale
I0529 09:14:33.899011 23214 net.cpp:150] Setting up stage1_2/branch2c/scale
I0529 09:14:33.899018 23214 net.cpp:157] Top shape: 16 16 76 76 (1478656)
I0529 09:14:33.899019 23214 net.cpp:165] Memory required for data: 1011400864
I0529 09:14:33.899024 23214 layer_factory.hpp:77] Creating layer stage1_2/branch2c/relu
I0529 09:14:33.899027 23214 net.cpp:100] Creating Layer stage1_2/branch2c/relu
I0529 09:14:33.899030 23214 net.cpp:434] stage1_2/branch2c/relu <- stage1_2/branch2c
I0529 09:14:33.899034 23214 net.cpp:395] stage1_2/branch2c/relu -> stage1_2/branch2c (in-place)
I0529 09:14:33.899322 23214 net.cpp:150] Setting up stage1_2/branch2c/relu
I0529 09:14:33.899332 23214 net.cpp:157] Top shape: 16 16 76 76 (1478656)
I0529 09:14:33.899334 23214 net.cpp:165] Memory required for data: 1017315488
I0529 09:14:33.899351 23214 layer_factory.hpp:77] Creating layer stage1_2/concat
I0529 09:14:33.899385 23214 net.cpp:100] Creating Layer stage1_2/concat
I0529 09:14:33.899391 23214 net.cpp:434] stage1_2/concat <- stage1_1/concat_stage1_1/concat_0_split_2
I0529 09:14:33.899395 23214 net.cpp:434] stage1_2/concat <- stage1_2/branch1b
I0529 09:14:33.899399 23214 net.cpp:434] stage1_2/concat <- stage1_2/branch2c
I0529 09:14:33.899401 23214 net.cpp:408] stage1_2/concat -> stage1_2/concat
I0529 09:14:33.899425 23214 net.cpp:150] Setting up stage1_2/concat
I0529 09:14:33.899430 23214 net.cpp:157] Top shape: 16 96 76 76 (8871936)
I0529 09:14:33.899432 23214 net.cpp:165] Memory required for data: 1052803232
I0529 09:14:33.899435 23214 layer_factory.hpp:77] Creating layer stage1_2/concat_stage1_2/concat_0_split
I0529 09:14:33.899444 23214 net.cpp:100] Creating Layer stage1_2/concat_stage1_2/concat_0_split
I0529 09:14:33.899447 23214 net.cpp:434] stage1_2/concat_stage1_2/concat_0_split <- stage1_2/concat
I0529 09:14:33.899451 23214 net.cpp:408] stage1_2/concat_stage1_2/concat_0_split -> stage1_2/concat_stage1_2/concat_0_split_0
I0529 09:14:33.899454 23214 net.cpp:408] stage1_2/concat_stage1_2/concat_0_split -> stage1_2/concat_stage1_2/concat_0_split_1
I0529 09:14:33.899458 23214 net.cpp:408] stage1_2/concat_stage1_2/concat_0_split -> stage1_2/concat_stage1_2/concat_0_split_2
I0529 09:14:33.899498 23214 net.cpp:150] Setting up stage1_2/concat_stage1_2/concat_0_split
I0529 09:14:33.899503 23214 net.cpp:157] Top shape: 16 96 76 76 (8871936)
I0529 09:14:33.899507 23214 net.cpp:157] Top shape: 16 96 76 76 (8871936)
I0529 09:14:33.899509 23214 net.cpp:157] Top shape: 16 96 76 76 (8871936)
I0529 09:14:33.899511 23214 net.cpp:165] Memory required for data: 1159266464
I0529 09:14:33.899514 23214 layer_factory.hpp:77] Creating layer stage1_3/branch1a
I0529 09:14:33.899519 23214 net.cpp:100] Creating Layer stage1_3/branch1a
I0529 09:14:33.899523 23214 net.cpp:434] stage1_3/branch1a <- stage1_2/concat_stage1_2/concat_0_split_0
I0529 09:14:33.899525 23214 net.cpp:408] stage1_3/branch1a -> stage1_3/branch1a
I0529 09:14:33.900933 23214 net.cpp:150] Setting up stage1_3/branch1a
I0529 09:14:33.900944 23214 net.cpp:157] Top shape: 16 16 76 76 (1478656)
I0529 09:14:33.900949 23214 net.cpp:165] Memory required for data: 1165181088
I0529 09:14:33.900952 23214 layer_factory.hpp:77] Creating layer stage1_3/branch1a/bn
I0529 09:14:33.900957 23214 net.cpp:100] Creating Layer stage1_3/branch1a/bn
I0529 09:14:33.900960 23214 net.cpp:434] stage1_3/branch1a/bn <- stage1_3/branch1a
I0529 09:14:33.900964 23214 net.cpp:395] stage1_3/branch1a/bn -> stage1_3/branch1a (in-place)
I0529 09:14:33.901135 23214 net.cpp:150] Setting up stage1_3/branch1a/bn
I0529 09:14:33.901142 23214 net.cpp:157] Top shape: 16 16 76 76 (1478656)
I0529 09:14:33.901144 23214 net.cpp:165] Memory required for data: 1171095712
I0529 09:14:33.901149 23214 layer_factory.hpp:77] Creating layer stage1_3/branch1a/scale
I0529 09:14:33.901154 23214 net.cpp:100] Creating Layer stage1_3/branch1a/scale
I0529 09:14:33.901157 23214 net.cpp:434] stage1_3/branch1a/scale <- stage1_3/branch1a
I0529 09:14:33.901160 23214 net.cpp:395] stage1_3/branch1a/scale -> stage1_3/branch1a (in-place)
I0529 09:14:33.901188 23214 layer_factory.hpp:77] Creating layer stage1_3/branch1a/scale
I0529 09:14:33.901278 23214 net.cpp:150] Setting up stage1_3/branch1a/scale
I0529 09:14:33.901283 23214 net.cpp:157] Top shape: 16 16 76 76 (1478656)
I0529 09:14:33.901285 23214 net.cpp:165] Memory required for data: 1177010336
I0529 09:14:33.901290 23214 layer_factory.hpp:77] Creating layer stage1_3/branch1a/relu
I0529 09:14:33.901298 23214 net.cpp:100] Creating Layer stage1_3/branch1a/relu
I0529 09:14:33.901301 23214 net.cpp:434] stage1_3/branch1a/relu <- stage1_3/branch1a
I0529 09:14:33.901304 23214 net.cpp:395] stage1_3/branch1a/relu -> stage1_3/branch1a (in-place)
I0529 09:14:33.901628 23214 net.cpp:150] Setting up stage1_3/branch1a/relu
I0529 09:14:33.901636 23214 net.cpp:157] Top shape: 16 16 76 76 (1478656)
I0529 09:14:33.901649 23214 net.cpp:165] Memory required for data: 1182924960
I0529 09:14:33.901661 23214 layer_factory.hpp:77] Creating layer stage1_3/branch1b
I0529 09:14:33.901667 23214 net.cpp:100] Creating Layer stage1_3/branch1b
I0529 09:14:33.901670 23214 net.cpp:434] stage1_3/branch1b <- stage1_3/branch1a
I0529 09:14:33.901674 23214 net.cpp:408] stage1_3/branch1b -> stage1_3/branch1b
I0529 09:14:33.903369 23214 net.cpp:150] Setting up stage1_3/branch1b
I0529 09:14:33.903381 23214 net.cpp:157] Top shape: 16 16 76 76 (1478656)
I0529 09:14:33.903384 23214 net.cpp:165] Memory required for data: 1188839584
I0529 09:14:33.903388 23214 layer_factory.hpp:77] Creating layer stage1_3/branch1b/bn
I0529 09:14:33.903393 23214 net.cpp:100] Creating Layer stage1_3/branch1b/bn
I0529 09:14:33.903396 23214 net.cpp:434] stage1_3/branch1b/bn <- stage1_3/branch1b
I0529 09:14:33.903400 23214 net.cpp:395] stage1_3/branch1b/bn -> stage1_3/branch1b (in-place)
I0529 09:14:33.903573 23214 net.cpp:150] Setting up stage1_3/branch1b/bn
I0529 09:14:33.903579 23214 net.cpp:157] Top shape: 16 16 76 76 (1478656)
I0529 09:14:33.903583 23214 net.cpp:165] Memory required for data: 1194754208
I0529 09:14:33.903586 23214 layer_factory.hpp:77] Creating layer stage1_3/branch1b/scale
I0529 09:14:33.903591 23214 net.cpp:100] Creating Layer stage1_3/branch1b/scale
I0529 09:14:33.903594 23214 net.cpp:434] stage1_3/branch1b/scale <- stage1_3/branch1b
I0529 09:14:33.903597 23214 net.cpp:395] stage1_3/branch1b/scale -> stage1_3/branch1b (in-place)
I0529 09:14:33.903625 23214 layer_factory.hpp:77] Creating layer stage1_3/branch1b/scale
I0529 09:14:33.903728 23214 net.cpp:150] Setting up stage1_3/branch1b/scale
I0529 09:14:33.903734 23214 net.cpp:157] Top shape: 16 16 76 76 (1478656)
I0529 09:14:33.903738 23214 net.cpp:165] Memory required for data: 1200668832
I0529 09:14:33.903741 23214 layer_factory.hpp:77] Creating layer stage1_3/branch1b/relu
I0529 09:14:33.903745 23214 net.cpp:100] Creating Layer stage1_3/branch1b/relu
I0529 09:14:33.903748 23214 net.cpp:434] stage1_3/branch1b/relu <- stage1_3/branch1b
I0529 09:14:33.903751 23214 net.cpp:395] stage1_3/branch1b/relu -> stage1_3/branch1b (in-place)
I0529 09:14:33.904340 23214 net.cpp:150] Setting up stage1_3/branch1b/relu
I0529 09:14:33.904350 23214 net.cpp:157] Top shape: 16 16 76 76 (1478656)
I0529 09:14:33.904352 23214 net.cpp:165] Memory required for data: 1206583456
I0529 09:14:33.904356 23214 layer_factory.hpp:77] Creating layer stage1_3/branch2a
I0529 09:14:33.904362 23214 net.cpp:100] Creating Layer stage1_3/branch2a
I0529 09:14:33.904366 23214 net.cpp:434] stage1_3/branch2a <- stage1_2/concat_stage1_2/concat_0_split_1
I0529 09:14:33.904369 23214 net.cpp:408] stage1_3/branch2a -> stage1_3/branch2a
I0529 09:14:33.905761 23214 net.cpp:150] Setting up stage1_3/branch2a
I0529 09:14:33.905772 23214 net.cpp:157] Top shape: 16 16 76 76 (1478656)
I0529 09:14:33.905774 23214 net.cpp:165] Memory required for data: 1212498080
I0529 09:14:33.905778 23214 layer_factory.hpp:77] Creating layer stage1_3/branch2a/bn
I0529 09:14:33.905784 23214 net.cpp:100] Creating Layer stage1_3/branch2a/bn
I0529 09:14:33.905787 23214 net.cpp:434] stage1_3/branch2a/bn <- stage1_3/branch2a
I0529 09:14:33.905791 23214 net.cpp:395] stage1_3/branch2a/bn -> stage1_3/branch2a (in-place)
I0529 09:14:33.905964 23214 net.cpp:150] Setting up stage1_3/branch2a/bn
I0529 09:14:33.905972 23214 net.cpp:157] Top shape: 16 16 76 76 (1478656)
I0529 09:14:33.905973 23214 net.cpp:165] Memory required for data: 1218412704
I0529 09:14:33.905978 23214 layer_factory.hpp:77] Creating layer stage1_3/branch2a/scale
I0529 09:14:33.905982 23214 net.cpp:100] Creating Layer stage1_3/branch2a/scale
I0529 09:14:33.905985 23214 net.cpp:434] stage1_3/branch2a/scale <- stage1_3/branch2a
I0529 09:14:33.905988 23214 net.cpp:395] stage1_3/branch2a/scale -> stage1_3/branch2a (in-place)
I0529 09:14:33.906016 23214 layer_factory.hpp:77] Creating layer stage1_3/branch2a/scale
I0529 09:14:33.906119 23214 net.cpp:150] Setting up stage1_3/branch2a/scale
I0529 09:14:33.906126 23214 net.cpp:157] Top shape: 16 16 76 76 (1478656)
I0529 09:14:33.906139 23214 net.cpp:165] Memory required for data: 1224327328
I0529 09:14:33.906143 23214 layer_factory.hpp:77] Creating layer stage1_3/branch2a/relu
I0529 09:14:33.906147 23214 net.cpp:100] Creating Layer stage1_3/branch2a/relu
I0529 09:14:33.906150 23214 net.cpp:434] stage1_3/branch2a/relu <- stage1_3/branch2a
I0529 09:14:33.906153 23214 net.cpp:395] stage1_3/branch2a/relu -> stage1_3/branch2a (in-place)
I0529 09:14:33.906460 23214 net.cpp:150] Setting up stage1_3/branch2a/relu
I0529 09:14:33.906468 23214 net.cpp:157] Top shape: 16 16 76 76 (1478656)
I0529 09:14:33.906471 23214 net.cpp:165] Memory required for data: 1230241952
I0529 09:14:33.906473 23214 layer_factory.hpp:77] Creating layer stage1_3/branch2b
I0529 09:14:33.906484 23214 net.cpp:100] Creating Layer stage1_3/branch2b
I0529 09:14:33.906487 23214 net.cpp:434] stage1_3/branch2b <- stage1_3/branch2a
I0529 09:14:33.906491 23214 net.cpp:408] stage1_3/branch2b -> stage1_3/branch2b
I0529 09:14:33.907881 23214 net.cpp:150] Setting up stage1_3/branch2b
I0529 09:14:33.907893 23214 net.cpp:157] Top shape: 16 16 76 76 (1478656)
I0529 09:14:33.907896 23214 net.cpp:165] Memory required for data: 1236156576
I0529 09:14:33.907901 23214 layer_factory.hpp:77] Creating layer stage1_3/branch2b/bn
I0529 09:14:33.907905 23214 net.cpp:100] Creating Layer stage1_3/branch2b/bn
I0529 09:14:33.907908 23214 net.cpp:434] stage1_3/branch2b/bn <- stage1_3/branch2b
I0529 09:14:33.907912 23214 net.cpp:395] stage1_3/branch2b/bn -> stage1_3/branch2b (in-place)
I0529 09:14:33.908072 23214 net.cpp:150] Setting up stage1_3/branch2b/bn
I0529 09:14:33.908078 23214 net.cpp:157] Top shape: 16 16 76 76 (1478656)
I0529 09:14:33.908082 23214 net.cpp:165] Memory required for data: 1242071200
I0529 09:14:33.908085 23214 layer_factory.hpp:77] Creating layer stage1_3/branch2b/scale
I0529 09:14:33.908090 23214 net.cpp:100] Creating Layer stage1_3/branch2b/scale
I0529 09:14:33.908093 23214 net.cpp:434] stage1_3/branch2b/scale <- stage1_3/branch2b
I0529 09:14:33.908097 23214 net.cpp:395] stage1_3/branch2b/scale -> stage1_3/branch2b (in-place)
I0529 09:14:33.908124 23214 layer_factory.hpp:77] Creating layer stage1_3/branch2b/scale
I0529 09:14:33.908221 23214 net.cpp:150] Setting up stage1_3/branch2b/scale
I0529 09:14:33.908226 23214 net.cpp:157] Top shape: 16 16 76 76 (1478656)
I0529 09:14:33.908228 23214 net.cpp:165] Memory required for data: 1247985824
I0529 09:14:33.908232 23214 layer_factory.hpp:77] Creating layer stage1_3/branch2b/relu
I0529 09:14:33.908236 23214 net.cpp:100] Creating Layer stage1_3/branch2b/relu
I0529 09:14:33.908239 23214 net.cpp:434] stage1_3/branch2b/relu <- stage1_3/branch2b
I0529 09:14:33.908242 23214 net.cpp:395] stage1_3/branch2b/relu -> stage1_3/branch2b (in-place)
I0529 09:14:33.908545 23214 net.cpp:150] Setting up stage1_3/branch2b/relu
I0529 09:14:33.908553 23214 net.cpp:157] Top shape: 16 16 76 76 (1478656)
I0529 09:14:33.908567 23214 net.cpp:165] Memory required for data: 1253900448
I0529 09:14:33.908569 23214 layer_factory.hpp:77] Creating layer stage1_3/branch2c
I0529 09:14:33.908586 23214 net.cpp:100] Creating Layer stage1_3/branch2c
I0529 09:14:33.908591 23214 net.cpp:434] stage1_3/branch2c <- stage1_3/branch2b
I0529 09:14:33.908601 23214 net.cpp:408] stage1_3/branch2c -> stage1_3/branch2c
I0529 09:14:33.909967 23214 net.cpp:150] Setting up stage1_3/branch2c
I0529 09:14:33.909979 23214 net.cpp:157] Top shape: 16 16 76 76 (1478656)
I0529 09:14:33.909982 23214 net.cpp:165] Memory required for data: 1259815072
I0529 09:14:33.909986 23214 layer_factory.hpp:77] Creating layer stage1_3/branch2c/bn
I0529 09:14:33.909991 23214 net.cpp:100] Creating Layer stage1_3/branch2c/bn
I0529 09:14:33.909994 23214 net.cpp:434] stage1_3/branch2c/bn <- stage1_3/branch2c
I0529 09:14:33.909998 23214 net.cpp:395] stage1_3/branch2c/bn -> stage1_3/branch2c (in-place)
I0529 09:14:33.910156 23214 net.cpp:150] Setting up stage1_3/branch2c/bn
I0529 09:14:33.910162 23214 net.cpp:157] Top shape: 16 16 76 76 (1478656)
I0529 09:14:33.910164 23214 net.cpp:165] Memory required for data: 1265729696
I0529 09:14:33.910181 23214 layer_factory.hpp:77] Creating layer stage1_3/branch2c/scale
I0529 09:14:33.910185 23214 net.cpp:100] Creating Layer stage1_3/branch2c/scale
I0529 09:14:33.910188 23214 net.cpp:434] stage1_3/branch2c/scale <- stage1_3/branch2c
I0529 09:14:33.910192 23214 net.cpp:395] stage1_3/branch2c/scale -> stage1_3/branch2c (in-place)
I0529 09:14:33.910230 23214 layer_factory.hpp:77] Creating layer stage1_3/branch2c/scale
I0529 09:14:33.910334 23214 net.cpp:150] Setting up stage1_3/branch2c/scale
I0529 09:14:33.910341 23214 net.cpp:157] Top shape: 16 16 76 76 (1478656)
I0529 09:14:33.910342 23214 net.cpp:165] Memory required for data: 1271644320
I0529 09:14:33.910346 23214 layer_factory.hpp:77] Creating layer stage1_3/branch2c/relu
I0529 09:14:33.910351 23214 net.cpp:100] Creating Layer stage1_3/branch2c/relu
I0529 09:14:33.910353 23214 net.cpp:434] stage1_3/branch2c/relu <- stage1_3/branch2c
I0529 09:14:33.910356 23214 net.cpp:395] stage1_3/branch2c/relu -> stage1_3/branch2c (in-place)
I0529 09:14:33.910666 23214 net.cpp:150] Setting up stage1_3/branch2c/relu
I0529 09:14:33.910675 23214 net.cpp:157] Top shape: 16 16 76 76 (1478656)
I0529 09:14:33.910676 23214 net.cpp:165] Memory required for data: 1277558944
I0529 09:14:33.910678 23214 layer_factory.hpp:77] Creating layer stage1_3/concat
I0529 09:14:33.910683 23214 net.cpp:100] Creating Layer stage1_3/concat
I0529 09:14:33.910686 23214 net.cpp:434] stage1_3/concat <- stage1_2/concat_stage1_2/concat_0_split_2
I0529 09:14:33.910691 23214 net.cpp:434] stage1_3/concat <- stage1_3/branch1b
I0529 09:14:33.910692 23214 net.cpp:434] stage1_3/concat <- stage1_3/branch2c
I0529 09:14:33.910696 23214 net.cpp:408] stage1_3/concat -> stage1_3/concat
I0529 09:14:33.910717 23214 net.cpp:150] Setting up stage1_3/concat
I0529 09:14:33.910722 23214 net.cpp:157] Top shape: 16 128 76 76 (11829248)
I0529 09:14:33.910724 23214 net.cpp:165] Memory required for data: 1324875936
I0529 09:14:33.910727 23214 layer_factory.hpp:77] Creating layer stage1_tb
I0529 09:14:33.910732 23214 net.cpp:100] Creating Layer stage1_tb
I0529 09:14:33.910734 23214 net.cpp:434] stage1_tb <- stage1_3/concat
I0529 09:14:33.910738 23214 net.cpp:408] stage1_tb -> stage1_tb
I0529 09:14:33.912164 23214 net.cpp:150] Setting up stage1_tb
I0529 09:14:33.912175 23214 net.cpp:157] Top shape: 16 128 76 76 (11829248)
I0529 09:14:33.912178 23214 net.cpp:165] Memory required for data: 1372192928
I0529 09:14:33.912183 23214 layer_factory.hpp:77] Creating layer stage1_tb/bn
I0529 09:14:33.912187 23214 net.cpp:100] Creating Layer stage1_tb/bn
I0529 09:14:33.912190 23214 net.cpp:434] stage1_tb/bn <- stage1_tb
I0529 09:14:33.912194 23214 net.cpp:395] stage1_tb/bn -> stage1_tb (in-place)
I0529 09:14:33.912344 23214 net.cpp:150] Setting up stage1_tb/bn
I0529 09:14:33.912351 23214 net.cpp:157] Top shape: 16 128 76 76 (11829248)
I0529 09:14:33.912353 23214 net.cpp:165] Memory required for data: 1419509920
I0529 09:14:33.912358 23214 layer_factory.hpp:77] Creating layer stage1_tb/scale
I0529 09:14:33.912362 23214 net.cpp:100] Creating Layer stage1_tb/scale
I0529 09:14:33.912365 23214 net.cpp:434] stage1_tb/scale <- stage1_tb
I0529 09:14:33.912369 23214 net.cpp:395] stage1_tb/scale -> stage1_tb (in-place)
I0529 09:14:33.912398 23214 layer_factory.hpp:77] Creating layer stage1_tb/scale
I0529 09:14:33.912499 23214 net.cpp:150] Setting up stage1_tb/scale
I0529 09:14:33.912505 23214 net.cpp:157] Top shape: 16 128 76 76 (11829248)
I0529 09:14:33.912508 23214 net.cpp:165] Memory required for data: 1466826912
I0529 09:14:33.912511 23214 layer_factory.hpp:77] Creating layer stage1_tb/relu
I0529 09:14:33.912515 23214 net.cpp:100] Creating Layer stage1_tb/relu
I0529 09:14:33.912518 23214 net.cpp:434] stage1_tb/relu <- stage1_tb
I0529 09:14:33.912521 23214 net.cpp:395] stage1_tb/relu -> stage1_tb (in-place)
I0529 09:14:33.913115 23214 net.cpp:150] Setting up stage1_tb/relu
I0529 09:14:33.913125 23214 net.cpp:157] Top shape: 16 128 76 76 (11829248)
I0529 09:14:33.913139 23214 net.cpp:165] Memory required for data: 1514143904
I0529 09:14:33.913151 23214 layer_factory.hpp:77] Creating layer stage1_tb/pool
I0529 09:14:33.913157 23214 net.cpp:100] Creating Layer stage1_tb/pool
I0529 09:14:33.913161 23214 net.cpp:434] stage1_tb/pool <- stage1_tb
I0529 09:14:33.913166 23214 net.cpp:408] stage1_tb/pool -> stage1_tb/pool
I0529 09:14:33.913496 23214 net.cpp:150] Setting up stage1_tb/pool
I0529 09:14:33.913504 23214 net.cpp:157] Top shape: 16 128 38 38 (2957312)
I0529 09:14:33.913518 23214 net.cpp:165] Memory required for data: 1525973152
I0529 09:14:33.913522 23214 layer_factory.hpp:77] Creating layer stage1_tb/pool_stage1_tb/pool_0_split
I0529 09:14:33.913527 23214 net.cpp:100] Creating Layer stage1_tb/pool_stage1_tb/pool_0_split
I0529 09:14:33.913530 23214 net.cpp:434] stage1_tb/pool_stage1_tb/pool_0_split <- stage1_tb/pool
I0529 09:14:33.913534 23214 net.cpp:408] stage1_tb/pool_stage1_tb/pool_0_split -> stage1_tb/pool_stage1_tb/pool_0_split_0
I0529 09:14:33.913539 23214 net.cpp:408] stage1_tb/pool_stage1_tb/pool_0_split -> stage1_tb/pool_stage1_tb/pool_0_split_1
I0529 09:14:33.913543 23214 net.cpp:408] stage1_tb/pool_stage1_tb/pool_0_split -> stage1_tb/pool_stage1_tb/pool_0_split_2
I0529 09:14:33.913579 23214 net.cpp:150] Setting up stage1_tb/pool_stage1_tb/pool_0_split
I0529 09:14:33.913584 23214 net.cpp:157] Top shape: 16 128 38 38 (2957312)
I0529 09:14:33.913589 23214 net.cpp:157] Top shape: 16 128 38 38 (2957312)
I0529 09:14:33.913591 23214 net.cpp:157] Top shape: 16 128 38 38 (2957312)
I0529 09:14:33.913594 23214 net.cpp:165] Memory required for data: 1561460896
I0529 09:14:33.913596 23214 layer_factory.hpp:77] Creating layer stage2_1/branch1a
I0529 09:14:33.913602 23214 net.cpp:100] Creating Layer stage2_1/branch1a
I0529 09:14:33.913605 23214 net.cpp:434] stage2_1/branch1a <- stage1_tb/pool_stage1_tb/pool_0_split_0
I0529 09:14:33.913609 23214 net.cpp:408] stage2_1/branch1a -> stage2_1/branch1a
I0529 09:14:33.914995 23214 net.cpp:150] Setting up stage2_1/branch1a
I0529 09:14:33.915007 23214 net.cpp:157] Top shape: 16 32 38 38 (739328)
I0529 09:14:33.915021 23214 net.cpp:165] Memory required for data: 1564418208
I0529 09:14:33.915025 23214 layer_factory.hpp:77] Creating layer stage2_1/branch1a/bn
I0529 09:14:33.915035 23214 net.cpp:100] Creating Layer stage2_1/branch1a/bn
I0529 09:14:33.915040 23214 net.cpp:434] stage2_1/branch1a/bn <- stage2_1/branch1a
I0529 09:14:33.915043 23214 net.cpp:395] stage2_1/branch1a/bn -> stage2_1/branch1a (in-place)
I0529 09:14:33.915201 23214 net.cpp:150] Setting up stage2_1/branch1a/bn
I0529 09:14:33.915208 23214 net.cpp:157] Top shape: 16 32 38 38 (739328)
I0529 09:14:33.915211 23214 net.cpp:165] Memory required for data: 1567375520
I0529 09:14:33.915216 23214 layer_factory.hpp:77] Creating layer stage2_1/branch1a/scale
I0529 09:14:33.915220 23214 net.cpp:100] Creating Layer stage2_1/branch1a/scale
I0529 09:14:33.915223 23214 net.cpp:434] stage2_1/branch1a/scale <- stage2_1/branch1a
I0529 09:14:33.915226 23214 net.cpp:395] stage2_1/branch1a/scale -> stage2_1/branch1a (in-place)
I0529 09:14:33.915266 23214 layer_factory.hpp:77] Creating layer stage2_1/branch1a/scale
I0529 09:14:33.915354 23214 net.cpp:150] Setting up stage2_1/branch1a/scale
I0529 09:14:33.915361 23214 net.cpp:157] Top shape: 16 32 38 38 (739328)
I0529 09:14:33.915364 23214 net.cpp:165] Memory required for data: 1570332832
I0529 09:14:33.915367 23214 layer_factory.hpp:77] Creating layer stage2_1/branch1a/relu
I0529 09:14:33.915371 23214 net.cpp:100] Creating Layer stage2_1/branch1a/relu
I0529 09:14:33.915374 23214 net.cpp:434] stage2_1/branch1a/relu <- stage2_1/branch1a
I0529 09:14:33.915377 23214 net.cpp:395] stage2_1/branch1a/relu -> stage2_1/branch1a (in-place)
I0529 09:14:33.915693 23214 net.cpp:150] Setting up stage2_1/branch1a/relu
I0529 09:14:33.915702 23214 net.cpp:157] Top shape: 16 32 38 38 (739328)
I0529 09:14:33.915704 23214 net.cpp:165] Memory required for data: 1573290144
I0529 09:14:33.915707 23214 layer_factory.hpp:77] Creating layer stage2_1/branch1b
I0529 09:14:33.915712 23214 net.cpp:100] Creating Layer stage2_1/branch1b
I0529 09:14:33.915725 23214 net.cpp:434] stage2_1/branch1b <- stage2_1/branch1a
I0529 09:14:33.915746 23214 net.cpp:408] stage2_1/branch1b -> stage2_1/branch1b
I0529 09:14:33.930390 23214 net.cpp:150] Setting up stage2_1/branch1b
I0529 09:14:33.930402 23214 net.cpp:157] Top shape: 16 16 38 38 (369664)
I0529 09:14:33.930421 23214 net.cpp:165] Memory required for data: 1574768800
I0529 09:14:33.930426 23214 layer_factory.hpp:77] Creating layer stage2_1/branch1b/bn
I0529 09:14:33.930431 23214 net.cpp:100] Creating Layer stage2_1/branch1b/bn
I0529 09:14:33.930434 23214 net.cpp:434] stage2_1/branch1b/bn <- stage2_1/branch1b
I0529 09:14:33.930438 23214 net.cpp:395] stage2_1/branch1b/bn -> stage2_1/branch1b (in-place)
I0529 09:14:33.930609 23214 net.cpp:150] Setting up stage2_1/branch1b/bn
I0529 09:14:33.930616 23214 net.cpp:157] Top shape: 16 16 38 38 (369664)
I0529 09:14:33.930619 23214 net.cpp:165] Memory required for data: 1576247456
I0529 09:14:33.930630 23214 layer_factory.hpp:77] Creating layer stage2_1/branch1b/scale
I0529 09:14:33.930636 23214 net.cpp:100] Creating Layer stage2_1/branch1b/scale
I0529 09:14:33.930640 23214 net.cpp:434] stage2_1/branch1b/scale <- stage2_1/branch1b
I0529 09:14:33.930657 23214 net.cpp:395] stage2_1/branch1b/scale -> stage2_1/branch1b (in-place)
I0529 09:14:33.930711 23214 layer_factory.hpp:77] Creating layer stage2_1/branch1b/scale
I0529 09:14:33.930840 23214 net.cpp:150] Setting up stage2_1/branch1b/scale
I0529 09:14:33.930848 23214 net.cpp:157] Top shape: 16 16 38 38 (369664)
I0529 09:14:33.930852 23214 net.cpp:165] Memory required for data: 1577726112
I0529 09:14:33.930858 23214 layer_factory.hpp:77] Creating layer stage2_1/branch1b/relu
I0529 09:14:33.930865 23214 net.cpp:100] Creating Layer stage2_1/branch1b/relu
I0529 09:14:33.930871 23214 net.cpp:434] stage2_1/branch1b/relu <- stage2_1/branch1b
I0529 09:14:33.930874 23214 net.cpp:395] stage2_1/branch1b/relu -> stage2_1/branch1b (in-place)
I0529 09:14:33.931712 23214 net.cpp:150] Setting up stage2_1/branch1b/relu
I0529 09:14:33.931727 23214 net.cpp:157] Top shape: 16 16 38 38 (369664)
I0529 09:14:33.931731 23214 net.cpp:165] Memory required for data: 1579204768
I0529 09:14:33.931736 23214 layer_factory.hpp:77] Creating layer stage2_1/branch2a
I0529 09:14:33.931746 23214 net.cpp:100] Creating Layer stage2_1/branch2a
I0529 09:14:33.931751 23214 net.cpp:434] stage2_1/branch2a <- stage1_tb/pool_stage1_tb/pool_0_split_1
I0529 09:14:33.931757 23214 net.cpp:408] stage2_1/branch2a -> stage2_1/branch2a
I0529 09:14:33.934587 23214 net.cpp:150] Setting up stage2_1/branch2a
I0529 09:14:33.934603 23214 net.cpp:157] Top shape: 16 32 38 38 (739328)
I0529 09:14:33.934609 23214 net.cpp:165] Memory required for data: 1582162080
I0529 09:14:33.934625 23214 layer_factory.hpp:77] Creating layer stage2_1/branch2a/bn
I0529 09:14:33.934633 23214 net.cpp:100] Creating Layer stage2_1/branch2a/bn
I0529 09:14:33.934639 23214 net.cpp:434] stage2_1/branch2a/bn <- stage2_1/branch2a
I0529 09:14:33.934644 23214 net.cpp:395] stage2_1/branch2a/bn -> stage2_1/branch2a (in-place)
I0529 09:14:33.934882 23214 net.cpp:150] Setting up stage2_1/branch2a/bn
I0529 09:14:33.934891 23214 net.cpp:157] Top shape: 16 32 38 38 (739328)
I0529 09:14:33.934895 23214 net.cpp:165] Memory required for data: 1585119392
I0529 09:14:33.934901 23214 layer_factory.hpp:77] Creating layer stage2_1/branch2a/scale
I0529 09:14:33.934916 23214 net.cpp:100] Creating Layer stage2_1/branch2a/scale
I0529 09:14:33.934921 23214 net.cpp:434] stage2_1/branch2a/scale <- stage2_1/branch2a
I0529 09:14:33.934926 23214 net.cpp:395] stage2_1/branch2a/scale -> stage2_1/branch2a (in-place)
I0529 09:14:33.934970 23214 layer_factory.hpp:77] Creating layer stage2_1/branch2a/scale
I0529 09:14:33.935101 23214 net.cpp:150] Setting up stage2_1/branch2a/scale
I0529 09:14:33.935108 23214 net.cpp:157] Top shape: 16 32 38 38 (739328)
I0529 09:14:33.935112 23214 net.cpp:165] Memory required for data: 1588076704
I0529 09:14:33.935118 23214 layer_factory.hpp:77] Creating layer stage2_1/branch2a/relu
I0529 09:14:33.935124 23214 net.cpp:100] Creating Layer stage2_1/branch2a/relu
I0529 09:14:33.935143 23214 net.cpp:434] stage2_1/branch2a/relu <- stage2_1/branch2a
I0529 09:14:33.935148 23214 net.cpp:395] stage2_1/branch2a/relu -> stage2_1/branch2a (in-place)
I0529 09:14:33.935595 23214 net.cpp:150] Setting up stage2_1/branch2a/relu
I0529 09:14:33.935607 23214 net.cpp:157] Top shape: 16 32 38 38 (739328)
I0529 09:14:33.935611 23214 net.cpp:165] Memory required for data: 1591034016
I0529 09:14:33.935616 23214 layer_factory.hpp:77] Creating layer stage2_1/branch2b
I0529 09:14:33.935623 23214 net.cpp:100] Creating Layer stage2_1/branch2b
I0529 09:14:33.935631 23214 net.cpp:434] stage2_1/branch2b <- stage2_1/branch2a
I0529 09:14:33.935636 23214 net.cpp:408] stage2_1/branch2b -> stage2_1/branch2b
I0529 09:14:33.938071 23214 net.cpp:150] Setting up stage2_1/branch2b
I0529 09:14:33.938087 23214 net.cpp:157] Top shape: 16 16 38 38 (369664)
I0529 09:14:33.938092 23214 net.cpp:165] Memory required for data: 1592512672
I0529 09:14:33.938099 23214 layer_factory.hpp:77] Creating layer stage2_1/branch2b/bn
I0529 09:14:33.938107 23214 net.cpp:100] Creating Layer stage2_1/branch2b/bn
I0529 09:14:33.938112 23214 net.cpp:434] stage2_1/branch2b/bn <- stage2_1/branch2b
I0529 09:14:33.938119 23214 net.cpp:395] stage2_1/branch2b/bn -> stage2_1/branch2b (in-place)
I0529 09:14:33.938381 23214 net.cpp:150] Setting up stage2_1/branch2b/bn
I0529 09:14:33.938391 23214 net.cpp:157] Top shape: 16 16 38 38 (369664)
I0529 09:14:33.938395 23214 net.cpp:165] Memory required for data: 1593991328
I0529 09:14:33.938410 23214 layer_factory.hpp:77] Creating layer stage2_1/branch2b/scale
I0529 09:14:33.938417 23214 net.cpp:100] Creating Layer stage2_1/branch2b/scale
I0529 09:14:33.938423 23214 net.cpp:434] stage2_1/branch2b/scale <- stage2_1/branch2b
I0529 09:14:33.938427 23214 net.cpp:395] stage2_1/branch2b/scale -> stage2_1/branch2b (in-place)
I0529 09:14:33.938472 23214 layer_factory.hpp:77] Creating layer stage2_1/branch2b/scale
I0529 09:14:33.938609 23214 net.cpp:150] Setting up stage2_1/branch2b/scale
I0529 09:14:33.938617 23214 net.cpp:157] Top shape: 16 16 38 38 (369664)
I0529 09:14:33.938622 23214 net.cpp:165] Memory required for data: 1595469984
I0529 09:14:33.938629 23214 layer_factory.hpp:77] Creating layer stage2_1/branch2b/relu
I0529 09:14:33.938635 23214 net.cpp:100] Creating Layer stage2_1/branch2b/relu
I0529 09:14:33.938640 23214 net.cpp:434] stage2_1/branch2b/relu <- stage2_1/branch2b
I0529 09:14:33.938644 23214 net.cpp:395] stage2_1/branch2b/relu -> stage2_1/branch2b (in-place)
I0529 09:14:33.939081 23214 net.cpp:150] Setting up stage2_1/branch2b/relu
I0529 09:14:33.939092 23214 net.cpp:157] Top shape: 16 16 38 38 (369664)
I0529 09:14:33.939097 23214 net.cpp:165] Memory required for data: 1596948640
I0529 09:14:33.939100 23214 layer_factory.hpp:77] Creating layer stage2_1/branch2c
I0529 09:14:33.939110 23214 net.cpp:100] Creating Layer stage2_1/branch2c
I0529 09:14:33.939116 23214 net.cpp:434] stage2_1/branch2c <- stage2_1/branch2b
I0529 09:14:33.939121 23214 net.cpp:408] stage2_1/branch2c -> stage2_1/branch2c
I0529 09:14:33.941148 23214 net.cpp:150] Setting up stage2_1/branch2c
I0529 09:14:33.941164 23214 net.cpp:157] Top shape: 16 16 38 38 (369664)
I0529 09:14:33.941167 23214 net.cpp:165] Memory required for data: 1598427296
I0529 09:14:33.941174 23214 layer_factory.hpp:77] Creating layer stage2_1/branch2c/bn
I0529 09:14:33.941181 23214 net.cpp:100] Creating Layer stage2_1/branch2c/bn
I0529 09:14:33.941187 23214 net.cpp:434] stage2_1/branch2c/bn <- stage2_1/branch2c
I0529 09:14:33.941193 23214 net.cpp:395] stage2_1/branch2c/bn -> stage2_1/branch2c (in-place)
I0529 09:14:33.941435 23214 net.cpp:150] Setting up stage2_1/branch2c/bn
I0529 09:14:33.941443 23214 net.cpp:157] Top shape: 16 16 38 38 (369664)
I0529 09:14:33.941448 23214 net.cpp:165] Memory required for data: 1599905952
I0529 09:14:33.941455 23214 layer_factory.hpp:77] Creating layer stage2_1/branch2c/scale
I0529 09:14:33.941463 23214 net.cpp:100] Creating Layer stage2_1/branch2c/scale
I0529 09:14:33.941468 23214 net.cpp:434] stage2_1/branch2c/scale <- stage2_1/branch2c
I0529 09:14:33.941488 23214 net.cpp:395] stage2_1/branch2c/scale -> stage2_1/branch2c (in-place)
I0529 09:14:33.941534 23214 layer_factory.hpp:77] Creating layer stage2_1/branch2c/scale
I0529 09:14:33.941678 23214 net.cpp:150] Setting up stage2_1/branch2c/scale
I0529 09:14:33.941685 23214 net.cpp:157] Top shape: 16 16 38 38 (369664)
I0529 09:14:33.941690 23214 net.cpp:165] Memory required for data: 1601384608
I0529 09:14:33.941696 23214 layer_factory.hpp:77] Creating layer stage2_1/branch2c/relu
I0529 09:14:33.941702 23214 net.cpp:100] Creating Layer stage2_1/branch2c/relu
I0529 09:14:33.941707 23214 net.cpp:434] stage2_1/branch2c/relu <- stage2_1/branch2c
I0529 09:14:33.941712 23214 net.cpp:395] stage2_1/branch2c/relu -> stage2_1/branch2c (in-place)
I0529 09:14:33.942591 23214 net.cpp:150] Setting up stage2_1/branch2c/relu
I0529 09:14:33.942606 23214 net.cpp:157] Top shape: 16 16 38 38 (369664)
I0529 09:14:33.942611 23214 net.cpp:165] Memory required for data: 1602863264
I0529 09:14:33.942616 23214 layer_factory.hpp:77] Creating layer stage2_1/concat
I0529 09:14:33.942625 23214 net.cpp:100] Creating Layer stage2_1/concat
I0529 09:14:33.942631 23214 net.cpp:434] stage2_1/concat <- stage1_tb/pool_stage1_tb/pool_0_split_2
I0529 09:14:33.942636 23214 net.cpp:434] stage2_1/concat <- stage2_1/branch1b
I0529 09:14:33.942642 23214 net.cpp:434] stage2_1/concat <- stage2_1/branch2c
I0529 09:14:33.942646 23214 net.cpp:408] stage2_1/concat -> stage2_1/concat
I0529 09:14:33.942687 23214 net.cpp:150] Setting up stage2_1/concat
I0529 09:14:33.942693 23214 net.cpp:157] Top shape: 16 160 38 38 (3696640)
I0529 09:14:33.942695 23214 net.cpp:165] Memory required for data: 1617649824
I0529 09:14:33.942698 23214 layer_factory.hpp:77] Creating layer stage2_1/concat_stage2_1/concat_0_split
I0529 09:14:33.942701 23214 net.cpp:100] Creating Layer stage2_1/concat_stage2_1/concat_0_split
I0529 09:14:33.942704 23214 net.cpp:434] stage2_1/concat_stage2_1/concat_0_split <- stage2_1/concat
I0529 09:14:33.942708 23214 net.cpp:408] stage2_1/concat_stage2_1/concat_0_split -> stage2_1/concat_stage2_1/concat_0_split_0
I0529 09:14:33.942713 23214 net.cpp:408] stage2_1/concat_stage2_1/concat_0_split -> stage2_1/concat_stage2_1/concat_0_split_1
I0529 09:14:33.942716 23214 net.cpp:408] stage2_1/concat_stage2_1/concat_0_split -> stage2_1/concat_stage2_1/concat_0_split_2
I0529 09:14:33.942759 23214 net.cpp:150] Setting up stage2_1/concat_stage2_1/concat_0_split
I0529 09:14:33.942765 23214 net.cpp:157] Top shape: 16 160 38 38 (3696640)
I0529 09:14:33.942767 23214 net.cpp:157] Top shape: 16 160 38 38 (3696640)
I0529 09:14:33.942770 23214 net.cpp:157] Top shape: 16 160 38 38 (3696640)
I0529 09:14:33.942772 23214 net.cpp:165] Memory required for data: 1662009504
I0529 09:14:33.942775 23214 layer_factory.hpp:77] Creating layer stage2_2/branch1a
I0529 09:14:33.942781 23214 net.cpp:100] Creating Layer stage2_2/branch1a
I0529 09:14:33.942785 23214 net.cpp:434] stage2_2/branch1a <- stage2_1/concat_stage2_1/concat_0_split_0
I0529 09:14:33.942788 23214 net.cpp:408] stage2_2/branch1a -> stage2_2/branch1a
I0529 09:14:33.944173 23214 net.cpp:150] Setting up stage2_2/branch1a
I0529 09:14:33.944185 23214 net.cpp:157] Top shape: 16 32 38 38 (739328)
I0529 09:14:33.944187 23214 net.cpp:165] Memory required for data: 1664966816
I0529 09:14:33.944191 23214 layer_factory.hpp:77] Creating layer stage2_2/branch1a/bn
I0529 09:14:33.944198 23214 net.cpp:100] Creating Layer stage2_2/branch1a/bn
I0529 09:14:33.944202 23214 net.cpp:434] stage2_2/branch1a/bn <- stage2_2/branch1a
I0529 09:14:33.944206 23214 net.cpp:395] stage2_2/branch1a/bn -> stage2_2/branch1a (in-place)
I0529 09:14:33.944389 23214 net.cpp:150] Setting up stage2_2/branch1a/bn
I0529 09:14:33.944396 23214 net.cpp:157] Top shape: 16 32 38 38 (739328)
I0529 09:14:33.944399 23214 net.cpp:165] Memory required for data: 1667924128
I0529 09:14:33.944404 23214 layer_factory.hpp:77] Creating layer stage2_2/branch1a/scale
I0529 09:14:33.944408 23214 net.cpp:100] Creating Layer stage2_2/branch1a/scale
I0529 09:14:33.944422 23214 net.cpp:434] stage2_2/branch1a/scale <- stage2_2/branch1a
I0529 09:14:33.944427 23214 net.cpp:395] stage2_2/branch1a/scale -> stage2_2/branch1a (in-place)
I0529 09:14:33.944459 23214 layer_factory.hpp:77] Creating layer stage2_2/branch1a/scale
I0529 09:14:33.944558 23214 net.cpp:150] Setting up stage2_2/branch1a/scale
I0529 09:14:33.944566 23214 net.cpp:157] Top shape: 16 32 38 38 (739328)
I0529 09:14:33.944567 23214 net.cpp:165] Memory required for data: 1670881440
I0529 09:14:33.944571 23214 layer_factory.hpp:77] Creating layer stage2_2/branch1a/relu
I0529 09:14:33.944576 23214 net.cpp:100] Creating Layer stage2_2/branch1a/relu
I0529 09:14:33.944578 23214 net.cpp:434] stage2_2/branch1a/relu <- stage2_2/branch1a
I0529 09:14:33.944581 23214 net.cpp:395] stage2_2/branch1a/relu -> stage2_2/branch1a (in-place)
I0529 09:14:33.944914 23214 net.cpp:150] Setting up stage2_2/branch1a/relu
I0529 09:14:33.944922 23214 net.cpp:157] Top shape: 16 32 38 38 (739328)
I0529 09:14:33.944926 23214 net.cpp:165] Memory required for data: 1673838752
I0529 09:14:33.944928 23214 layer_factory.hpp:77] Creating layer stage2_2/branch1b
I0529 09:14:33.944938 23214 net.cpp:100] Creating Layer stage2_2/branch1b
I0529 09:14:33.944942 23214 net.cpp:434] stage2_2/branch1b <- stage2_2/branch1a
I0529 09:14:33.944947 23214 net.cpp:408] stage2_2/branch1b -> stage2_2/branch1b
I0529 09:14:33.946365 23214 net.cpp:150] Setting up stage2_2/branch1b
I0529 09:14:33.946377 23214 net.cpp:157] Top shape: 16 16 38 38 (369664)
I0529 09:14:33.946380 23214 net.cpp:165] Memory required for data: 1675317408
I0529 09:14:33.946384 23214 layer_factory.hpp:77] Creating layer stage2_2/branch1b/bn
I0529 09:14:33.946389 23214 net.cpp:100] Creating Layer stage2_2/branch1b/bn
I0529 09:14:33.946393 23214 net.cpp:434] stage2_2/branch1b/bn <- stage2_2/branch1b
I0529 09:14:33.946396 23214 net.cpp:395] stage2_2/branch1b/bn -> stage2_2/branch1b (in-place)
I0529 09:14:33.946564 23214 net.cpp:150] Setting up stage2_2/branch1b/bn
I0529 09:14:33.946571 23214 net.cpp:157] Top shape: 16 16 38 38 (369664)
I0529 09:14:33.946573 23214 net.cpp:165] Memory required for data: 1676796064
I0529 09:14:33.946578 23214 layer_factory.hpp:77] Creating layer stage2_2/branch1b/scale
I0529 09:14:33.946583 23214 net.cpp:100] Creating Layer stage2_2/branch1b/scale
I0529 09:14:33.946586 23214 net.cpp:434] stage2_2/branch1b/scale <- stage2_2/branch1b
I0529 09:14:33.946589 23214 net.cpp:395] stage2_2/branch1b/scale -> stage2_2/branch1b (in-place)
I0529 09:14:33.946619 23214 layer_factory.hpp:77] Creating layer stage2_2/branch1b/scale
I0529 09:14:33.946719 23214 net.cpp:150] Setting up stage2_2/branch1b/scale
I0529 09:14:33.946725 23214 net.cpp:157] Top shape: 16 16 38 38 (369664)
I0529 09:14:33.946728 23214 net.cpp:165] Memory required for data: 1678274720
I0529 09:14:33.946732 23214 layer_factory.hpp:77] Creating layer stage2_2/branch1b/relu
I0529 09:14:33.946736 23214 net.cpp:100] Creating Layer stage2_2/branch1b/relu
I0529 09:14:33.946738 23214 net.cpp:434] stage2_2/branch1b/relu <- stage2_2/branch1b
I0529 09:14:33.946741 23214 net.cpp:395] stage2_2/branch1b/relu -> stage2_2/branch1b (in-place)
I0529 09:14:33.947067 23214 net.cpp:150] Setting up stage2_2/branch1b/relu
I0529 09:14:33.947075 23214 net.cpp:157] Top shape: 16 16 38 38 (369664)
I0529 09:14:33.947078 23214 net.cpp:165] Memory required for data: 1679753376
I0529 09:14:33.947080 23214 layer_factory.hpp:77] Creating layer stage2_2/branch2a
I0529 09:14:33.947087 23214 net.cpp:100] Creating Layer stage2_2/branch2a
I0529 09:14:33.947090 23214 net.cpp:434] stage2_2/branch2a <- stage2_1/concat_stage2_1/concat_0_split_1
I0529 09:14:33.947094 23214 net.cpp:408] stage2_2/branch2a -> stage2_2/branch2a
I0529 09:14:33.948503 23214 net.cpp:150] Setting up stage2_2/branch2a
I0529 09:14:33.948513 23214 net.cpp:157] Top shape: 16 32 38 38 (739328)
I0529 09:14:33.948516 23214 net.cpp:165] Memory required for data: 1682710688
I0529 09:14:33.948520 23214 layer_factory.hpp:77] Creating layer stage2_2/branch2a/bn
I0529 09:14:33.948525 23214 net.cpp:100] Creating Layer stage2_2/branch2a/bn
I0529 09:14:33.948549 23214 net.cpp:434] stage2_2/branch2a/bn <- stage2_2/branch2a
I0529 09:14:33.948557 23214 net.cpp:395] stage2_2/branch2a/bn -> stage2_2/branch2a (in-place)
I0529 09:14:33.948722 23214 net.cpp:150] Setting up stage2_2/branch2a/bn
I0529 09:14:33.948729 23214 net.cpp:157] Top shape: 16 32 38 38 (739328)
I0529 09:14:33.948731 23214 net.cpp:165] Memory required for data: 1685668000
I0529 09:14:33.948736 23214 layer_factory.hpp:77] Creating layer stage2_2/branch2a/scale
I0529 09:14:33.948740 23214 net.cpp:100] Creating Layer stage2_2/branch2a/scale
I0529 09:14:33.948745 23214 net.cpp:434] stage2_2/branch2a/scale <- stage2_2/branch2a
I0529 09:14:33.948747 23214 net.cpp:395] stage2_2/branch2a/scale -> stage2_2/branch2a (in-place)
I0529 09:14:33.948778 23214 layer_factory.hpp:77] Creating layer stage2_2/branch2a/scale
I0529 09:14:33.948878 23214 net.cpp:150] Setting up stage2_2/branch2a/scale
I0529 09:14:33.948884 23214 net.cpp:157] Top shape: 16 32 38 38 (739328)
I0529 09:14:33.948885 23214 net.cpp:165] Memory required for data: 1688625312
I0529 09:14:33.948890 23214 layer_factory.hpp:77] Creating layer stage2_2/branch2a/relu
I0529 09:14:33.948894 23214 net.cpp:100] Creating Layer stage2_2/branch2a/relu
I0529 09:14:33.948896 23214 net.cpp:434] stage2_2/branch2a/relu <- stage2_2/branch2a
I0529 09:14:33.948899 23214 net.cpp:395] stage2_2/branch2a/relu -> stage2_2/branch2a (in-place)
I0529 09:14:33.949220 23214 net.cpp:150] Setting up stage2_2/branch2a/relu
I0529 09:14:33.949229 23214 net.cpp:157] Top shape: 16 32 38 38 (739328)
I0529 09:14:33.949231 23214 net.cpp:165] Memory required for data: 1691582624
I0529 09:14:33.949249 23214 layer_factory.hpp:77] Creating layer stage2_2/branch2b
I0529 09:14:33.949255 23214 net.cpp:100] Creating Layer stage2_2/branch2b
I0529 09:14:33.949259 23214 net.cpp:434] stage2_2/branch2b <- stage2_2/branch2a
I0529 09:14:33.949262 23214 net.cpp:408] stage2_2/branch2b -> stage2_2/branch2b
I0529 09:14:33.950659 23214 net.cpp:150] Setting up stage2_2/branch2b
I0529 09:14:33.950670 23214 net.cpp:157] Top shape: 16 16 38 38 (369664)
I0529 09:14:33.950673 23214 net.cpp:165] Memory required for data: 1693061280
I0529 09:14:33.950677 23214 layer_factory.hpp:77] Creating layer stage2_2/branch2b/bn
I0529 09:14:33.950711 23214 net.cpp:100] Creating Layer stage2_2/branch2b/bn
I0529 09:14:33.950716 23214 net.cpp:434] stage2_2/branch2b/bn <- stage2_2/branch2b
I0529 09:14:33.950721 23214 net.cpp:395] stage2_2/branch2b/bn -> stage2_2/branch2b (in-place)
I0529 09:14:33.950889 23214 net.cpp:150] Setting up stage2_2/branch2b/bn
I0529 09:14:33.950896 23214 net.cpp:157] Top shape: 16 16 38 38 (369664)
I0529 09:14:33.950898 23214 net.cpp:165] Memory required for data: 1694539936
I0529 09:14:33.950903 23214 layer_factory.hpp:77] Creating layer stage2_2/branch2b/scale
I0529 09:14:33.950907 23214 net.cpp:100] Creating Layer stage2_2/branch2b/scale
I0529 09:14:33.950911 23214 net.cpp:434] stage2_2/branch2b/scale <- stage2_2/branch2b
I0529 09:14:33.950915 23214 net.cpp:395] stage2_2/branch2b/scale -> stage2_2/branch2b (in-place)
I0529 09:14:33.950945 23214 layer_factory.hpp:77] Creating layer stage2_2/branch2b/scale
I0529 09:14:33.951063 23214 net.cpp:150] Setting up stage2_2/branch2b/scale
I0529 09:14:33.951071 23214 net.cpp:157] Top shape: 16 16 38 38 (369664)
I0529 09:14:33.951072 23214 net.cpp:165] Memory required for data: 1696018592
I0529 09:14:33.951076 23214 layer_factory.hpp:77] Creating layer stage2_2/branch2b/relu
I0529 09:14:33.951081 23214 net.cpp:100] Creating Layer stage2_2/branch2b/relu
I0529 09:14:33.951083 23214 net.cpp:434] stage2_2/branch2b/relu <- stage2_2/branch2b
I0529 09:14:33.951086 23214 net.cpp:395] stage2_2/branch2b/relu -> stage2_2/branch2b (in-place)
I0529 09:14:33.951714 23214 net.cpp:150] Setting up stage2_2/branch2b/relu
I0529 09:14:33.951725 23214 net.cpp:157] Top shape: 16 16 38 38 (369664)
I0529 09:14:33.951728 23214 net.cpp:165] Memory required for data: 1697497248
I0529 09:14:33.951731 23214 layer_factory.hpp:77] Creating layer stage2_2/branch2c
I0529 09:14:33.951747 23214 net.cpp:100] Creating Layer stage2_2/branch2c
I0529 09:14:33.951752 23214 net.cpp:434] stage2_2/branch2c <- stage2_2/branch2b
I0529 09:14:33.951756 23214 net.cpp:408] stage2_2/branch2c -> stage2_2/branch2c
I0529 09:14:33.953150 23214 net.cpp:150] Setting up stage2_2/branch2c
I0529 09:14:33.953161 23214 net.cpp:157] Top shape: 16 16 38 38 (369664)
I0529 09:14:33.953177 23214 net.cpp:165] Memory required for data: 1698975904
I0529 09:14:33.953182 23214 layer_factory.hpp:77] Creating layer stage2_2/branch2c/bn
I0529 09:14:33.953187 23214 net.cpp:100] Creating Layer stage2_2/branch2c/bn
I0529 09:14:33.953191 23214 net.cpp:434] stage2_2/branch2c/bn <- stage2_2/branch2c
I0529 09:14:33.953194 23214 net.cpp:395] stage2_2/branch2c/bn -> stage2_2/branch2c (in-place)
I0529 09:14:33.953356 23214 net.cpp:150] Setting up stage2_2/branch2c/bn
I0529 09:14:33.953363 23214 net.cpp:157] Top shape: 16 16 38 38 (369664)
I0529 09:14:33.953366 23214 net.cpp:165] Memory required for data: 1700454560
I0529 09:14:33.953371 23214 layer_factory.hpp:77] Creating layer stage2_2/branch2c/scale
I0529 09:14:33.953374 23214 net.cpp:100] Creating Layer stage2_2/branch2c/scale
I0529 09:14:33.953378 23214 net.cpp:434] stage2_2/branch2c/scale <- stage2_2/branch2c
I0529 09:14:33.953382 23214 net.cpp:395] stage2_2/branch2c/scale -> stage2_2/branch2c (in-place)
I0529 09:14:33.953416 23214 layer_factory.hpp:77] Creating layer stage2_2/branch2c/scale
I0529 09:14:33.953508 23214 net.cpp:150] Setting up stage2_2/branch2c/scale
I0529 09:14:33.953514 23214 net.cpp:157] Top shape: 16 16 38 38 (369664)
I0529 09:14:33.953516 23214 net.cpp:165] Memory required for data: 1701933216
I0529 09:14:33.953521 23214 layer_factory.hpp:77] Creating layer stage2_2/branch2c/relu
I0529 09:14:33.953524 23214 net.cpp:100] Creating Layer stage2_2/branch2c/relu
I0529 09:14:33.953527 23214 net.cpp:434] stage2_2/branch2c/relu <- stage2_2/branch2c
I0529 09:14:33.953531 23214 net.cpp:395] stage2_2/branch2c/relu -> stage2_2/branch2c (in-place)
I0529 09:14:33.953824 23214 net.cpp:150] Setting up stage2_2/branch2c/relu
I0529 09:14:33.953842 23214 net.cpp:157] Top shape: 16 16 38 38 (369664)
I0529 09:14:33.953860 23214 net.cpp:165] Memory required for data: 1703411872
I0529 09:14:33.953862 23214 layer_factory.hpp:77] Creating layer stage2_2/concat
I0529 09:14:33.953866 23214 net.cpp:100] Creating Layer stage2_2/concat
I0529 09:14:33.953879 23214 net.cpp:434] stage2_2/concat <- stage2_1/concat_stage2_1/concat_0_split_2
I0529 09:14:33.953882 23214 net.cpp:434] stage2_2/concat <- stage2_2/branch1b
I0529 09:14:33.953886 23214 net.cpp:434] stage2_2/concat <- stage2_2/branch2c
I0529 09:14:33.953888 23214 net.cpp:408] stage2_2/concat -> stage2_2/concat
I0529 09:14:33.953910 23214 net.cpp:150] Setting up stage2_2/concat
I0529 09:14:33.953917 23214 net.cpp:157] Top shape: 16 192 38 38 (4435968)
I0529 09:14:33.953918 23214 net.cpp:165] Memory required for data: 1721155744
I0529 09:14:33.953920 23214 layer_factory.hpp:77] Creating layer stage2_2/concat_stage2_2/concat_0_split
I0529 09:14:33.953924 23214 net.cpp:100] Creating Layer stage2_2/concat_stage2_2/concat_0_split
I0529 09:14:33.953928 23214 net.cpp:434] stage2_2/concat_stage2_2/concat_0_split <- stage2_2/concat
I0529 09:14:33.953932 23214 net.cpp:408] stage2_2/concat_stage2_2/concat_0_split -> stage2_2/concat_stage2_2/concat_0_split_0
I0529 09:14:33.953948 23214 net.cpp:408] stage2_2/concat_stage2_2/concat_0_split -> stage2_2/concat_stage2_2/concat_0_split_1
I0529 09:14:33.953953 23214 net.cpp:408] stage2_2/concat_stage2_2/concat_0_split -> stage2_2/concat_stage2_2/concat_0_split_2
I0529 09:14:33.953995 23214 net.cpp:150] Setting up stage2_2/concat_stage2_2/concat_0_split
I0529 09:14:33.954000 23214 net.cpp:157] Top shape: 16 192 38 38 (4435968)
I0529 09:14:33.954004 23214 net.cpp:157] Top shape: 16 192 38 38 (4435968)
I0529 09:14:33.954005 23214 net.cpp:157] Top shape: 16 192 38 38 (4435968)
I0529 09:14:33.954008 23214 net.cpp:165] Memory required for data: 1774387360
I0529 09:14:33.954010 23214 layer_factory.hpp:77] Creating layer stage2_3/branch1a
I0529 09:14:33.954026 23214 net.cpp:100] Creating Layer stage2_3/branch1a
I0529 09:14:33.954030 23214 net.cpp:434] stage2_3/branch1a <- stage2_2/concat_stage2_2/concat_0_split_0
I0529 09:14:33.954035 23214 net.cpp:408] stage2_3/branch1a -> stage2_3/branch1a
I0529 09:14:33.955751 23214 net.cpp:150] Setting up stage2_3/branch1a
I0529 09:14:33.955763 23214 net.cpp:157] Top shape: 16 32 38 38 (739328)
I0529 09:14:33.955766 23214 net.cpp:165] Memory required for data: 1777344672
I0529 09:14:33.955771 23214 layer_factory.hpp:77] Creating layer stage2_3/branch1a/bn
I0529 09:14:33.955776 23214 net.cpp:100] Creating Layer stage2_3/branch1a/bn
I0529 09:14:33.955780 23214 net.cpp:434] stage2_3/branch1a/bn <- stage2_3/branch1a
I0529 09:14:33.955783 23214 net.cpp:395] stage2_3/branch1a/bn -> stage2_3/branch1a (in-place)
I0529 09:14:33.955958 23214 net.cpp:150] Setting up stage2_3/branch1a/bn
I0529 09:14:33.955965 23214 net.cpp:157] Top shape: 16 32 38 38 (739328)
I0529 09:14:33.955967 23214 net.cpp:165] Memory required for data: 1780301984
I0529 09:14:33.955972 23214 layer_factory.hpp:77] Creating layer stage2_3/branch1a/scale
I0529 09:14:33.955977 23214 net.cpp:100] Creating Layer stage2_3/branch1a/scale
I0529 09:14:33.955981 23214 net.cpp:434] stage2_3/branch1a/scale <- stage2_3/branch1a
I0529 09:14:33.955983 23214 net.cpp:395] stage2_3/branch1a/scale -> stage2_3/branch1a (in-place)
I0529 09:14:33.956014 23214 layer_factory.hpp:77] Creating layer stage2_3/branch1a/scale
I0529 09:14:33.956122 23214 net.cpp:150] Setting up stage2_3/branch1a/scale
I0529 09:14:33.956128 23214 net.cpp:157] Top shape: 16 32 38 38 (739328)
I0529 09:14:33.956130 23214 net.cpp:165] Memory required for data: 1783259296
I0529 09:14:33.956135 23214 layer_factory.hpp:77] Creating layer stage2_3/branch1a/relu
I0529 09:14:33.956138 23214 net.cpp:100] Creating Layer stage2_3/branch1a/relu
I0529 09:14:33.956141 23214 net.cpp:434] stage2_3/branch1a/relu <- stage2_3/branch1a
I0529 09:14:33.956145 23214 net.cpp:395] stage2_3/branch1a/relu -> stage2_3/branch1a (in-place)
I0529 09:14:33.956440 23214 net.cpp:150] Setting up stage2_3/branch1a/relu
I0529 09:14:33.956449 23214 net.cpp:157] Top shape: 16 32 38 38 (739328)
I0529 09:14:33.956451 23214 net.cpp:165] Memory required for data: 1786216608
I0529 09:14:33.956454 23214 layer_factory.hpp:77] Creating layer stage2_3/branch1b
I0529 09:14:33.956459 23214 net.cpp:100] Creating Layer stage2_3/branch1b
I0529 09:14:33.956463 23214 net.cpp:434] stage2_3/branch1b <- stage2_3/branch1a
I0529 09:14:33.956467 23214 net.cpp:408] stage2_3/branch1b -> stage2_3/branch1b
I0529 09:14:33.957897 23214 net.cpp:150] Setting up stage2_3/branch1b
I0529 09:14:33.957908 23214 net.cpp:157] Top shape: 16 16 38 38 (369664)
I0529 09:14:33.957926 23214 net.cpp:165] Memory required for data: 1787695264
I0529 09:14:33.957929 23214 layer_factory.hpp:77] Creating layer stage2_3/branch1b/bn
I0529 09:14:33.957940 23214 net.cpp:100] Creating Layer stage2_3/branch1b/bn
I0529 09:14:33.957945 23214 net.cpp:434] stage2_3/branch1b/bn <- stage2_3/branch1b
I0529 09:14:33.957949 23214 net.cpp:395] stage2_3/branch1b/bn -> stage2_3/branch1b (in-place)
I0529 09:14:33.958114 23214 net.cpp:150] Setting up stage2_3/branch1b/bn
I0529 09:14:33.958120 23214 net.cpp:157] Top shape: 16 16 38 38 (369664)
I0529 09:14:33.958122 23214 net.cpp:165] Memory required for data: 1789173920
I0529 09:14:33.958128 23214 layer_factory.hpp:77] Creating layer stage2_3/branch1b/scale
I0529 09:14:33.958132 23214 net.cpp:100] Creating Layer stage2_3/branch1b/scale
I0529 09:14:33.958137 23214 net.cpp:434] stage2_3/branch1b/scale <- stage2_3/branch1b
I0529 09:14:33.958140 23214 net.cpp:395] stage2_3/branch1b/scale -> stage2_3/branch1b (in-place)
I0529 09:14:33.958170 23214 layer_factory.hpp:77] Creating layer stage2_3/branch1b/scale
I0529 09:14:33.958284 23214 net.cpp:150] Setting up stage2_3/branch1b/scale
I0529 09:14:33.958292 23214 net.cpp:157] Top shape: 16 16 38 38 (369664)
I0529 09:14:33.958293 23214 net.cpp:165] Memory required for data: 1790652576
I0529 09:14:33.958309 23214 layer_factory.hpp:77] Creating layer stage2_3/branch1b/relu
I0529 09:14:33.958320 23214 net.cpp:100] Creating Layer stage2_3/branch1b/relu
I0529 09:14:33.958325 23214 net.cpp:434] stage2_3/branch1b/relu <- stage2_3/branch1b
I0529 09:14:33.958328 23214 net.cpp:395] stage2_3/branch1b/relu -> stage2_3/branch1b (in-place)
I0529 09:14:33.958914 23214 net.cpp:150] Setting up stage2_3/branch1b/relu
I0529 09:14:33.958925 23214 net.cpp:157] Top shape: 16 16 38 38 (369664)
I0529 09:14:33.958927 23214 net.cpp:165] Memory required for data: 1792131232
I0529 09:14:33.958930 23214 layer_factory.hpp:77] Creating layer stage2_3/branch2a
I0529 09:14:33.958937 23214 net.cpp:100] Creating Layer stage2_3/branch2a
I0529 09:14:33.958940 23214 net.cpp:434] stage2_3/branch2a <- stage2_2/concat_stage2_2/concat_0_split_1
I0529 09:14:33.958945 23214 net.cpp:408] stage2_3/branch2a -> stage2_3/branch2a
I0529 09:14:33.960424 23214 net.cpp:150] Setting up stage2_3/branch2a
I0529 09:14:33.960436 23214 net.cpp:157] Top shape: 16 32 38 38 (739328)
I0529 09:14:33.960438 23214 net.cpp:165] Memory required for data: 1795088544
I0529 09:14:33.960443 23214 layer_factory.hpp:77] Creating layer stage2_3/branch2a/bn
I0529 09:14:33.960448 23214 net.cpp:100] Creating Layer stage2_3/branch2a/bn
I0529 09:14:33.960451 23214 net.cpp:434] stage2_3/branch2a/bn <- stage2_3/branch2a
I0529 09:14:33.960455 23214 net.cpp:395] stage2_3/branch2a/bn -> stage2_3/branch2a (in-place)
I0529 09:14:33.960636 23214 net.cpp:150] Setting up stage2_3/branch2a/bn
I0529 09:14:33.960644 23214 net.cpp:157] Top shape: 16 32 38 38 (739328)
I0529 09:14:33.960645 23214 net.cpp:165] Memory required for data: 1798045856
I0529 09:14:33.960650 23214 layer_factory.hpp:77] Creating layer stage2_3/branch2a/scale
I0529 09:14:33.960661 23214 net.cpp:100] Creating Layer stage2_3/branch2a/scale
I0529 09:14:33.960665 23214 net.cpp:434] stage2_3/branch2a/scale <- stage2_3/branch2a
I0529 09:14:33.960669 23214 net.cpp:395] stage2_3/branch2a/scale -> stage2_3/branch2a (in-place)
I0529 09:14:33.960705 23214 layer_factory.hpp:77] Creating layer stage2_3/branch2a/scale
I0529 09:14:33.960805 23214 net.cpp:150] Setting up stage2_3/branch2a/scale
I0529 09:14:33.960811 23214 net.cpp:157] Top shape: 16 32 38 38 (739328)
I0529 09:14:33.960814 23214 net.cpp:165] Memory required for data: 1801003168
I0529 09:14:33.960819 23214 layer_factory.hpp:77] Creating layer stage2_3/branch2a/relu
I0529 09:14:33.960821 23214 net.cpp:100] Creating Layer stage2_3/branch2a/relu
I0529 09:14:33.960824 23214 net.cpp:434] stage2_3/branch2a/relu <- stage2_3/branch2a
I0529 09:14:33.960827 23214 net.cpp:395] stage2_3/branch2a/relu -> stage2_3/branch2a (in-place)
I0529 09:14:33.961132 23214 net.cpp:150] Setting up stage2_3/branch2a/relu
I0529 09:14:33.961140 23214 net.cpp:157] Top shape: 16 32 38 38 (739328)
I0529 09:14:33.961143 23214 net.cpp:165] Memory required for data: 1803960480
I0529 09:14:33.961145 23214 layer_factory.hpp:77] Creating layer stage2_3/branch2b
I0529 09:14:33.961150 23214 net.cpp:100] Creating Layer stage2_3/branch2b
I0529 09:14:33.961154 23214 net.cpp:434] stage2_3/branch2b <- stage2_3/branch2a
I0529 09:14:33.961158 23214 net.cpp:408] stage2_3/branch2b -> stage2_3/branch2b
I0529 09:14:33.962626 23214 net.cpp:150] Setting up stage2_3/branch2b
I0529 09:14:33.962638 23214 net.cpp:157] Top shape: 16 16 38 38 (369664)
I0529 09:14:33.962654 23214 net.cpp:165] Memory required for data: 1805439136
I0529 09:14:33.962658 23214 layer_factory.hpp:77] Creating layer stage2_3/branch2b/bn
I0529 09:14:33.962664 23214 net.cpp:100] Creating Layer stage2_3/branch2b/bn
I0529 09:14:33.962668 23214 net.cpp:434] stage2_3/branch2b/bn <- stage2_3/branch2b
I0529 09:14:33.962672 23214 net.cpp:395] stage2_3/branch2b/bn -> stage2_3/branch2b (in-place)
I0529 09:14:33.962843 23214 net.cpp:150] Setting up stage2_3/branch2b/bn
I0529 09:14:33.962851 23214 net.cpp:157] Top shape: 16 16 38 38 (369664)
I0529 09:14:33.962852 23214 net.cpp:165] Memory required for data: 1806917792
I0529 09:14:33.962857 23214 layer_factory.hpp:77] Creating layer stage2_3/branch2b/scale
I0529 09:14:33.962872 23214 net.cpp:100] Creating Layer stage2_3/branch2b/scale
I0529 09:14:33.962877 23214 net.cpp:434] stage2_3/branch2b/scale <- stage2_3/branch2b
I0529 09:14:33.962880 23214 net.cpp:395] stage2_3/branch2b/scale -> stage2_3/branch2b (in-place)
I0529 09:14:33.962913 23214 layer_factory.hpp:77] Creating layer stage2_3/branch2b/scale
I0529 09:14:33.963016 23214 net.cpp:150] Setting up stage2_3/branch2b/scale
I0529 09:14:33.963021 23214 net.cpp:157] Top shape: 16 16 38 38 (369664)
I0529 09:14:33.963023 23214 net.cpp:165] Memory required for data: 1808396448
I0529 09:14:33.963027 23214 layer_factory.hpp:77] Creating layer stage2_3/branch2b/relu
I0529 09:14:33.963032 23214 net.cpp:100] Creating Layer stage2_3/branch2b/relu
I0529 09:14:33.963034 23214 net.cpp:434] stage2_3/branch2b/relu <- stage2_3/branch2b
I0529 09:14:33.963037 23214 net.cpp:395] stage2_3/branch2b/relu -> stage2_3/branch2b (in-place)
I0529 09:14:33.963348 23214 net.cpp:150] Setting up stage2_3/branch2b/relu
I0529 09:14:33.963356 23214 net.cpp:157] Top shape: 16 16 38 38 (369664)
I0529 09:14:33.963359 23214 net.cpp:165] Memory required for data: 1809875104
I0529 09:14:33.963362 23214 layer_factory.hpp:77] Creating layer stage2_3/branch2c
I0529 09:14:33.963367 23214 net.cpp:100] Creating Layer stage2_3/branch2c
I0529 09:14:33.963371 23214 net.cpp:434] stage2_3/branch2c <- stage2_3/branch2b
I0529 09:14:33.963380 23214 net.cpp:408] stage2_3/branch2c -> stage2_3/branch2c
I0529 09:14:33.964794 23214 net.cpp:150] Setting up stage2_3/branch2c
I0529 09:14:33.964805 23214 net.cpp:157] Top shape: 16 16 38 38 (369664)
I0529 09:14:33.964823 23214 net.cpp:165] Memory required for data: 1811353760
I0529 09:14:33.964828 23214 layer_factory.hpp:77] Creating layer stage2_3/branch2c/bn
I0529 09:14:33.964833 23214 net.cpp:100] Creating Layer stage2_3/branch2c/bn
I0529 09:14:33.964836 23214 net.cpp:434] stage2_3/branch2c/bn <- stage2_3/branch2c
I0529 09:14:33.964840 23214 net.cpp:395] stage2_3/branch2c/bn -> stage2_3/branch2c (in-place)
I0529 09:14:33.965011 23214 net.cpp:150] Setting up stage2_3/branch2c/bn
I0529 09:14:33.965018 23214 net.cpp:157] Top shape: 16 16 38 38 (369664)
I0529 09:14:33.965019 23214 net.cpp:165] Memory required for data: 1812832416
I0529 09:14:33.965024 23214 layer_factory.hpp:77] Creating layer stage2_3/branch2c/scale
I0529 09:14:33.965029 23214 net.cpp:100] Creating Layer stage2_3/branch2c/scale
I0529 09:14:33.965034 23214 net.cpp:434] stage2_3/branch2c/scale <- stage2_3/branch2c
I0529 09:14:33.965036 23214 net.cpp:395] stage2_3/branch2c/scale -> stage2_3/branch2c (in-place)
I0529 09:14:33.965066 23214 layer_factory.hpp:77] Creating layer stage2_3/branch2c/scale
I0529 09:14:33.965173 23214 net.cpp:150] Setting up stage2_3/branch2c/scale
I0529 09:14:33.965178 23214 net.cpp:157] Top shape: 16 16 38 38 (369664)
I0529 09:14:33.965180 23214 net.cpp:165] Memory required for data: 1814311072
I0529 09:14:33.965184 23214 layer_factory.hpp:77] Creating layer stage2_3/branch2c/relu
I0529 09:14:33.965188 23214 net.cpp:100] Creating Layer stage2_3/branch2c/relu
I0529 09:14:33.965191 23214 net.cpp:434] stage2_3/branch2c/relu <- stage2_3/branch2c
I0529 09:14:33.965194 23214 net.cpp:395] stage2_3/branch2c/relu -> stage2_3/branch2c (in-place)
I0529 09:14:33.965790 23214 net.cpp:150] Setting up stage2_3/branch2c/relu
I0529 09:14:33.965801 23214 net.cpp:157] Top shape: 16 16 38 38 (369664)
I0529 09:14:33.965803 23214 net.cpp:165] Memory required for data: 1815789728
I0529 09:14:33.965806 23214 layer_factory.hpp:77] Creating layer stage2_3/concat
I0529 09:14:33.965811 23214 net.cpp:100] Creating Layer stage2_3/concat
I0529 09:14:33.965816 23214 net.cpp:434] stage2_3/concat <- stage2_2/concat_stage2_2/concat_0_split_2
I0529 09:14:33.965818 23214 net.cpp:434] stage2_3/concat <- stage2_3/branch1b
I0529 09:14:33.965821 23214 net.cpp:434] stage2_3/concat <- stage2_3/branch2c
I0529 09:14:33.965824 23214 net.cpp:408] stage2_3/concat -> stage2_3/concat
I0529 09:14:33.965849 23214 net.cpp:150] Setting up stage2_3/concat
I0529 09:14:33.965863 23214 net.cpp:157] Top shape: 16 224 38 38 (5175296)
I0529 09:14:33.965867 23214 net.cpp:165] Memory required for data: 1836490912
I0529 09:14:33.965869 23214 layer_factory.hpp:77] Creating layer stage2_3/concat_stage2_3/concat_0_split
I0529 09:14:33.965873 23214 net.cpp:100] Creating Layer stage2_3/concat_stage2_3/concat_0_split
I0529 09:14:33.965876 23214 net.cpp:434] stage2_3/concat_stage2_3/concat_0_split <- stage2_3/concat
I0529 09:14:33.965879 23214 net.cpp:408] stage2_3/concat_stage2_3/concat_0_split -> stage2_3/concat_stage2_3/concat_0_split_0
I0529 09:14:33.965883 23214 net.cpp:408] stage2_3/concat_stage2_3/concat_0_split -> stage2_3/concat_stage2_3/concat_0_split_1
I0529 09:14:33.965888 23214 net.cpp:408] stage2_3/concat_stage2_3/concat_0_split -> stage2_3/concat_stage2_3/concat_0_split_2
I0529 09:14:33.965929 23214 net.cpp:150] Setting up stage2_3/concat_stage2_3/concat_0_split
I0529 09:14:33.965934 23214 net.cpp:157] Top shape: 16 224 38 38 (5175296)
I0529 09:14:33.965936 23214 net.cpp:157] Top shape: 16 224 38 38 (5175296)
I0529 09:14:33.965940 23214 net.cpp:157] Top shape: 16 224 38 38 (5175296)
I0529 09:14:33.965942 23214 net.cpp:165] Memory required for data: 1898594464
I0529 09:14:33.965945 23214 layer_factory.hpp:77] Creating layer stage2_4/branch1a
I0529 09:14:33.965956 23214 net.cpp:100] Creating Layer stage2_4/branch1a
I0529 09:14:33.965961 23214 net.cpp:434] stage2_4/branch1a <- stage2_3/concat_stage2_3/concat_0_split_0
I0529 09:14:33.965965 23214 net.cpp:408] stage2_4/branch1a -> stage2_4/branch1a
I0529 09:14:33.967430 23214 net.cpp:150] Setting up stage2_4/branch1a
I0529 09:14:33.967442 23214 net.cpp:157] Top shape: 16 32 38 38 (739328)
I0529 09:14:33.967445 23214 net.cpp:165] Memory required for data: 1901551776
I0529 09:14:33.967449 23214 layer_factory.hpp:77] Creating layer stage2_4/branch1a/bn
I0529 09:14:33.967454 23214 net.cpp:100] Creating Layer stage2_4/branch1a/bn
I0529 09:14:33.967459 23214 net.cpp:434] stage2_4/branch1a/bn <- stage2_4/branch1a
I0529 09:14:33.967463 23214 net.cpp:395] stage2_4/branch1a/bn -> stage2_4/branch1a (in-place)
I0529 09:14:33.967633 23214 net.cpp:150] Setting up stage2_4/branch1a/bn
I0529 09:14:33.967638 23214 net.cpp:157] Top shape: 16 32 38 38 (739328)
I0529 09:14:33.967640 23214 net.cpp:165] Memory required for data: 1904509088
I0529 09:14:33.967645 23214 layer_factory.hpp:77] Creating layer stage2_4/branch1a/scale
I0529 09:14:33.967650 23214 net.cpp:100] Creating Layer stage2_4/branch1a/scale
I0529 09:14:33.967653 23214 net.cpp:434] stage2_4/branch1a/scale <- stage2_4/branch1a
I0529 09:14:33.967656 23214 net.cpp:395] stage2_4/branch1a/scale -> stage2_4/branch1a (in-place)
I0529 09:14:33.967694 23214 layer_factory.hpp:77] Creating layer stage2_4/branch1a/scale
I0529 09:14:33.967789 23214 net.cpp:150] Setting up stage2_4/branch1a/scale
I0529 09:14:33.967797 23214 net.cpp:157] Top shape: 16 32 38 38 (739328)
I0529 09:14:33.967798 23214 net.cpp:165] Memory required for data: 1907466400
I0529 09:14:33.967803 23214 layer_factory.hpp:77] Creating layer stage2_4/branch1a/relu
I0529 09:14:33.967806 23214 net.cpp:100] Creating Layer stage2_4/branch1a/relu
I0529 09:14:33.967809 23214 net.cpp:434] stage2_4/branch1a/relu <- stage2_4/branch1a
I0529 09:14:33.967811 23214 net.cpp:395] stage2_4/branch1a/relu -> stage2_4/branch1a (in-place)
I0529 09:14:33.968122 23214 net.cpp:150] Setting up stage2_4/branch1a/relu
I0529 09:14:33.968130 23214 net.cpp:157] Top shape: 16 32 38 38 (739328)
I0529 09:14:33.968132 23214 net.cpp:165] Memory required for data: 1910423712
I0529 09:14:33.968135 23214 layer_factory.hpp:77] Creating layer stage2_4/branch1b
I0529 09:14:33.968142 23214 net.cpp:100] Creating Layer stage2_4/branch1b
I0529 09:14:33.968144 23214 net.cpp:434] stage2_4/branch1b <- stage2_4/branch1a
I0529 09:14:33.968148 23214 net.cpp:408] stage2_4/branch1b -> stage2_4/branch1b
I0529 09:14:33.969588 23214 net.cpp:150] Setting up stage2_4/branch1b
I0529 09:14:33.969600 23214 net.cpp:157] Top shape: 16 16 38 38 (369664)
I0529 09:14:33.969602 23214 net.cpp:165] Memory required for data: 1911902368
I0529 09:14:33.969616 23214 layer_factory.hpp:77] Creating layer stage2_4/branch1b/bn
I0529 09:14:33.969622 23214 net.cpp:100] Creating Layer stage2_4/branch1b/bn
I0529 09:14:33.969626 23214 net.cpp:434] stage2_4/branch1b/bn <- stage2_4/branch1b
I0529 09:14:33.969630 23214 net.cpp:395] stage2_4/branch1b/bn -> stage2_4/branch1b (in-place)
I0529 09:14:33.969799 23214 net.cpp:150] Setting up stage2_4/branch1b/bn
I0529 09:14:33.969805 23214 net.cpp:157] Top shape: 16 16 38 38 (369664)
I0529 09:14:33.969808 23214 net.cpp:165] Memory required for data: 1913381024
I0529 09:14:33.969813 23214 layer_factory.hpp:77] Creating layer stage2_4/branch1b/scale
I0529 09:14:33.969823 23214 net.cpp:100] Creating Layer stage2_4/branch1b/scale
I0529 09:14:33.969828 23214 net.cpp:434] stage2_4/branch1b/scale <- stage2_4/branch1b
I0529 09:14:33.969831 23214 net.cpp:395] stage2_4/branch1b/scale -> stage2_4/branch1b (in-place)
I0529 09:14:33.969868 23214 layer_factory.hpp:77] Creating layer stage2_4/branch1b/scale
I0529 09:14:33.969962 23214 net.cpp:150] Setting up stage2_4/branch1b/scale
I0529 09:14:33.969969 23214 net.cpp:157] Top shape: 16 16 38 38 (369664)
I0529 09:14:33.969971 23214 net.cpp:165] Memory required for data: 1914859680
I0529 09:14:33.969975 23214 layer_factory.hpp:77] Creating layer stage2_4/branch1b/relu
I0529 09:14:33.969979 23214 net.cpp:100] Creating Layer stage2_4/branch1b/relu
I0529 09:14:33.969981 23214 net.cpp:434] stage2_4/branch1b/relu <- stage2_4/branch1b
I0529 09:14:33.969985 23214 net.cpp:395] stage2_4/branch1b/relu -> stage2_4/branch1b (in-place)
I0529 09:14:33.970296 23214 net.cpp:150] Setting up stage2_4/branch1b/relu
I0529 09:14:33.970305 23214 net.cpp:157] Top shape: 16 16 38 38 (369664)
I0529 09:14:33.970309 23214 net.cpp:165] Memory required for data: 1916338336
I0529 09:14:33.970311 23214 layer_factory.hpp:77] Creating layer stage2_4/branch2a
I0529 09:14:33.970317 23214 net.cpp:100] Creating Layer stage2_4/branch2a
I0529 09:14:33.970320 23214 net.cpp:434] stage2_4/branch2a <- stage2_3/concat_stage2_3/concat_0_split_1
I0529 09:14:33.970331 23214 net.cpp:408] stage2_4/branch2a -> stage2_4/branch2a
I0529 09:14:33.971753 23214 net.cpp:150] Setting up stage2_4/branch2a
I0529 09:14:33.971765 23214 net.cpp:157] Top shape: 16 32 38 38 (739328)
I0529 09:14:33.971767 23214 net.cpp:165] Memory required for data: 1919295648
I0529 09:14:33.971771 23214 layer_factory.hpp:77] Creating layer stage2_4/branch2a/bn
I0529 09:14:33.971776 23214 net.cpp:100] Creating Layer stage2_4/branch2a/bn
I0529 09:14:33.971779 23214 net.cpp:434] stage2_4/branch2a/bn <- stage2_4/branch2a
I0529 09:14:33.971783 23214 net.cpp:395] stage2_4/branch2a/bn -> stage2_4/branch2a (in-place)
I0529 09:14:33.971973 23214 net.cpp:150] Setting up stage2_4/branch2a/bn
I0529 09:14:33.971981 23214 net.cpp:157] Top shape: 16 32 38 38 (739328)
I0529 09:14:33.971983 23214 net.cpp:165] Memory required for data: 1922252960
I0529 09:14:33.971988 23214 layer_factory.hpp:77] Creating layer stage2_4/branch2a/scale
I0529 09:14:33.971992 23214 net.cpp:100] Creating Layer stage2_4/branch2a/scale
I0529 09:14:33.971997 23214 net.cpp:434] stage2_4/branch2a/scale <- stage2_4/branch2a
I0529 09:14:33.971999 23214 net.cpp:395] stage2_4/branch2a/scale -> stage2_4/branch2a (in-place)
I0529 09:14:33.972031 23214 layer_factory.hpp:77] Creating layer stage2_4/branch2a/scale
I0529 09:14:33.972132 23214 net.cpp:150] Setting up stage2_4/branch2a/scale
I0529 09:14:33.972139 23214 net.cpp:157] Top shape: 16 32 38 38 (739328)
I0529 09:14:33.972141 23214 net.cpp:165] Memory required for data: 1925210272
I0529 09:14:33.972146 23214 layer_factory.hpp:77] Creating layer stage2_4/branch2a/relu
I0529 09:14:33.972148 23214 net.cpp:100] Creating Layer stage2_4/branch2a/relu
I0529 09:14:33.972152 23214 net.cpp:434] stage2_4/branch2a/relu <- stage2_4/branch2a
I0529 09:14:33.972156 23214 net.cpp:395] stage2_4/branch2a/relu -> stage2_4/branch2a (in-place)
I0529 09:14:33.972479 23214 net.cpp:150] Setting up stage2_4/branch2a/relu
I0529 09:14:33.972488 23214 net.cpp:157] Top shape: 16 32 38 38 (739328)
I0529 09:14:33.972499 23214 net.cpp:165] Memory required for data: 1928167584
I0529 09:14:33.972502 23214 layer_factory.hpp:77] Creating layer stage2_4/branch2b
I0529 09:14:33.972508 23214 net.cpp:100] Creating Layer stage2_4/branch2b
I0529 09:14:33.972512 23214 net.cpp:434] stage2_4/branch2b <- stage2_4/branch2a
I0529 09:14:33.972517 23214 net.cpp:408] stage2_4/branch2b -> stage2_4/branch2b
I0529 09:14:33.973917 23214 net.cpp:150] Setting up stage2_4/branch2b
I0529 09:14:33.973927 23214 net.cpp:157] Top shape: 16 16 38 38 (369664)
I0529 09:14:33.973930 23214 net.cpp:165] Memory required for data: 1929646240
I0529 09:14:33.973934 23214 layer_factory.hpp:77] Creating layer stage2_4/branch2b/bn
I0529 09:14:33.973939 23214 net.cpp:100] Creating Layer stage2_4/branch2b/bn
I0529 09:14:33.973942 23214 net.cpp:434] stage2_4/branch2b/bn <- stage2_4/branch2b
I0529 09:14:33.973945 23214 net.cpp:395] stage2_4/branch2b/bn -> stage2_4/branch2b (in-place)
I0529 09:14:33.974161 23214 net.cpp:150] Setting up stage2_4/branch2b/bn
I0529 09:14:33.974169 23214 net.cpp:157] Top shape: 16 16 38 38 (369664)
I0529 09:14:33.974170 23214 net.cpp:165] Memory required for data: 1931124896
I0529 09:14:33.974175 23214 layer_factory.hpp:77] Creating layer stage2_4/branch2b/scale
I0529 09:14:33.974181 23214 net.cpp:100] Creating Layer stage2_4/branch2b/scale
I0529 09:14:33.974184 23214 net.cpp:434] stage2_4/branch2b/scale <- stage2_4/branch2b
I0529 09:14:33.974187 23214 net.cpp:395] stage2_4/branch2b/scale -> stage2_4/branch2b (in-place)
I0529 09:14:33.974236 23214 layer_factory.hpp:77] Creating layer stage2_4/branch2b/scale
I0529 09:14:33.974342 23214 net.cpp:150] Setting up stage2_4/branch2b/scale
I0529 09:14:33.974349 23214 net.cpp:157] Top shape: 16 16 38 38 (369664)
I0529 09:14:33.974350 23214 net.cpp:165] Memory required for data: 1932603552
I0529 09:14:33.974354 23214 layer_factory.hpp:77] Creating layer stage2_4/branch2b/relu
I0529 09:14:33.974359 23214 net.cpp:100] Creating Layer stage2_4/branch2b/relu
I0529 09:14:33.974362 23214 net.cpp:434] stage2_4/branch2b/relu <- stage2_4/branch2b
I0529 09:14:33.974365 23214 net.cpp:395] stage2_4/branch2b/relu -> stage2_4/branch2b (in-place)
I0529 09:14:33.974966 23214 net.cpp:150] Setting up stage2_4/branch2b/relu
I0529 09:14:33.974977 23214 net.cpp:157] Top shape: 16 16 38 38 (369664)
I0529 09:14:33.974979 23214 net.cpp:165] Memory required for data: 1934082208
I0529 09:14:33.974982 23214 layer_factory.hpp:77] Creating layer stage2_4/branch2c
I0529 09:14:33.974988 23214 net.cpp:100] Creating Layer stage2_4/branch2c
I0529 09:14:33.974992 23214 net.cpp:434] stage2_4/branch2c <- stage2_4/branch2b
I0529 09:14:33.974997 23214 net.cpp:408] stage2_4/branch2c -> stage2_4/branch2c
I0529 09:14:33.976400 23214 net.cpp:150] Setting up stage2_4/branch2c
I0529 09:14:33.976411 23214 net.cpp:157] Top shape: 16 16 38 38 (369664)
I0529 09:14:33.976428 23214 net.cpp:165] Memory required for data: 1935560864
I0529 09:14:33.976433 23214 layer_factory.hpp:77] Creating layer stage2_4/branch2c/bn
I0529 09:14:33.976438 23214 net.cpp:100] Creating Layer stage2_4/branch2c/bn
I0529 09:14:33.976442 23214 net.cpp:434] stage2_4/branch2c/bn <- stage2_4/branch2c
I0529 09:14:33.976447 23214 net.cpp:395] stage2_4/branch2c/bn -> stage2_4/branch2c (in-place)
I0529 09:14:33.976629 23214 net.cpp:150] Setting up stage2_4/branch2c/bn
I0529 09:14:33.976636 23214 net.cpp:157] Top shape: 16 16 38 38 (369664)
I0529 09:14:33.976639 23214 net.cpp:165] Memory required for data: 1937039520
I0529 09:14:33.976644 23214 layer_factory.hpp:77] Creating layer stage2_4/branch2c/scale
I0529 09:14:33.976649 23214 net.cpp:100] Creating Layer stage2_4/branch2c/scale
I0529 09:14:33.976652 23214 net.cpp:434] stage2_4/branch2c/scale <- stage2_4/branch2c
I0529 09:14:33.976655 23214 net.cpp:395] stage2_4/branch2c/scale -> stage2_4/branch2c (in-place)
I0529 09:14:33.976686 23214 layer_factory.hpp:77] Creating layer stage2_4/branch2c/scale
I0529 09:14:33.976788 23214 net.cpp:150] Setting up stage2_4/branch2c/scale
I0529 09:14:33.976811 23214 net.cpp:157] Top shape: 16 16 38 38 (369664)
I0529 09:14:33.976814 23214 net.cpp:165] Memory required for data: 1938518176
I0529 09:14:33.976819 23214 layer_factory.hpp:77] Creating layer stage2_4/branch2c/relu
I0529 09:14:33.976822 23214 net.cpp:100] Creating Layer stage2_4/branch2c/relu
I0529 09:14:33.976825 23214 net.cpp:434] stage2_4/branch2c/relu <- stage2_4/branch2c
I0529 09:14:33.976828 23214 net.cpp:395] stage2_4/branch2c/relu -> stage2_4/branch2c (in-place)
I0529 09:14:33.977169 23214 net.cpp:150] Setting up stage2_4/branch2c/relu
I0529 09:14:33.977176 23214 net.cpp:157] Top shape: 16 16 38 38 (369664)
I0529 09:14:33.977193 23214 net.cpp:165] Memory required for data: 1939996832
I0529 09:14:33.977196 23214 layer_factory.hpp:77] Creating layer stage2_4/concat
I0529 09:14:33.977201 23214 net.cpp:100] Creating Layer stage2_4/concat
I0529 09:14:33.977205 23214 net.cpp:434] stage2_4/concat <- stage2_3/concat_stage2_3/concat_0_split_2
I0529 09:14:33.977208 23214 net.cpp:434] stage2_4/concat <- stage2_4/branch1b
I0529 09:14:33.977211 23214 net.cpp:434] stage2_4/concat <- stage2_4/branch2c
I0529 09:14:33.977216 23214 net.cpp:408] stage2_4/concat -> stage2_4/concat
I0529 09:14:33.977237 23214 net.cpp:150] Setting up stage2_4/concat
I0529 09:14:33.977243 23214 net.cpp:157] Top shape: 16 256 38 38 (5914624)
I0529 09:14:33.977246 23214 net.cpp:165] Memory required for data: 1963655328
I0529 09:14:33.977248 23214 layer_factory.hpp:77] Creating layer stage2_tb
I0529 09:14:33.977253 23214 net.cpp:100] Creating Layer stage2_tb
I0529 09:14:33.977257 23214 net.cpp:434] stage2_tb <- stage2_4/concat
I0529 09:14:33.977259 23214 net.cpp:408] stage2_tb -> stage2_tb
I0529 09:14:33.978973 23214 net.cpp:150] Setting up stage2_tb
I0529 09:14:33.978984 23214 net.cpp:157] Top shape: 16 256 38 38 (5914624)
I0529 09:14:33.979001 23214 net.cpp:165] Memory required for data: 1987313824
I0529 09:14:33.979005 23214 layer_factory.hpp:77] Creating layer stage2_tb/bn
I0529 09:14:33.979010 23214 net.cpp:100] Creating Layer stage2_tb/bn
I0529 09:14:33.979014 23214 net.cpp:434] stage2_tb/bn <- stage2_tb
I0529 09:14:33.979017 23214 net.cpp:395] stage2_tb/bn -> stage2_tb (in-place)
I0529 09:14:33.979182 23214 net.cpp:150] Setting up stage2_tb/bn
I0529 09:14:33.979188 23214 net.cpp:157] Top shape: 16 256 38 38 (5914624)
I0529 09:14:33.979190 23214 net.cpp:165] Memory required for data: 2010972320
I0529 09:14:33.979195 23214 layer_factory.hpp:77] Creating layer stage2_tb/scale
I0529 09:14:33.979199 23214 net.cpp:100] Creating Layer stage2_tb/scale
I0529 09:14:33.979203 23214 net.cpp:434] stage2_tb/scale <- stage2_tb
I0529 09:14:33.979207 23214 net.cpp:395] stage2_tb/scale -> stage2_tb (in-place)
I0529 09:14:33.979236 23214 layer_factory.hpp:77] Creating layer stage2_tb/scale
I0529 09:14:33.979332 23214 net.cpp:150] Setting up stage2_tb/scale
I0529 09:14:33.979339 23214 net.cpp:157] Top shape: 16 256 38 38 (5914624)
I0529 09:14:33.979341 23214 net.cpp:165] Memory required for data: 2034630816
I0529 09:14:33.979346 23214 layer_factory.hpp:77] Creating layer stage2_tb/relu
I0529 09:14:33.979349 23214 net.cpp:100] Creating Layer stage2_tb/relu
I0529 09:14:33.979352 23214 net.cpp:434] stage2_tb/relu <- stage2_tb
I0529 09:14:33.979355 23214 net.cpp:395] stage2_tb/relu -> stage2_tb (in-place)
I0529 09:14:33.979701 23214 net.cpp:150] Setting up stage2_tb/relu
I0529 09:14:33.979709 23214 net.cpp:157] Top shape: 16 256 38 38 (5914624)
I0529 09:14:33.979727 23214 net.cpp:165] Memory required for data: 2058289312
I0529 09:14:33.979729 23214 layer_factory.hpp:77] Creating layer stage2_tb/pool
I0529 09:14:33.979734 23214 net.cpp:100] Creating Layer stage2_tb/pool
I0529 09:14:33.979737 23214 net.cpp:434] stage2_tb/pool <- stage2_tb
I0529 09:14:33.979741 23214 net.cpp:408] stage2_tb/pool -> stage2_tb/pool
I0529 09:14:33.980350 23214 net.cpp:150] Setting up stage2_tb/pool
I0529 09:14:33.980360 23214 net.cpp:157] Top shape: 16 256 19 19 (1478656)
I0529 09:14:33.980377 23214 net.cpp:165] Memory required for data: 2064203936
I0529 09:14:33.980381 23214 layer_factory.hpp:77] Creating layer stage2_tb/pool_stage2_tb/pool_0_split
I0529 09:14:33.980396 23214 net.cpp:100] Creating Layer stage2_tb/pool_stage2_tb/pool_0_split
I0529 09:14:33.980401 23214 net.cpp:434] stage2_tb/pool_stage2_tb/pool_0_split <- stage2_tb/pool
I0529 09:14:33.980406 23214 net.cpp:408] stage2_tb/pool_stage2_tb/pool_0_split -> stage2_tb/pool_stage2_tb/pool_0_split_0
I0529 09:14:33.980412 23214 net.cpp:408] stage2_tb/pool_stage2_tb/pool_0_split -> stage2_tb/pool_stage2_tb/pool_0_split_1
I0529 09:14:33.980417 23214 net.cpp:408] stage2_tb/pool_stage2_tb/pool_0_split -> stage2_tb/pool_stage2_tb/pool_0_split_2
I0529 09:14:33.980458 23214 net.cpp:150] Setting up stage2_tb/pool_stage2_tb/pool_0_split
I0529 09:14:33.980463 23214 net.cpp:157] Top shape: 16 256 19 19 (1478656)
I0529 09:14:33.980466 23214 net.cpp:157] Top shape: 16 256 19 19 (1478656)
I0529 09:14:33.980469 23214 net.cpp:157] Top shape: 16 256 19 19 (1478656)
I0529 09:14:33.980471 23214 net.cpp:165] Memory required for data: 2081947808
I0529 09:14:33.980474 23214 layer_factory.hpp:77] Creating layer stage3_1/branch1a
I0529 09:14:33.980480 23214 net.cpp:100] Creating Layer stage3_1/branch1a
I0529 09:14:33.980484 23214 net.cpp:434] stage3_1/branch1a <- stage2_tb/pool_stage2_tb/pool_0_split_0
I0529 09:14:33.980487 23214 net.cpp:408] stage3_1/branch1a -> stage3_1/branch1a
I0529 09:14:33.981961 23214 net.cpp:150] Setting up stage3_1/branch1a
I0529 09:14:33.981971 23214 net.cpp:157] Top shape: 16 64 19 19 (369664)
I0529 09:14:33.981988 23214 net.cpp:165] Memory required for data: 2083426464
I0529 09:14:33.981992 23214 layer_factory.hpp:77] Creating layer stage3_1/branch1a/bn
I0529 09:14:33.981997 23214 net.cpp:100] Creating Layer stage3_1/branch1a/bn
I0529 09:14:33.982002 23214 net.cpp:434] stage3_1/branch1a/bn <- stage3_1/branch1a
I0529 09:14:33.982007 23214 net.cpp:395] stage3_1/branch1a/bn -> stage3_1/branch1a (in-place)
I0529 09:14:33.982175 23214 net.cpp:150] Setting up stage3_1/branch1a/bn
I0529 09:14:33.982182 23214 net.cpp:157] Top shape: 16 64 19 19 (369664)
I0529 09:14:33.982184 23214 net.cpp:165] Memory required for data: 2084905120
I0529 09:14:33.982189 23214 layer_factory.hpp:77] Creating layer stage3_1/branch1a/scale
I0529 09:14:33.982193 23214 net.cpp:100] Creating Layer stage3_1/branch1a/scale
I0529 09:14:33.982203 23214 net.cpp:434] stage3_1/branch1a/scale <- stage3_1/branch1a
I0529 09:14:33.982208 23214 net.cpp:395] stage3_1/branch1a/scale -> stage3_1/branch1a (in-place)
I0529 09:14:33.982241 23214 layer_factory.hpp:77] Creating layer stage3_1/branch1a/scale
I0529 09:14:33.982345 23214 net.cpp:150] Setting up stage3_1/branch1a/scale
I0529 09:14:33.982352 23214 net.cpp:157] Top shape: 16 64 19 19 (369664)
I0529 09:14:33.982354 23214 net.cpp:165] Memory required for data: 2086383776
I0529 09:14:33.982358 23214 layer_factory.hpp:77] Creating layer stage3_1/branch1a/relu
I0529 09:14:33.982384 23214 net.cpp:100] Creating Layer stage3_1/branch1a/relu
I0529 09:14:33.982399 23214 net.cpp:434] stage3_1/branch1a/relu <- stage3_1/branch1a
I0529 09:14:33.982403 23214 net.cpp:395] stage3_1/branch1a/relu -> stage3_1/branch1a (in-place)
I0529 09:14:33.982725 23214 net.cpp:150] Setting up stage3_1/branch1a/relu
I0529 09:14:33.982733 23214 net.cpp:157] Top shape: 16 64 19 19 (369664)
I0529 09:14:33.982735 23214 net.cpp:165] Memory required for data: 2087862432
I0529 09:14:33.982755 23214 layer_factory.hpp:77] Creating layer stage3_1/branch1b
I0529 09:14:33.982760 23214 net.cpp:100] Creating Layer stage3_1/branch1b
I0529 09:14:33.982764 23214 net.cpp:434] stage3_1/branch1b <- stage3_1/branch1a
I0529 09:14:33.982767 23214 net.cpp:408] stage3_1/branch1b -> stage3_1/branch1b
I0529 09:14:33.984215 23214 net.cpp:150] Setting up stage3_1/branch1b
I0529 09:14:33.984225 23214 net.cpp:157] Top shape: 16 16 19 19 (92416)
I0529 09:14:33.984227 23214 net.cpp:165] Memory required for data: 2088232096
I0529 09:14:33.984232 23214 layer_factory.hpp:77] Creating layer stage3_1/branch1b/bn
I0529 09:14:33.984243 23214 net.cpp:100] Creating Layer stage3_1/branch1b/bn
I0529 09:14:33.984272 23214 net.cpp:434] stage3_1/branch1b/bn <- stage3_1/branch1b
I0529 09:14:33.984275 23214 net.cpp:395] stage3_1/branch1b/bn -> stage3_1/branch1b (in-place)
I0529 09:14:33.984452 23214 net.cpp:150] Setting up stage3_1/branch1b/bn
I0529 09:14:33.984457 23214 net.cpp:157] Top shape: 16 16 19 19 (92416)
I0529 09:14:33.984460 23214 net.cpp:165] Memory required for data: 2088601760
I0529 09:14:33.984465 23214 layer_factory.hpp:77] Creating layer stage3_1/branch1b/scale
I0529 09:14:33.984470 23214 net.cpp:100] Creating Layer stage3_1/branch1b/scale
I0529 09:14:33.984474 23214 net.cpp:434] stage3_1/branch1b/scale <- stage3_1/branch1b
I0529 09:14:33.984477 23214 net.cpp:395] stage3_1/branch1b/scale -> stage3_1/branch1b (in-place)
I0529 09:14:33.984508 23214 layer_factory.hpp:77] Creating layer stage3_1/branch1b/scale
I0529 09:14:33.984611 23214 net.cpp:150] Setting up stage3_1/branch1b/scale
I0529 09:14:33.984616 23214 net.cpp:157] Top shape: 16 16 19 19 (92416)
I0529 09:14:33.984618 23214 net.cpp:165] Memory required for data: 2088971424
I0529 09:14:33.984658 23214 layer_factory.hpp:77] Creating layer stage3_1/branch1b/relu
I0529 09:14:33.984664 23214 net.cpp:100] Creating Layer stage3_1/branch1b/relu
I0529 09:14:33.984668 23214 net.cpp:434] stage3_1/branch1b/relu <- stage3_1/branch1b
I0529 09:14:33.984670 23214 net.cpp:395] stage3_1/branch1b/relu -> stage3_1/branch1b (in-place)
I0529 09:14:33.984994 23214 net.cpp:150] Setting up stage3_1/branch1b/relu
I0529 09:14:33.985002 23214 net.cpp:157] Top shape: 16 16 19 19 (92416)
I0529 09:14:33.985021 23214 net.cpp:165] Memory required for data: 2089341088
I0529 09:14:33.985024 23214 layer_factory.hpp:77] Creating layer stage3_1/branch2a
I0529 09:14:33.985038 23214 net.cpp:100] Creating Layer stage3_1/branch2a
I0529 09:14:33.985043 23214 net.cpp:434] stage3_1/branch2a <- stage2_tb/pool_stage2_tb/pool_0_split_1
I0529 09:14:33.985047 23214 net.cpp:408] stage3_1/branch2a -> stage3_1/branch2a
I0529 09:14:33.986549 23214 net.cpp:150] Setting up stage3_1/branch2a
I0529 09:14:33.986562 23214 net.cpp:157] Top shape: 16 64 19 19 (369664)
I0529 09:14:33.986582 23214 net.cpp:165] Memory required for data: 2090819744
I0529 09:14:33.986585 23214 layer_factory.hpp:77] Creating layer stage3_1/branch2a/bn
I0529 09:14:33.986590 23214 net.cpp:100] Creating Layer stage3_1/branch2a/bn
I0529 09:14:33.986593 23214 net.cpp:434] stage3_1/branch2a/bn <- stage3_1/branch2a
I0529 09:14:33.986598 23214 net.cpp:395] stage3_1/branch2a/bn -> stage3_1/branch2a (in-place)
I0529 09:14:33.986774 23214 net.cpp:150] Setting up stage3_1/branch2a/bn
I0529 09:14:33.986781 23214 net.cpp:157] Top shape: 16 64 19 19 (369664)
I0529 09:14:33.986783 23214 net.cpp:165] Memory required for data: 2092298400
I0529 09:14:33.986788 23214 layer_factory.hpp:77] Creating layer stage3_1/branch2a/scale
I0529 09:14:33.986793 23214 net.cpp:100] Creating Layer stage3_1/branch2a/scale
I0529 09:14:33.986796 23214 net.cpp:434] stage3_1/branch2a/scale <- stage3_1/branch2a
I0529 09:14:33.986799 23214 net.cpp:395] stage3_1/branch2a/scale -> stage3_1/branch2a (in-place)
I0529 09:14:33.986831 23214 layer_factory.hpp:77] Creating layer stage3_1/branch2a/scale
I0529 09:14:33.986935 23214 net.cpp:150] Setting up stage3_1/branch2a/scale
I0529 09:14:33.986941 23214 net.cpp:157] Top shape: 16 64 19 19 (369664)
I0529 09:14:33.986943 23214 net.cpp:165] Memory required for data: 2093777056
I0529 09:14:33.986948 23214 layer_factory.hpp:77] Creating layer stage3_1/branch2a/relu
I0529 09:14:33.986951 23214 net.cpp:100] Creating Layer stage3_1/branch2a/relu
I0529 09:14:33.986953 23214 net.cpp:434] stage3_1/branch2a/relu <- stage3_1/branch2a
I0529 09:14:33.986956 23214 net.cpp:395] stage3_1/branch2a/relu -> stage3_1/branch2a (in-place)
I0529 09:14:33.987586 23214 net.cpp:150] Setting up stage3_1/branch2a/relu
I0529 09:14:33.987597 23214 net.cpp:157] Top shape: 16 64 19 19 (369664)
I0529 09:14:33.987599 23214 net.cpp:165] Memory required for data: 2095255712
I0529 09:14:33.987620 23214 layer_factory.hpp:77] Creating layer stage3_1/branch2b
I0529 09:14:33.987643 23214 net.cpp:100] Creating Layer stage3_1/branch2b
I0529 09:14:33.987648 23214 net.cpp:434] stage3_1/branch2b <- stage3_1/branch2a
I0529 09:14:33.987653 23214 net.cpp:408] stage3_1/branch2b -> stage3_1/branch2b
I0529 09:14:33.989403 23214 net.cpp:150] Setting up stage3_1/branch2b
I0529 09:14:33.989414 23214 net.cpp:157] Top shape: 16 16 19 19 (92416)
I0529 09:14:33.989434 23214 net.cpp:165] Memory required for data: 2095625376
I0529 09:14:33.989439 23214 layer_factory.hpp:77] Creating layer stage3_1/branch2b/bn
I0529 09:14:33.989444 23214 net.cpp:100] Creating Layer stage3_1/branch2b/bn
I0529 09:14:33.989446 23214 net.cpp:434] stage3_1/branch2b/bn <- stage3_1/branch2b
I0529 09:14:33.989450 23214 net.cpp:395] stage3_1/branch2b/bn -> stage3_1/branch2b (in-place)
I0529 09:14:33.989631 23214 net.cpp:150] Setting up stage3_1/branch2b/bn
I0529 09:14:33.989637 23214 net.cpp:157] Top shape: 16 16 19 19 (92416)
I0529 09:14:33.989639 23214 net.cpp:165] Memory required for data: 2095995040
I0529 09:14:33.989645 23214 layer_factory.hpp:77] Creating layer stage3_1/branch2b/scale
I0529 09:14:33.989650 23214 net.cpp:100] Creating Layer stage3_1/branch2b/scale
I0529 09:14:33.989652 23214 net.cpp:434] stage3_1/branch2b/scale <- stage3_1/branch2b
I0529 09:14:33.989655 23214 net.cpp:395] stage3_1/branch2b/scale -> stage3_1/branch2b (in-place)
I0529 09:14:33.989699 23214 layer_factory.hpp:77] Creating layer stage3_1/branch2b/scale
I0529 09:14:33.989804 23214 net.cpp:150] Setting up stage3_1/branch2b/scale
I0529 09:14:33.989810 23214 net.cpp:157] Top shape: 16 16 19 19 (92416)
…
I0529 09:14:34.679962 23214 net.cpp:157] Top shape: 1 128 3 3 (1152)
I0529 09:14:34.679965 23214 net.cpp:165] Memory required for data: 178344480
I0529 09:14:34.679970 23214 layer_factory.hpp:77] Creating layer stage4_tb/ext/pm5/b2a/bn
I0529 09:14:34.679975 23214 net.cpp:100] Creating Layer stage4_tb/ext/pm5/b2a/bn
I0529 09:14:34.679978 23214 net.cpp:434] stage4_tb/ext/pm5/b2a/bn <- stage4_tb/ext/pm5/b2a
I0529 09:14:34.679982 23214 net.cpp:395] stage4_tb/ext/pm5/b2a/bn -> stage4_tb/ext/pm5/b2a (in-place)
I0529 09:14:34.680166 23214 net.cpp:150] Setting up stage4_tb/ext/pm5/b2a/bn
I0529 09:14:34.680173 23214 net.cpp:157] Top shape: 1 128 3 3 (1152)
I0529 09:14:34.680176 23214 net.cpp:165] Memory required for data: 178349088
I0529 09:14:34.680181 23214 layer_factory.hpp:77] Creating layer stage4_tb/ext/pm5/b2a/scale
I0529 09:14:34.680186 23214 net.cpp:100] Creating Layer stage4_tb/ext/pm5/b2a/scale
I0529 09:14:34.680189 23214 net.cpp:434] stage4_tb/ext/pm5/b2a/scale <- stage4_tb/ext/pm5/b2a
I0529 09:14:34.680193 23214 net.cpp:395] stage4_tb/ext/pm5/b2a/scale -> stage4_tb/ext/pm5/b2a (in-place)
I0529 09:14:34.680232 23214 layer_factory.hpp:77] Creating layer stage4_tb/ext/pm5/b2a/scale
I0529 09:14:34.680331 23214 net.cpp:150] Setting up stage4_tb/ext/pm5/b2a/scale
I0529 09:14:34.680337 23214 net.cpp:157] Top shape: 1 128 3 3 (1152)
I0529 09:14:34.680341 23214 net.cpp:165] Memory required for data: 178353696
I0529 09:14:34.680344 23214 layer_factory.hpp:77] Creating layer stage4_tb/ext/pm5/b2a/relu
I0529 09:14:34.680347 23214 net.cpp:100] Creating Layer stage4_tb/ext/pm5/b2a/relu
I0529 09:14:34.680351 23214 net.cpp:434] stage4_tb/ext/pm5/b2a/relu <- stage4_tb/ext/pm5/b2a
I0529 09:14:34.680354 23214 net.cpp:395] stage4_tb/ext/pm5/b2a/relu -> stage4_tb/ext/pm5/b2a (in-place)
I0529 09:14:34.681072 23214 net.cpp:150] Setting up stage4_tb/ext/pm5/b2a/relu
I0529 09:14:34.681082 23214 net.cpp:157] Top shape: 1 128 3 3 (1152)
I0529 09:14:34.681085 23214 net.cpp:165] Memory required for data: 178358304
I0529 09:14:34.681088 23214 layer_factory.hpp:77] Creating layer stage4_tb/ext/pm5/b2b
I0529 09:14:34.681099 23214 net.cpp:100] Creating Layer stage4_tb/ext/pm5/b2b
I0529 09:14:34.681103 23214 net.cpp:434] stage4_tb/ext/pm5/b2b <- stage4_tb/ext/pm5/b2a
I0529 09:14:34.681108 23214 net.cpp:408] stage4_tb/ext/pm5/b2b -> stage4_tb/ext/pm5/b2b
I0529 09:14:34.684576 23214 net.cpp:150] Setting up stage4_tb/ext/pm5/b2b
I0529 09:14:34.684598 23214 net.cpp:157] Top shape: 1 128 3 3 (1152)
I0529 09:14:34.684602 23214 net.cpp:165] Memory required for data: 178362912
I0529 09:14:34.684607 23214 layer_factory.hpp:77] Creating layer stage4_tb/ext/pm5/b2b/bn
I0529 09:14:34.684612 23214 net.cpp:100] Creating Layer stage4_tb/ext/pm5/b2b/bn
I0529 09:14:34.684614 23214 net.cpp:434] stage4_tb/ext/pm5/b2b/bn <- stage4_tb/ext/pm5/b2b
I0529 09:14:34.684618 23214 net.cpp:395] stage4_tb/ext/pm5/b2b/bn -> stage4_tb/ext/pm5/b2b (in-place)
I0529 09:14:34.684809 23214 net.cpp:150] Setting up stage4_tb/ext/pm5/b2b/bn
I0529 09:14:34.684816 23214 net.cpp:157] Top shape: 1 128 3 3 (1152)
I0529 09:14:34.684819 23214 net.cpp:165] Memory required for data: 178367520
I0529 09:14:34.684824 23214 layer_factory.hpp:77] Creating layer stage4_tb/ext/pm5/b2b/scale
I0529 09:14:34.684829 23214 net.cpp:100] Creating Layer stage4_tb/ext/pm5/b2b/scale
I0529 09:14:34.684833 23214 net.cpp:434] stage4_tb/ext/pm5/b2b/scale <- stage4_tb/ext/pm5/b2b
I0529 09:14:34.684836 23214 net.cpp:395] stage4_tb/ext/pm5/b2b/scale -> stage4_tb/ext/pm5/b2b (in-place)
I0529 09:14:34.684870 23214 layer_factory.hpp:77] Creating layer stage4_tb/ext/pm5/b2b/scale
I0529 09:14:34.684963 23214 net.cpp:150] Setting up stage4_tb/ext/pm5/b2b/scale
I0529 09:14:34.684969 23214 net.cpp:157] Top shape: 1 128 3 3 (1152)
I0529 09:14:34.684972 23214 net.cpp:165] Memory required for data: 178372128
I0529 09:14:34.684975 23214 layer_factory.hpp:77] Creating layer stage4_tb/ext/pm5/b2b/relu
I0529 09:14:34.684979 23214 net.cpp:100] Creating Layer stage4_tb/ext/pm5/b2b/relu
I0529 09:14:34.684983 23214 net.cpp:434] stage4_tb/ext/pm5/b2b/relu <- stage4_tb/ext/pm5/b2b
I0529 09:14:34.684985 23214 net.cpp:395] stage4_tb/ext/pm5/b2b/relu -> stage4_tb/ext/pm5/b2b (in-place)
I0529 09:14:34.685338 23214 net.cpp:150] Setting up stage4_tb/ext/pm5/b2b/relu
I0529 09:14:34.685348 23214 net.cpp:157] Top shape: 1 128 3 3 (1152)
I0529 09:14:34.685349 23214 net.cpp:165] Memory required for data: 178376736
I0529 09:14:34.685353 23214 layer_factory.hpp:77] Creating layer stage4_tb/ext/pm5/b2c
I0529 09:14:34.685359 23214 net.cpp:100] Creating Layer stage4_tb/ext/pm5/b2c
I0529 09:14:34.685362 23214 net.cpp:434] stage4_tb/ext/pm5/b2c <- stage4_tb/ext/pm5/b2b
I0529 09:14:34.685366 23214 net.cpp:408] stage4_tb/ext/pm5/b2c -> stage4_tb/ext/pm5/b2c
I0529 09:14:34.687165 23214 net.cpp:150] Setting up stage4_tb/ext/pm5/b2c
I0529 09:14:34.687176 23214 net.cpp:157] Top shape: 1 256 3 3 (2304)
I0529 09:14:34.687180 23214 net.cpp:165] Memory required for data: 178385952
I0529 09:14:34.687183 23214 layer_factory.hpp:77] Creating layer stage4_tb/ext/pm5/b2c/bn
I0529 09:14:34.687193 23214 net.cpp:100] Creating Layer stage4_tb/ext/pm5/b2c/bn
I0529 09:14:34.687197 23214 net.cpp:434] stage4_tb/ext/pm5/b2c/bn <- stage4_tb/ext/pm5/b2c
I0529 09:14:34.687201 23214 net.cpp:395] stage4_tb/ext/pm5/b2c/bn -> stage4_tb/ext/pm5/b2c (in-place)
I0529 09:14:34.687383 23214 net.cpp:150] Setting up stage4_tb/ext/pm5/b2c/bn
I0529 09:14:34.687389 23214 net.cpp:157] Top shape: 1 256 3 3 (2304)
I0529 09:14:34.687391 23214 net.cpp:165] Memory required for data: 178395168
I0529 09:14:34.687397 23214 layer_factory.hpp:77] Creating layer stage4_tb/ext/pm5/b2c/scale
I0529 09:14:34.687407 23214 net.cpp:100] Creating Layer stage4_tb/ext/pm5/b2c/scale
I0529 09:14:34.687410 23214 net.cpp:434] stage4_tb/ext/pm5/b2c/scale <- stage4_tb/ext/pm5/b2c
I0529 09:14:34.687414 23214 net.cpp:395] stage4_tb/ext/pm5/b2c/scale -> stage4_tb/ext/pm5/b2c (in-place)
I0529 09:14:34.687458 23214 layer_factory.hpp:77] Creating layer stage4_tb/ext/pm5/b2c/scale
I0529 09:14:34.687553 23214 net.cpp:150] Setting up stage4_tb/ext/pm5/b2c/scale
I0529 09:14:34.687559 23214 net.cpp:157] Top shape: 1 256 3 3 (2304)
I0529 09:14:34.687561 23214 net.cpp:165] Memory required for data: 178404384
I0529 09:14:34.687566 23214 layer_factory.hpp:77] Creating layer stage4_tb/ext/pm5/res
I0529 09:14:34.687569 23214 net.cpp:100] Creating Layer stage4_tb/ext/pm5/res
I0529 09:14:34.687572 23214 net.cpp:434] stage4_tb/ext/pm5/res <- stage4_tb/ext/pm5
I0529 09:14:34.687585 23214 net.cpp:434] stage4_tb/ext/pm5/res <- stage4_tb/ext/pm5/b2c
I0529 09:14:34.687590 23214 net.cpp:408] stage4_tb/ext/pm5/res -> stage4_tb/ext/pm5/res
I0529 09:14:34.687611 23214 net.cpp:150] Setting up stage4_tb/ext/pm5/res
I0529 09:14:34.687616 23214 net.cpp:157] Top shape: 1 256 3 3 (2304)
I0529 09:14:34.687618 23214 net.cpp:165] Memory required for data: 178413600
I0529 09:14:34.687621 23214 layer_factory.hpp:77] Creating layer stage4_tb/ext/pm5/res/relu
I0529 09:14:34.687625 23214 net.cpp:100] Creating Layer stage4_tb/ext/pm5/res/relu
I0529 09:14:34.687628 23214 net.cpp:434] stage4_tb/ext/pm5/res/relu <- stage4_tb/ext/pm5/res
I0529 09:14:34.687630 23214 net.cpp:395] stage4_tb/ext/pm5/res/relu -> stage4_tb/ext/pm5/res (in-place)
I0529 09:14:34.688352 23214 net.cpp:150] Setting up stage4_tb/ext/pm5/res/relu
I0529 09:14:34.688364 23214 net.cpp:157] Top shape: 1 256 3 3 (2304)
I0529 09:14:34.688366 23214 net.cpp:165] Memory required for data: 178422816
I0529 09:14:34.688369 23214 layer_factory.hpp:77] Creating layer stage4_tb/ext/pm5/res_stage4_tb/ext/pm5/res/relu_0_split
I0529 09:14:34.688374 23214 net.cpp:100] Creating Layer stage4_tb/ext/pm5/res_stage4_tb/ext/pm5/res/relu_0_split
I0529 09:14:34.688377 23214 net.cpp:434] stage4_tb/ext/pm5/res_stage4_tb/ext/pm5/res/relu_0_split <- stage4_tb/ext/pm5/res
I0529 09:14:34.688381 23214 net.cpp:408] stage4_tb/ext/pm5/res_stage4_tb/ext/pm5/res/relu_0_split -> stage4_tb/ext/pm5/res_stage4_tb/ext/pm5/res/relu_0_split_0
I0529 09:14:34.688386 23214 net.cpp:408] stage4_tb/ext/pm5/res_stage4_tb/ext/pm5/res/relu_0_split -> stage4_tb/ext/pm5/res_stage4_tb/ext/pm5/res/relu_0_split_1
I0529 09:14:34.688391 23214 net.cpp:408] stage4_tb/ext/pm5/res_stage4_tb/ext/pm5/res/relu_0_split -> stage4_tb/ext/pm5/res_stage4_tb/ext/pm5/res/relu_0_split_2
I0529 09:14:34.688454 23214 net.cpp:150] Setting up stage4_tb/ext/pm5/res_stage4_tb/ext/pm5/res/relu_0_split
I0529 09:14:34.688460 23214 net.cpp:157] Top shape: 1 256 3 3 (2304)
I0529 09:14:34.688464 23214 net.cpp:157] Top shape: 1 256 3 3 (2304)
I0529 09:14:34.688467 23214 net.cpp:157] Top shape: 1 256 3 3 (2304)
I0529 09:14:34.688469 23214 net.cpp:165] Memory required for data: 178450464
I0529 09:14:34.688472 23214 layer_factory.hpp:77] Creating layer stage4_tb/ext/pm6
I0529 09:14:34.688477 23214 net.cpp:100] Creating Layer stage4_tb/ext/pm6
I0529 09:14:34.688480 23214 net.cpp:434] stage4_tb/ext/pm6 <- ext1/fe3_2_ext1/fe3_2/relu_0_split_0
I0529 09:14:34.688485 23214 net.cpp:408] stage4_tb/ext/pm6 -> stage4_tb/ext/pm6
I0529 09:14:34.690415 23214 net.cpp:150] Setting up stage4_tb/ext/pm6
I0529 09:14:34.690428 23214 net.cpp:157] Top shape: 1 256 1 1 (256)
I0529 09:14:34.690430 23214 net.cpp:165] Memory required for data: 178451488
I0529 09:14:34.690434 23214 layer_factory.hpp:77] Creating layer stage4_tb/ext/pm6/bn
I0529 09:14:34.690439 23214 net.cpp:100] Creating Layer stage4_tb/ext/pm6/bn
I0529 09:14:34.690443 23214 net.cpp:434] stage4_tb/ext/pm6/bn <- stage4_tb/ext/pm6
I0529 09:14:34.690446 23214 net.cpp:395] stage4_tb/ext/pm6/bn -> stage4_tb/ext/pm6 (in-place)
I0529 09:14:34.690623 23214 net.cpp:150] Setting up stage4_tb/ext/pm6/bn
I0529 09:14:34.690629 23214 net.cpp:157] Top shape: 1 256 1 1 (256)
I0529 09:14:34.690631 23214 net.cpp:165] Memory required for data: 178452512
I0529 09:14:34.690637 23214 layer_factory.hpp:77] Creating layer stage4_tb/ext/pm6/scale
I0529 09:14:34.690641 23214 net.cpp:100] Creating Layer stage4_tb/ext/pm6/scale
I0529 09:14:34.690644 23214 net.cpp:434] stage4_tb/ext/pm6/scale <- stage4_tb/ext/pm6
I0529 09:14:34.690647 23214 net.cpp:395] stage4_tb/ext/pm6/scale -> stage4_tb/ext/pm6 (in-place)
I0529 09:14:34.690680 23214 layer_factory.hpp:77] Creating layer stage4_tb/ext/pm6/scale
I0529 09:14:34.690773 23214 net.cpp:150] Setting up stage4_tb/ext/pm6/scale
I0529 09:14:34.690779 23214 net.cpp:157] Top shape: 1 256 1 1 (256)
I0529 09:14:34.690783 23214 net.cpp:165] Memory required for data: 178453536
I0529 09:14:34.690786 23214 layer_factory.hpp:77] Creating layer stage4_tb/ext/pm6/b2a
I0529 09:14:34.690801 23214 net.cpp:100] Creating Layer stage4_tb/ext/pm6/b2a
I0529 09:14:34.690805 23214 net.cpp:434] stage4_tb/ext/pm6/b2a <- ext1/fe3_2_ext1/fe3_2/relu_0_split_1
I0529 09:14:34.690809 23214 net.cpp:408] stage4_tb/ext/pm6/b2a -> stage4_tb/ext/pm6/b2a
I0529 09:14:34.693311 23214 net.cpp:150] Setting up stage4_tb/ext/pm6/b2a
I0529 09:14:34.693322 23214 net.cpp:157] Top shape: 1 128 1 1 (128)
I0529 09:14:34.693341 23214 net.cpp:165] Memory required for data: 178454048
I0529 09:14:34.693344 23214 layer_factory.hpp:77] Creating layer stage4_tb/ext/pm6/b2a/bn
I0529 09:14:34.693351 23214 net.cpp:100] Creating Layer stage4_tb/ext/pm6/b2a/bn
I0529 09:14:34.693353 23214 net.cpp:434] stage4_tb/ext/pm6/b2a/bn <- stage4_tb/ext/pm6/b2a
I0529 09:14:34.693357 23214 net.cpp:395] stage4_tb/ext/pm6/b2a/bn -> stage4_tb/ext/pm6/b2a (in-place)
I0529 09:14:34.693542 23214 net.cpp:150] Setting up stage4_tb/ext/pm6/b2a/bn
I0529 09:14:34.693549 23214 net.cpp:157] Top shape: 1 128 1 1 (128)
I0529 09:14:34.693552 23214 net.cpp:165] Memory required for data: 178454560
I0529 09:14:34.693557 23214 layer_factory.hpp:77] Creating layer stage4_tb/ext/pm6/b2a/scale
I0529 09:14:34.693562 23214 net.cpp:100] Creating Layer stage4_tb/ext/pm6/b2a/scale
I0529 09:14:34.693565 23214 net.cpp:434] stage4_tb/ext/pm6/b2a/scale <- stage4_tb/ext/pm6/b2a
I0529 09:14:34.693568 23214 net.cpp:395] stage4_tb/ext/pm6/b2a/scale -> stage4_tb/ext/pm6/b2a (in-place)
I0529 09:14:34.693601 23214 layer_factory.hpp:77] Creating layer stage4_tb/ext/pm6/b2a/scale
I0529 09:14:34.693694 23214 net.cpp:150] Setting up stage4_tb/ext/pm6/b2a/scale
I0529 09:14:34.693701 23214 net.cpp:157] Top shape: 1 128 1 1 (128)
I0529 09:14:34.693702 23214 net.cpp:165] Memory required for data: 178455072
I0529 09:14:34.693706 23214 layer_factory.hpp:77] Creating layer stage4_tb/ext/pm6/b2a/relu
I0529 09:14:34.693709 23214 net.cpp:100] Creating Layer stage4_tb/ext/pm6/b2a/relu
I0529 09:14:34.693713 23214 net.cpp:434] stage4_tb/ext/pm6/b2a/relu <- stage4_tb/ext/pm6/b2a
I0529 09:14:34.693717 23214 net.cpp:395] stage4_tb/ext/pm6/b2a/relu -> stage4_tb/ext/pm6/b2a (in-place)
I0529 09:14:34.694464 23214 net.cpp:150] Setting up stage4_tb/ext/pm6/b2a/relu
I0529 09:14:34.694475 23214 net.cpp:157] Top shape: 1 128 1 1 (128)
I0529 09:14:34.694478 23214 net.cpp:165] Memory required for data: 178455584
I0529 09:14:34.694481 23214 layer_factory.hpp:77] Creating layer stage4_tb/ext/pm6/b2b
I0529 09:14:34.694489 23214 net.cpp:100] Creating Layer stage4_tb/ext/pm6/b2b
I0529 09:14:34.694491 23214 net.cpp:434] stage4_tb/ext/pm6/b2b <- stage4_tb/ext/pm6/b2a
I0529 09:14:34.694496 23214 net.cpp:408] stage4_tb/ext/pm6/b2b -> stage4_tb/ext/pm6/b2b
I0529 09:14:34.697134 23214 net.cpp:150] Setting up stage4_tb/ext/pm6/b2b
I0529 09:14:34.697145 23214 net.cpp:157] Top shape: 1 128 1 1 (128)
I0529 09:14:34.697149 23214 net.cpp:165] Memory required for data: 178456096
I0529 09:14:34.697154 23214 layer_factory.hpp:77] Creating layer stage4_tb/ext/pm6/b2b/bn
I0529 09:14:34.697158 23214 net.cpp:100] Creating Layer stage4_tb/ext/pm6/b2b/bn
I0529 09:14:34.697161 23214 net.cpp:434] stage4_tb/ext/pm6/b2b/bn <- stage4_tb/ext/pm6/b2b
I0529 09:14:34.697165 23214 net.cpp:395] stage4_tb/ext/pm6/b2b/bn -> stage4_tb/ext/pm6/b2b (in-place)
I0529 09:14:34.697360 23214 net.cpp:150] Setting up stage4_tb/ext/pm6/b2b/bn
I0529 09:14:34.697367 23214 net.cpp:157] Top shape: 1 128 1 1 (128)
I0529 09:14:34.697371 23214 net.cpp:165] Memory required for data: 178456608
I0529 09:14:34.697376 23214 layer_factory.hpp:77] Creating layer stage4_tb/ext/pm6/b2b/scale
I0529 09:14:34.697381 23214 net.cpp:100] Creating Layer stage4_tb/ext/pm6/b2b/scale
I0529 09:14:34.697383 23214 net.cpp:434] stage4_tb/ext/pm6/b2b/scale <- stage4_tb/ext/pm6/b2b
I0529 09:14:34.697387 23214 net.cpp:395] stage4_tb/ext/pm6/b2b/scale -> stage4_tb/ext/pm6/b2b (in-place)
I0529 09:14:34.697420 23214 layer_factory.hpp:77] Creating layer stage4_tb/ext/pm6/b2b/scale
I0529 09:14:34.697521 23214 net.cpp:150] Setting up stage4_tb/ext/pm6/b2b/scale
I0529 09:14:34.697537 23214 net.cpp:157] Top shape: 1 128 1 1 (128)
I0529 09:14:34.697540 23214 net.cpp:165] Memory required for data: 178457120
I0529 09:14:34.697543 23214 layer_factory.hpp:77] Creating layer stage4_tb/ext/pm6/b2b/relu
I0529 09:14:34.697548 23214 net.cpp:100] Creating Layer stage4_tb/ext/pm6/b2b/relu
I0529 09:14:34.697551 23214 net.cpp:434] stage4_tb/ext/pm6/b2b/relu <- stage4_tb/ext/pm6/b2b
I0529 09:14:34.697554 23214 net.cpp:395] stage4_tb/ext/pm6/b2b/relu -> stage4_tb/ext/pm6/b2b (in-place)
I0529 09:14:34.697916 23214 net.cpp:150] Setting up stage4_tb/ext/pm6/b2b/relu
I0529 09:14:34.697926 23214 net.cpp:157] Top shape: 1 128 1 1 (128)
I0529 09:14:34.697927 23214 net.cpp:165] Memory required for data: 178457632
I0529 09:14:34.697929 23214 layer_factory.hpp:77] Creating layer stage4_tb/ext/pm6/b2c
I0529 09:14:34.697942 23214 net.cpp:100] Creating Layer stage4_tb/ext/pm6/b2c
I0529 09:14:34.697947 23214 net.cpp:434] stage4_tb/ext/pm6/b2c <- stage4_tb/ext/pm6/b2b
I0529 09:14:34.697952 23214 net.cpp:408] stage4_tb/ext/pm6/b2c -> stage4_tb/ext/pm6/b2c
I0529 09:14:34.699800 23214 net.cpp:150] Setting up stage4_tb/ext/pm6/b2c
I0529 09:14:34.699810 23214 net.cpp:157] Top shape: 1 256 1 1 (256)
I0529 09:14:34.699813 23214 net.cpp:165] Memory required for data: 178458656
I0529 09:14:34.699818 23214 layer_factory.hpp:77] Creating layer stage4_tb/ext/pm6/b2c/bn
I0529 09:14:34.699823 23214 net.cpp:100] Creating Layer stage4_tb/ext/pm6/b2c/bn
I0529 09:14:34.699826 23214 net.cpp:434] stage4_tb/ext/pm6/b2c/bn <- stage4_tb/ext/pm6/b2c
I0529 09:14:34.699831 23214 net.cpp:395] stage4_tb/ext/pm6/b2c/bn -> stage4_tb/ext/pm6/b2c (in-place)
I0529 09:14:34.700012 23214 net.cpp:150] Setting up stage4_tb/ext/pm6/b2c/bn
I0529 09:14:34.700018 23214 net.cpp:157] Top shape: 1 256 1 1 (256)
I0529 09:14:34.700021 23214 net.cpp:165] Memory required for data: 178459680
I0529 09:14:34.700026 23214 layer_factory.hpp:77] Creating layer stage4_tb/ext/pm6/b2c/scale
I0529 09:14:34.700031 23214 net.cpp:100] Creating Layer stage4_tb/ext/pm6/b2c/scale
I0529 09:14:34.700034 23214 net.cpp:434] stage4_tb/ext/pm6/b2c/scale <- stage4_tb/ext/pm6/b2c
I0529 09:14:34.700037 23214 net.cpp:395] stage4_tb/ext/pm6/b2c/scale -> stage4_tb/ext/pm6/b2c (in-place)
I0529 09:14:34.700078 23214 layer_factory.hpp:77] Creating layer stage4_tb/ext/pm6/b2c/scale
I0529 09:14:34.700173 23214 net.cpp:150] Setting up stage4_tb/ext/pm6/b2c/scale
I0529 09:14:34.700179 23214 net.cpp:157] Top shape: 1 256 1 1 (256)
I0529 09:14:34.700181 23214 net.cpp:165] Memory required for data: 178460704
I0529 09:14:34.700186 23214 layer_factory.hpp:77] Creating layer stage4_tb/ext/pm6/res
I0529 09:14:34.700189 23214 net.cpp:100] Creating Layer stage4_tb/ext/pm6/res
I0529 09:14:34.700192 23214 net.cpp:434] stage4_tb/ext/pm6/res <- stage4_tb/ext/pm6
I0529 09:14:34.700196 23214 net.cpp:434] stage4_tb/ext/pm6/res <- stage4_tb/ext/pm6/b2c
I0529 09:14:34.700201 23214 net.cpp:408] stage4_tb/ext/pm6/res -> stage4_tb/ext/pm6/res
I0529 09:14:34.700220 23214 net.cpp:150] Setting up stage4_tb/ext/pm6/res
I0529 09:14:34.700225 23214 net.cpp:157] Top shape: 1 256 1 1 (256)
I0529 09:14:34.700227 23214 net.cpp:165] Memory required for data: 178461728
I0529 09:14:34.700230 23214 layer_factory.hpp:77] Creating layer stage4_tb/ext/pm6/res/relu
I0529 09:14:34.700234 23214 net.cpp:100] Creating Layer stage4_tb/ext/pm6/res/relu
I0529 09:14:34.700237 23214 net.cpp:434] stage4_tb/ext/pm6/res/relu <- stage4_tb/ext/pm6/res
I0529 09:14:34.700240 23214 net.cpp:395] stage4_tb/ext/pm6/res/relu -> stage4_tb/ext/pm6/res (in-place)
I0529 09:14:34.700601 23214 net.cpp:150] Setting up stage4_tb/ext/pm6/res/relu
I0529 09:14:34.700609 23214 net.cpp:157] Top shape: 1 256 1 1 (256)
I0529 09:14:34.700611 23214 net.cpp:165] Memory required for data: 178462752
I0529 09:14:34.700614 23214 layer_factory.hpp:77] Creating layer stage4_tb/ext/pm6/res_stage4_tb/ext/pm6/res/relu_0_split
I0529 09:14:34.700618 23214 net.cpp:100] Creating Layer stage4_tb/ext/pm6/res_stage4_tb/ext/pm6/res/relu_0_split
I0529 09:14:34.700623 23214 net.cpp:434] stage4_tb/ext/pm6/res_stage4_tb/ext/pm6/res/relu_0_split <- stage4_tb/ext/pm6/res
I0529 09:14:34.700635 23214 net.cpp:408] stage4_tb/ext/pm6/res_stage4_tb/ext/pm6/res/relu_0_split -> stage4_tb/ext/pm6/res_stage4_tb/ext/pm6/res/relu_0_split_0
I0529 09:14:34.700640 23214 net.cpp:408] stage4_tb/ext/pm6/res_stage4_tb/ext/pm6/res/relu_0_split -> stage4_tb/ext/pm6/res_stage4_tb/ext/pm6/res/relu_0_split_1
I0529 09:14:34.700645 23214 net.cpp:408] stage4_tb/ext/pm6/res_stage4_tb/ext/pm6/res/relu_0_split -> stage4_tb/ext/pm6/res_stage4_tb/ext/pm6/res/relu_0_split_2
I0529 09:14:34.700700 23214 net.cpp:150] Setting up stage4_tb/ext/pm6/res_stage4_tb/ext/pm6/res/relu_0_split
I0529 09:14:34.700706 23214 net.cpp:157] Top shape: 1 256 1 1 (256)
I0529 09:14:34.700708 23214 net.cpp:157] Top shape: 1 256 1 1 (256)
I0529 09:14:34.700711 23214 net.cpp:157] Top shape: 1 256 1 1 (256)
I0529 09:14:34.700713 23214 net.cpp:165] Memory required for data: 178465824
I0529 09:14:34.700716 23214 layer_factory.hpp:77] Creating layer ext/pm1_mbox_loc
I0529 09:14:34.700721 23214 net.cpp:100] Creating Layer ext/pm1_mbox_loc
I0529 09:14:34.700724 23214 net.cpp:434] ext/pm1_mbox_loc <- stage4_tb/ext/pm2/res_stage4_tb/ext/pm2/res/relu_0_split_0
I0529 09:14:34.700728 23214 net.cpp:408] ext/pm1_mbox_loc -> ext/pm1_mbox_loc
I0529 09:14:34.702538 23214 net.cpp:150] Setting up ext/pm1_mbox_loc
I0529 09:14:34.702550 23214 net.cpp:157] Top shape: 1 24 19 19 (8664)
I0529 09:14:34.702553 23214 net.cpp:165] Memory required for data: 178500480
I0529 09:14:34.702558 23214 layer_factory.hpp:77] Creating layer ext/pm1_mbox_loc_perm
I0529 09:14:34.702564 23214 net.cpp:100] Creating Layer ext/pm1_mbox_loc_perm
I0529 09:14:34.702567 23214 net.cpp:434] ext/pm1_mbox_loc_perm <- ext/pm1_mbox_loc
I0529 09:14:34.702571 23214 net.cpp:408] ext/pm1_mbox_loc_perm -> ext/pm1_mbox_loc_perm
I0529 09:14:34.702667 23214 net.cpp:150] Setting up ext/pm1_mbox_loc_perm
I0529 09:14:34.702672 23214 net.cpp:157] Top shape: 1 19 19 24 (8664)
I0529 09:14:34.702675 23214 net.cpp:165] Memory required for data: 178535136
I0529 09:14:34.702678 23214 layer_factory.hpp:77] Creating layer ext/pm1_mbox_loc_flat
I0529 09:14:34.702682 23214 net.cpp:100] Creating Layer ext/pm1_mbox_loc_flat
I0529 09:14:34.702685 23214 net.cpp:434] ext/pm1_mbox_loc_flat <- ext/pm1_mbox_loc_perm
I0529 09:14:34.702695 23214 net.cpp:408] ext/pm1_mbox_loc_flat -> ext/pm1_mbox_loc_flat
I0529 09:14:34.702723 23214 net.cpp:150] Setting up ext/pm1_mbox_loc_flat
I0529 09:14:34.702729 23214 net.cpp:157] Top shape: 1 8664 (8664)
I0529 09:14:34.702733 23214 net.cpp:165] Memory required for data: 178569792
I0529 09:14:34.702734 23214 layer_factory.hpp:77] Creating layer ext/pm1_mbox_conf
I0529 09:14:34.702740 23214 net.cpp:100] Creating Layer ext/pm1_mbox_conf
I0529 09:14:34.702744 23214 net.cpp:434] ext/pm1_mbox_conf <- stage4_tb/ext/pm2/res_stage4_tb/ext/pm2/res/relu_0_split_1
I0529 09:14:34.702747 23214 net.cpp:408] ext/pm1_mbox_conf -> ext/pm1_mbox_conf
I0529 09:14:34.704532 23214 net.cpp:150] Setting up ext/pm1_mbox_conf
I0529 09:14:34.704545 23214 net.cpp:157] Top shape: 1 12 19 19 (4332)
I0529 09:14:34.704546 23214 net.cpp:165] Memory required for data: 178587120
I0529 09:14:34.704551 23214 layer_factory.hpp:77] Creating layer ext/pm1_mbox_conf_perm
I0529 09:14:34.704556 23214 net.cpp:100] Creating Layer ext/pm1_mbox_conf_perm
I0529 09:14:34.704560 23214 net.cpp:434] ext/pm1_mbox_conf_perm <- ext/pm1_mbox_conf
I0529 09:14:34.704565 23214 net.cpp:408] ext/pm1_mbox_conf_perm -> ext/pm1_mbox_conf_perm
I0529 09:14:34.704656 23214 net.cpp:150] Setting up ext/pm1_mbox_conf_perm
I0529 09:14:34.704663 23214 net.cpp:157] Top shape: 1 19 19 12 (4332)
I0529 09:14:34.704665 23214 net.cpp:165] Memory required for data: 178604448
I0529 09:14:34.704668 23214 layer_factory.hpp:77] Creating layer ext/pm1_mbox_conf_flat
I0529 09:14:34.704672 23214 net.cpp:100] Creating Layer ext/pm1_mbox_conf_flat
I0529 09:14:34.704675 23214 net.cpp:434] ext/pm1_mbox_conf_flat <- ext/pm1_mbox_conf_perm
I0529 09:14:34.704679 23214 net.cpp:408] ext/pm1_mbox_conf_flat -> ext/pm1_mbox_conf_flat
I0529 09:14:34.704711 23214 net.cpp:150] Setting up ext/pm1_mbox_conf_flat
I0529 09:14:34.704715 23214 net.cpp:157] Top shape: 1 4332 (4332)
I0529 09:14:34.704717 23214 net.cpp:165] Memory required for data: 178621776
I0529 09:14:34.704720 23214 layer_factory.hpp:77] Creating layer ext/pm1_mbox_priorbox
I0529 09:14:34.704726 23214 net.cpp:100] Creating Layer ext/pm1_mbox_priorbox
I0529 09:14:34.704730 23214 net.cpp:434] ext/pm1_mbox_priorbox <- stage4_tb/ext/pm2/res_stage4_tb/ext/pm2/res/relu_0_split_2
I0529 09:14:34.704733 23214 net.cpp:434] ext/pm1_mbox_priorbox <- data_data_0_split_1
I0529 09:14:34.704738 23214 net.cpp:408] ext/pm1_mbox_priorbox -> ext/pm1_mbox_priorbox
I0529 09:14:34.704761 23214 net.cpp:150] Setting up ext/pm1_mbox_priorbox
I0529 09:14:34.704766 23214 net.cpp:157] Top shape: 1 2 8664 (17328)
I0529 09:14:34.704768 23214 net.cpp:165] Memory required for data: 178691088
I0529 09:14:34.704771 23214 layer_factory.hpp:77] Creating layer ext/pm2_mbox_loc
I0529 09:14:34.704777 23214 net.cpp:100] Creating Layer ext/pm2_mbox_loc
I0529 09:14:34.704779 23214 net.cpp:434] ext/pm2_mbox_loc <- stage4_tb/ext/pm2/res_stage4_tb/ext/pm2/res/relu_0_split_3
I0529 09:14:34.704783 23214 net.cpp:408] ext/pm2_mbox_loc -> ext/pm2_mbox_loc
I0529 09:14:34.706562 23214 net.cpp:150] Setting up ext/pm2_mbox_loc
I0529 09:14:34.706573 23214 net.cpp:157] Top shape: 1 24 19 19 (8664)
I0529 09:14:34.706575 23214 net.cpp:165] Memory required for data: 178725744
I0529 09:14:34.706580 23214 layer_factory.hpp:77] Creating layer ext/pm2_mbox_loc_perm
I0529 09:14:34.706593 23214 net.cpp:100] Creating Layer ext/pm2_mbox_loc_perm
I0529 09:14:34.706595 23214 net.cpp:434] ext/pm2_mbox_loc_perm <- ext/pm2_mbox_loc
I0529 09:14:34.706600 23214 net.cpp:408] ext/pm2_mbox_loc_perm -> ext/pm2_mbox_loc_perm
I0529 09:14:34.706697 23214 net.cpp:150] Setting up ext/pm2_mbox_loc_perm
I0529 09:14:34.706704 23214 net.cpp:157] Top shape: 1 19 19 24 (8664)
I0529 09:14:34.706707 23214 net.cpp:165] Memory required for data: 178760400
I0529 09:14:34.706708 23214 layer_factory.hpp:77] Creating layer ext/pm2_mbox_loc_flat
I0529 09:14:34.706712 23214 net.cpp:100] Creating Layer ext/pm2_mbox_loc_flat
I0529 09:14:34.706717 23214 net.cpp:434] ext/pm2_mbox_loc_flat <- ext/pm2_mbox_loc_perm
I0529 09:14:34.706719 23214 net.cpp:408] ext/pm2_mbox_loc_flat -> ext/pm2_mbox_loc_flat
I0529 09:14:34.706740 23214 net.cpp:150] Setting up ext/pm2_mbox_loc_flat
I0529 09:14:34.706745 23214 net.cpp:157] Top shape: 1 8664 (8664)
I0529 09:14:34.706748 23214 net.cpp:165] Memory required for data: 178795056
I0529 09:14:34.706750 23214 layer_factory.hpp:77] Creating layer ext/pm2_mbox_conf
I0529 09:14:34.706763 23214 net.cpp:100] Creating Layer ext/pm2_mbox_conf
I0529 09:14:34.706765 23214 net.cpp:434] ext/pm2_mbox_conf <- stage4_tb/ext/pm2/res_stage4_tb/ext/pm2/res/relu_0_split_4
I0529 09:14:34.706770 23214 net.cpp:408] ext/pm2_mbox_conf -> ext/pm2_mbox_conf
I0529 09:14:34.708549 23214 net.cpp:150] Setting up ext/pm2_mbox_conf
I0529 09:14:34.708560 23214 net.cpp:157] Top shape: 1 12 19 19 (4332)
I0529 09:14:34.708562 23214 net.cpp:165] Memory required for data: 178812384
I0529 09:14:34.708569 23214 layer_factory.hpp:77] Creating layer ext/pm2_mbox_conf_perm
I0529 09:14:34.708573 23214 net.cpp:100] Creating Layer ext/pm2_mbox_conf_perm
I0529 09:14:34.708576 23214 net.cpp:434] ext/pm2_mbox_conf_perm <- ext/pm2_mbox_conf
I0529 09:14:34.708581 23214 net.cpp:408] ext/pm2_mbox_conf_perm -> ext/pm2_mbox_conf_perm
I0529 09:14:34.708673 23214 net.cpp:150] Setting up ext/pm2_mbox_conf_perm
I0529 09:14:34.708679 23214 net.cpp:157] Top shape: 1 19 19 12 (4332)
I0529 09:14:34.708683 23214 net.cpp:165] Memory required for data: 178829712
I0529 09:14:34.708684 23214 layer_factory.hpp:77] Creating layer ext/pm2_mbox_conf_flat
I0529 09:14:34.708689 23214 net.cpp:100] Creating Layer ext/pm2_mbox_conf_flat
I0529 09:14:34.708693 23214 net.cpp:434] ext/pm2_mbox_conf_flat <- ext/pm2_mbox_conf_perm
I0529 09:14:34.708695 23214 net.cpp:408] ext/pm2_mbox_conf_flat -> ext/pm2_mbox_conf_flat
I0529 09:14:34.708727 23214 net.cpp:150] Setting up ext/pm2_mbox_conf_flat
I0529 09:14:34.708734 23214 net.cpp:157] Top shape: 1 4332 (4332)
I0529 09:14:34.708736 23214 net.cpp:165] Memory required for data: 178847040
I0529 09:14:34.708739 23214 layer_factory.hpp:77] Creating layer ext/pm2_mbox_priorbox
I0529 09:14:34.708744 23214 net.cpp:100] Creating Layer ext/pm2_mbox_priorbox
I0529 09:14:34.708746 23214 net.cpp:434] ext/pm2_mbox_priorbox <- stage4_tb/ext/pm2/res_stage4_tb/ext/pm2/res/relu_0_split_5
I0529 09:14:34.708750 23214 net.cpp:434] ext/pm2_mbox_priorbox <- data_data_0_split_2
I0529 09:14:34.708755 23214 net.cpp:408] ext/pm2_mbox_priorbox -> ext/pm2_mbox_priorbox
I0529 09:14:34.708776 23214 net.cpp:150] Setting up ext/pm2_mbox_priorbox
I0529 09:14:34.708782 23214 net.cpp:157] Top shape: 1 2 8664 (17328)
I0529 09:14:34.708784 23214 net.cpp:165] Memory required for data: 178916352
I0529 09:14:34.708787 23214 layer_factory.hpp:77] Creating layer ext/pm3_mbox_loc
I0529 09:14:34.708792 23214 net.cpp:100] Creating Layer ext/pm3_mbox_loc
I0529 09:14:34.708796 23214 net.cpp:434] ext/pm3_mbox_loc <- stage4_tb/ext/pm3/res_stage4_tb/ext/pm3/res/relu_0_split_0
I0529 09:14:34.708801 23214 net.cpp:408] ext/pm3_mbox_loc -> ext/pm3_mbox_loc
I0529 09:14:34.710580 23214 net.cpp:150] Setting up ext/pm3_mbox_loc
I0529 09:14:34.710592 23214 net.cpp:157] Top shape: 1 24 10 10 (2400)
I0529 09:14:34.710595 23214 net.cpp:165] Memory required for data: 178925952
I0529 09:14:34.710600 23214 layer_factory.hpp:77] Creating layer ext/pm3_mbox_loc_perm
I0529 09:14:34.710604 23214 net.cpp:100] Creating Layer ext/pm3_mbox_loc_perm
I0529 09:14:34.710608 23214 net.cpp:434] ext/pm3_mbox_loc_perm <- ext/pm3_mbox_loc
I0529 09:14:34.710613 23214 net.cpp:408] ext/pm3_mbox_loc_perm -> ext/pm3_mbox_loc_perm
I0529 09:14:34.710711 23214 net.cpp:150] Setting up ext/pm3_mbox_loc_perm
I0529 09:14:34.710717 23214 net.cpp:157] Top shape: 1 10 10 24 (2400)
I0529 09:14:34.710721 23214 net.cpp:165] Memory required for data: 178935552
I0529 09:14:34.710723 23214 layer_factory.hpp:77] Creating layer ext/pm3_mbox_loc_flat
I0529 09:14:34.710727 23214 net.cpp:100] Creating Layer ext/pm3_mbox_loc_flat
I0529 09:14:34.710731 23214 net.cpp:434] ext/pm3_mbox_loc_flat <- ext/pm3_mbox_loc_perm
I0529 09:14:34.710734 23214 net.cpp:408] ext/pm3_mbox_loc_flat -> ext/pm3_mbox_loc_flat
I0529 09:14:34.710755 23214 net.cpp:150] Setting up ext/pm3_mbox_loc_flat
I0529 09:14:34.710760 23214 net.cpp:157] Top shape: 1 2400 (2400)
I0529 09:14:34.710762 23214 net.cpp:165] Memory required for data: 178945152
I0529 09:14:34.710765 23214 layer_factory.hpp:77] Creating layer ext/pm3_mbox_conf
I0529 09:14:34.710772 23214 net.cpp:100] Creating Layer ext/pm3_mbox_conf
I0529 09:14:34.710774 23214 net.cpp:434] ext/pm3_mbox_conf <- stage4_tb/ext/pm3/res_stage4_tb/ext/pm3/res/relu_0_split_1
I0529 09:14:34.710778 23214 net.cpp:408] ext/pm3_mbox_conf -> ext/pm3_mbox_conf
I0529 09:14:34.712527 23214 net.cpp:150] Setting up ext/pm3_mbox_conf
I0529 09:14:34.712539 23214 net.cpp:157] Top shape: 1 12 10 10 (1200)
I0529 09:14:34.712541 23214 net.cpp:165] Memory required for data: 178949952
I0529 09:14:34.712546 23214 layer_factory.hpp:77] Creating layer ext/pm3_mbox_conf_perm
I0529 09:14:34.712551 23214 net.cpp:100] Creating Layer ext/pm3_mbox_conf_perm
I0529 09:14:34.712555 23214 net.cpp:434] ext/pm3_mbox_conf_perm <- ext/pm3_mbox_conf
I0529 09:14:34.712559 23214 net.cpp:408] ext/pm3_mbox_conf_perm -> ext/pm3_mbox_conf_perm
I0529 09:14:34.712656 23214 net.cpp:150] Setting up ext/pm3_mbox_conf_perm
I0529 09:14:34.712662 23214 net.cpp:157] Top shape: 1 10 10 12 (1200)
I0529 09:14:34.712666 23214 net.cpp:165] Memory required for data: 178954752
I0529 09:14:34.712667 23214 layer_factory.hpp:77] Creating layer ext/pm3_mbox_conf_flat
I0529 09:14:34.712671 23214 net.cpp:100] Creating Layer ext/pm3_mbox_conf_flat
I0529 09:14:34.712674 23214 net.cpp:434] ext/pm3_mbox_conf_flat <- ext/pm3_mbox_conf_perm
I0529 09:14:34.712678 23214 net.cpp:408] ext/pm3_mbox_conf_flat -> ext/pm3_mbox_conf_flat
I0529 09:14:34.712699 23214 net.cpp:150] Setting up ext/pm3_mbox_conf_flat
I0529 09:14:34.712714 23214 net.cpp:157] Top shape: 1 1200 (1200)
I0529 09:14:34.712716 23214 net.cpp:165] Memory required for data: 178959552
I0529 09:14:34.712719 23214 layer_factory.hpp:77] Creating layer ext/pm3_mbox_priorbox
I0529 09:14:34.712724 23214 net.cpp:100] Creating Layer ext/pm3_mbox_priorbox
I0529 09:14:34.712728 23214 net.cpp:434] ext/pm3_mbox_priorbox <- stage4_tb/ext/pm3/res_stage4_tb/ext/pm3/res/relu_0_split_2
I0529 09:14:34.712730 23214 net.cpp:434] ext/pm3_mbox_priorbox <- data_data_0_split_3
I0529 09:14:34.712735 23214 net.cpp:408] ext/pm3_mbox_priorbox -> ext/pm3_mbox_priorbox
I0529 09:14:34.712759 23214 net.cpp:150] Setting up ext/pm3_mbox_priorbox
I0529 09:14:34.712764 23214 net.cpp:157] Top shape: 1 2 2400 (4800)
I0529 09:14:34.712766 23214 net.cpp:165] Memory required for data: 178978752
I0529 09:14:34.712769 23214 layer_factory.hpp:77] Creating layer ext/pm4_mbox_loc
I0529 09:14:34.712774 23214 net.cpp:100] Creating Layer ext/pm4_mbox_loc
I0529 09:14:34.712777 23214 net.cpp:434] ext/pm4_mbox_loc <- stage4_tb/ext/pm4/res_stage4_tb/ext/pm4/res/relu_0_split_0
I0529 09:14:34.712781 23214 net.cpp:408] ext/pm4_mbox_loc -> ext/pm4_mbox_loc
I0529 09:14:34.714558 23214 net.cpp:150] Setting up ext/pm4_mbox_loc
I0529 09:14:34.714570 23214 net.cpp:157] Top shape: 1 24 5 5 (600)
I0529 09:14:34.714572 23214 net.cpp:165] Memory required for data: 178981152
I0529 09:14:34.714577 23214 layer_factory.hpp:77] Creating layer ext/pm4_mbox_loc_perm
I0529 09:14:34.714591 23214 net.cpp:100] Creating Layer ext/pm4_mbox_loc_perm
I0529 09:14:34.714594 23214 net.cpp:434] ext/pm4_mbox_loc_perm <- ext/pm4_mbox_loc
I0529 09:14:34.714598 23214 net.cpp:408] ext/pm4_mbox_loc_perm -> ext/pm4_mbox_loc_perm
I0529 09:14:34.714699 23214 net.cpp:150] Setting up ext/pm4_mbox_loc_perm
I0529 09:14:34.714705 23214 net.cpp:157] Top shape: 1 5 5 24 (600)
I0529 09:14:34.714707 23214 net.cpp:165] Memory required for data: 178983552
I0529 09:14:34.714710 23214 layer_factory.hpp:77] Creating layer ext/pm4_mbox_loc_flat
I0529 09:14:34.714715 23214 net.cpp:100] Creating Layer ext/pm4_mbox_loc_flat
I0529 09:14:34.714717 23214 net.cpp:434] ext/pm4_mbox_loc_flat <- ext/pm4_mbox_loc_perm
I0529 09:14:34.714721 23214 net.cpp:408] ext/pm4_mbox_loc_flat -> ext/pm4_mbox_loc_flat
I0529 09:14:34.714741 23214 net.cpp:150] Setting up ext/pm4_mbox_loc_flat
I0529 09:14:34.714746 23214 net.cpp:157] Top shape: 1 600 (600)
I0529 09:14:34.714749 23214 net.cpp:165] Memory required for data: 178985952
I0529 09:14:34.714751 23214 layer_factory.hpp:77] Creating layer ext/pm4_mbox_conf
I0529 09:14:34.714757 23214 net.cpp:100] Creating Layer ext/pm4_mbox_conf
I0529 09:14:34.714761 23214 net.cpp:434] ext/pm4_mbox_conf <- stage4_tb/ext/pm4/res_stage4_tb/ext/pm4/res/relu_0_split_1
I0529 09:14:34.714766 23214 net.cpp:408] ext/pm4_mbox_conf -> ext/pm4_mbox_conf
I0529 09:14:34.716523 23214 net.cpp:150] Setting up ext/pm4_mbox_conf
I0529 09:14:34.716536 23214 net.cpp:157] Top shape: 1 12 5 5 (300)
I0529 09:14:34.716537 23214 net.cpp:165] Memory required for data: 178987152
I0529 09:14:34.716542 23214 layer_factory.hpp:77] Creating layer ext/pm4_mbox_conf_perm
I0529 09:14:34.716547 23214 net.cpp:100] Creating Layer ext/pm4_mbox_conf_perm
I0529 09:14:34.716552 23214 net.cpp:434] ext/pm4_mbox_conf_perm <- ext/pm4_mbox_conf
I0529 09:14:34.716555 23214 net.cpp:408] ext/pm4_mbox_conf_perm -> ext/pm4_mbox_conf_perm
I0529 09:14:34.716652 23214 net.cpp:150] Setting up ext/pm4_mbox_conf_perm
I0529 09:14:34.716660 23214 net.cpp:157] Top shape: 1 5 5 12 (300)
I0529 09:14:34.716661 23214 net.cpp:165] Memory required for data: 178988352
I0529 09:14:34.716665 23214 layer_factory.hpp:77] Creating layer ext/pm4_mbox_conf_flat
I0529 09:14:34.716668 23214 net.cpp:100] Creating Layer ext/pm4_mbox_conf_flat
I0529 09:14:34.716671 23214 net.cpp:434] ext/pm4_mbox_conf_flat <- ext/pm4_mbox_conf_perm
I0529 09:14:34.716675 23214 net.cpp:408] ext/pm4_mbox_conf_flat -> ext/pm4_mbox_conf_flat
I0529 09:14:34.716694 23214 net.cpp:150] Setting up ext/pm4_mbox_conf_flat
I0529 09:14:34.716711 23214 net.cpp:157] Top shape: 1 300 (300)
I0529 09:14:34.716712 23214 net.cpp:165] Memory required for data: 178989552
I0529 09:14:34.716715 23214 layer_factory.hpp:77] Creating layer ext/pm4_mbox_priorbox
I0529 09:14:34.716719 23214 net.cpp:100] Creating Layer ext/pm4_mbox_priorbox
I0529 09:14:34.716723 23214 net.cpp:434] ext/pm4_mbox_priorbox <- stage4_tb/ext/pm4/res_stage4_tb/ext/pm4/res/relu_0_split_2
I0529 09:14:34.716727 23214 net.cpp:434] ext/pm4_mbox_priorbox <- data_data_0_split_4
I0529 09:14:34.716730 23214 net.cpp:408] ext/pm4_mbox_priorbox -> ext/pm4_mbox_priorbox
I0529 09:14:34.716753 23214 net.cpp:150] Setting up ext/pm4_mbox_priorbox
I0529 09:14:34.716759 23214 net.cpp:157] Top shape: 1 2 600 (1200)
I0529 09:14:34.716761 23214 net.cpp:165] Memory required for data: 178994352
I0529 09:14:34.716763 23214 layer_factory.hpp:77] Creating layer ext/pm5_mbox_loc
I0529 09:14:34.716769 23214 net.cpp:100] Creating Layer ext/pm5_mbox_loc
I0529 09:14:34.716773 23214 net.cpp:434] ext/pm5_mbox_loc <- stage4_tb/ext/pm5/res_stage4_tb/ext/pm5/res/relu_0_split_0
I0529 09:14:34.716785 23214 net.cpp:408] ext/pm5_mbox_loc -> ext/pm5_mbox_loc
I0529 09:14:34.718544 23214 net.cpp:150] Setting up ext/pm5_mbox_loc
I0529 09:14:34.718555 23214 net.cpp:157] Top shape: 1 24 3 3 (216)
I0529 09:14:34.718559 23214 net.cpp:165] Memory required for data: 178995216
I0529 09:14:34.718564 23214 layer_factory.hpp:77] Creating layer ext/pm5_mbox_loc_perm
I0529 09:14:34.718569 23214 net.cpp:100] Creating Layer ext/pm5_mbox_loc_perm
I0529 09:14:34.718572 23214 net.cpp:434] ext/pm5_mbox_loc_perm <- ext/pm5_mbox_loc
I0529 09:14:34.718576 23214 net.cpp:408] ext/pm5_mbox_loc_perm -> ext/pm5_mbox_loc_perm
I0529 09:14:34.718679 23214 net.cpp:150] Setting up ext/pm5_mbox_loc_perm
I0529 09:14:34.718685 23214 net.cpp:157] Top shape: 1 3 3 24 (216)
I0529 09:14:34.718688 23214 net.cpp:165] Memory required for data: 178996080
I0529 09:14:34.718690 23214 layer_factory.hpp:77] Creating layer ext/pm5_mbox_loc_flat
I0529 09:14:34.718694 23214 net.cpp:100] Creating Layer ext/pm5_mbox_loc_flat
I0529 09:14:34.718698 23214 net.cpp:434] ext/pm5_mbox_loc_flat <- ext/pm5_mbox_loc_perm
I0529 09:14:34.718701 23214 net.cpp:408] ext/pm5_mbox_loc_flat -> ext/pm5_mbox_loc_flat
I0529 09:14:34.718722 23214 net.cpp:150] Setting up ext/pm5_mbox_loc_flat
I0529 09:14:34.718727 23214 net.cpp:157] Top shape: 1 216 (216)
I0529 09:14:34.718730 23214 net.cpp:165] Memory required for data: 178996944
I0529 09:14:34.718732 23214 layer_factory.hpp:77] Creating layer ext/pm5_mbox_conf
I0529 09:14:34.718739 23214 net.cpp:100] Creating Layer ext/pm5_mbox_conf
I0529 09:14:34.718742 23214 net.cpp:434] ext/pm5_mbox_conf <- stage4_tb/ext/pm5/res_stage4_tb/ext/pm5/res/relu_0_split_1
I0529 09:14:34.718746 23214 net.cpp:408] ext/pm5_mbox_conf -> ext/pm5_mbox_conf
I0529 09:14:34.720504 23214 net.cpp:150] Setting up ext/pm5_mbox_conf
I0529 09:14:34.720517 23214 net.cpp:157] Top shape: 1 12 3 3 (108)
I0529 09:14:34.720520 23214 net.cpp:165] Memory required for data: 178997376
I0529 09:14:34.720525 23214 layer_factory.hpp:77] Creating layer ext/pm5_mbox_conf_perm
I0529 09:14:34.720530 23214 net.cpp:100] Creating Layer ext/pm5_mbox_conf_perm
I0529 09:14:34.720533 23214 net.cpp:434] ext/pm5_mbox_conf_perm <- ext/pm5_mbox_conf
I0529 09:14:34.720537 23214 net.cpp:408] ext/pm5_mbox_conf_perm -> ext/pm5_mbox_conf_perm
I0529 09:14:34.720635 23214 net.cpp:150] Setting up ext/pm5_mbox_conf_perm
I0529 09:14:34.720641 23214 net.cpp:157] Top shape: 1 3 3 12 (108)
I0529 09:14:34.720644 23214 net.cpp:165] Memory required for data: 178997808
I0529 09:14:34.720646 23214 layer_factory.hpp:77] Creating layer ext/pm5_mbox_conf_flat
I0529 09:14:34.720650 23214 net.cpp:100] Creating Layer ext/pm5_mbox_conf_flat
I0529 09:14:34.720654 23214 net.cpp:434] ext/pm5_mbox_conf_flat <- ext/pm5_mbox_conf_perm
I0529 09:14:34.720659 23214 net.cpp:408] ext/pm5_mbox_conf_flat -> ext/pm5_mbox_conf_flat
I0529 09:14:34.720677 23214 net.cpp:150] Setting up ext/pm5_mbox_conf_flat
I0529 09:14:34.720683 23214 net.cpp:157] Top shape: 1 108 (108)
I0529 09:14:34.720695 23214 net.cpp:165] Memory required for data: 178998240
I0529 09:14:34.720698 23214 layer_factory.hpp:77] Creating layer ext/pm5_mbox_priorbox
I0529 09:14:34.720702 23214 net.cpp:100] Creating Layer ext/pm5_mbox_priorbox
I0529 09:14:34.720705 23214 net.cpp:434] ext/pm5_mbox_priorbox <- stage4_tb/ext/pm5/res_stage4_tb/ext/pm5/res/relu_0_split_2
I0529 09:14:34.720710 23214 net.cpp:434] ext/pm5_mbox_priorbox <- data_data_0_split_5
I0529 09:14:34.720715 23214 net.cpp:408] ext/pm5_mbox_priorbox -> ext/pm5_mbox_priorbox
I0529 09:14:34.720737 23214 net.cpp:150] Setting up ext/pm5_mbox_priorbox
I0529 09:14:34.720742 23214 net.cpp:157] Top shape: 1 2 216 (432)
I0529 09:14:34.720746 23214 net.cpp:165] Memory required for data: 178999968
I0529 09:14:34.720748 23214 layer_factory.hpp:77] Creating layer ext/pm6_mbox_loc
I0529 09:14:34.720753 23214 net.cpp:100] Creating Layer ext/pm6_mbox_loc
I0529 09:14:34.720757 23214 net.cpp:434] ext/pm6_mbox_loc <- stage4_tb/ext/pm6/res_stage4_tb/ext/pm6/res/relu_0_split_0
I0529 09:14:34.720760 23214 net.cpp:408] ext/pm6_mbox_loc -> ext/pm6_mbox_loc
I0529 09:14:34.722532 23214 net.cpp:150] Setting up ext/pm6_mbox_loc
I0529 09:14:34.722543 23214 net.cpp:157] Top shape: 1 24 1 1 (24)
I0529 09:14:34.722545 23214 net.cpp:165] Memory required for data: 179000064
I0529 09:14:34.722550 23214 layer_factory.hpp:77] Creating layer ext/pm6_mbox_loc_perm
I0529 09:14:34.722558 23214 net.cpp:100] Creating Layer ext/pm6_mbox_loc_perm
I0529 09:14:34.722561 23214 net.cpp:434] ext/pm6_mbox_loc_perm <- ext/pm6_mbox_loc
I0529 09:14:34.722565 23214 net.cpp:408] ext/pm6_mbox_loc_perm -> ext/pm6_mbox_loc_perm
I0529 09:14:34.722663 23214 net.cpp:150] Setting up ext/pm6_mbox_loc_perm
I0529 09:14:34.722671 23214 net.cpp:157] Top shape: 1 1 1 24 (24)
I0529 09:14:34.722672 23214 net.cpp:165] Memory required for data: 179000160
I0529 09:14:34.722674 23214 layer_factory.hpp:77] Creating layer ext/pm6_mbox_loc_flat
I0529 09:14:34.722678 23214 net.cpp:100] Creating Layer ext/pm6_mbox_loc_flat
I0529 09:14:34.722682 23214 net.cpp:434] ext/pm6_mbox_loc_flat <- ext/pm6_mbox_loc_perm
I0529 09:14:34.722687 23214 net.cpp:408] ext/pm6_mbox_loc_flat -> ext/pm6_mbox_loc_flat
I0529 09:14:34.722707 23214 net.cpp:150] Setting up ext/pm6_mbox_loc_flat
I0529 09:14:34.722712 23214 net.cpp:157] Top shape: 1 24 (24)
I0529 09:14:34.722713 23214 net.cpp:165] Memory required for data: 179000256
I0529 09:14:34.722717 23214 layer_factory.hpp:77] Creating layer ext/pm6_mbox_conf
I0529 09:14:34.722721 23214 net.cpp:100] Creating Layer ext/pm6_mbox_conf
I0529 09:14:34.722725 23214 net.cpp:434] ext/pm6_mbox_conf <- stage4_tb/ext/pm6/res_stage4_tb/ext/pm6/res/relu_0_split_1
I0529 09:14:34.722730 23214 net.cpp:408] ext/pm6_mbox_conf -> ext/pm6_mbox_conf
I0529 09:14:34.724467 23214 net.cpp:150] Setting up ext/pm6_mbox_conf
I0529 09:14:34.724478 23214 net.cpp:157] Top shape: 1 12 1 1 (12)
I0529 09:14:34.724480 23214 net.cpp:165] Memory required for data: 179000304
I0529 09:14:34.724485 23214 layer_factory.hpp:77] Creating layer ext/pm6_mbox_conf_perm
I0529 09:14:34.724490 23214 net.cpp:100] Creating Layer ext/pm6_mbox_conf_perm
I0529 09:14:34.724493 23214 net.cpp:434] ext/pm6_mbox_conf_perm <- ext/pm6_mbox_conf
I0529 09:14:34.724498 23214 net.cpp:408] ext/pm6_mbox_conf_perm -> ext/pm6_mbox_conf_perm
I0529 09:14:34.724596 23214 net.cpp:150] Setting up ext/pm6_mbox_conf_perm
I0529 09:14:34.724602 23214 net.cpp:157] Top shape: 1 1 1 12 (12)
I0529 09:14:34.724604 23214 net.cpp:165] Memory required for data: 179000352
I0529 09:14:34.724607 23214 layer_factory.hpp:77] Creating layer ext/pm6_mbox_conf_flat
I0529 09:14:34.724611 23214 net.cpp:100] Creating Layer ext/pm6_mbox_conf_flat
I0529 09:14:34.724614 23214 net.cpp:434] ext/pm6_mbox_conf_flat <- ext/pm6_mbox_conf_perm
I0529 09:14:34.724618 23214 net.cpp:408] ext/pm6_mbox_conf_flat -> ext/pm6_mbox_conf_flat
I0529 09:14:34.724644 23214 net.cpp:150] Setting up ext/pm6_mbox_conf_flat
I0529 09:14:34.724650 23214 net.cpp:157] Top shape: 1 12 (12)
I0529 09:14:34.724653 23214 net.cpp:165] Memory required for data: 179000400
I0529 09:14:34.724665 23214 layer_factory.hpp:77] Creating layer ext/pm6_mbox_priorbox
I0529 09:14:34.724670 23214 net.cpp:100] Creating Layer ext/pm6_mbox_priorbox
I0529 09:14:34.724675 23214 net.cpp:434] ext/pm6_mbox_priorbox <- stage4_tb/ext/pm6/res_stage4_tb/ext/pm6/res/relu_0_split_2
I0529 09:14:34.724678 23214 net.cpp:434] ext/pm6_mbox_priorbox <- data_data_0_split_6
I0529 09:14:34.724683 23214 net.cpp:408] ext/pm6_mbox_priorbox -> ext/pm6_mbox_priorbox
I0529 09:14:34.724706 23214 net.cpp:150] Setting up ext/pm6_mbox_priorbox
I0529 09:14:34.724712 23214 net.cpp:157] Top shape: 1 2 24 (48)
I0529 09:14:34.724714 23214 net.cpp:165] Memory required for data: 179000592
I0529 09:14:34.724717 23214 layer_factory.hpp:77] Creating layer mbox_loc
I0529 09:14:34.724721 23214 net.cpp:100] Creating Layer mbox_loc
I0529 09:14:34.724725 23214 net.cpp:434] mbox_loc <- ext/pm1_mbox_loc_flat
I0529 09:14:34.724727 23214 net.cpp:434] mbox_loc <- ext/pm2_mbox_loc_flat
I0529 09:14:34.724730 23214 net.cpp:434] mbox_loc <- ext/pm3_mbox_loc_flat
I0529 09:14:34.724733 23214 net.cpp:434] mbox_loc <- ext/pm4_mbox_loc_flat
I0529 09:14:34.724737 23214 net.cpp:434] mbox_loc <- ext/pm5_mbox_loc_flat
I0529 09:14:34.724740 23214 net.cpp:434] mbox_loc <- ext/pm6_mbox_loc_flat
I0529 09:14:34.724743 23214 net.cpp:408] mbox_loc -> mbox_loc
I0529 09:14:34.724764 23214 net.cpp:150] Setting up mbox_loc
I0529 09:14:34.724769 23214 net.cpp:157] Top shape: 1 20568 (20568)
I0529 09:14:34.724772 23214 net.cpp:165] Memory required for data: 179082864
I0529 09:14:34.724774 23214 layer_factory.hpp:77] Creating layer mbox_conf
I0529 09:14:34.724777 23214 net.cpp:100] Creating Layer mbox_conf
I0529 09:14:34.724781 23214 net.cpp:434] mbox_conf <- ext/pm1_mbox_conf_flat
I0529 09:14:34.724784 23214 net.cpp:434] mbox_conf <- ext/pm2_mbox_conf_flat
I0529 09:14:34.724786 23214 net.cpp:434] mbox_conf <- ext/pm3_mbox_conf_flat
I0529 09:14:34.724789 23214 net.cpp:434] mbox_conf <- ext/pm4_mbox_conf_flat
I0529 09:14:34.724792 23214 net.cpp:434] mbox_conf <- ext/pm5_mbox_conf_flat
I0529 09:14:34.724795 23214 net.cpp:434] mbox_conf <- ext/pm6_mbox_conf_flat
I0529 09:14:34.724798 23214 net.cpp:408] mbox_conf -> mbox_conf
I0529 09:14:34.724817 23214 net.cpp:150] Setting up mbox_conf
I0529 09:14:34.724823 23214 net.cpp:157] Top shape: 1 10284 (10284)
I0529 09:14:34.724825 23214 net.cpp:165] Memory required for data: 179124000
I0529 09:14:34.724828 23214 layer_factory.hpp:77] Creating layer mbox_priorbox
I0529 09:14:34.724835 23214 net.cpp:100] Creating Layer mbox_priorbox
I0529 09:14:34.724839 23214 net.cpp:434] mbox_priorbox <- ext/pm1_mbox_priorbox
I0529 09:14:34.724843 23214 net.cpp:434] mbox_priorbox <- ext/pm2_mbox_priorbox
I0529 09:14:34.724844 23214 net.cpp:434] mbox_priorbox <- ext/pm3_mbox_priorbox
I0529 09:14:34.724848 23214 net.cpp:434] mbox_priorbox <- ext/pm4_mbox_priorbox
I0529 09:14:34.724850 23214 net.cpp:434] mbox_priorbox <- ext/pm5_mbox_priorbox
I0529 09:14:34.724853 23214 net.cpp:434] mbox_priorbox <- ext/pm6_mbox_priorbox
I0529 09:14:34.724855 23214 net.cpp:408] mbox_priorbox -> mbox_priorbox
I0529 09:14:34.724875 23214 net.cpp:150] Setting up mbox_priorbox
I0529 09:14:34.724880 23214 net.cpp:157] Top shape: 1 2 20568 (41136)
I0529 09:14:34.724882 23214 net.cpp:165] Memory required for data: 179288544
I0529 09:14:34.724884 23214 layer_factory.hpp:77] Creating layer mbox_conf_reshape
I0529 09:14:34.724889 23214 net.cpp:100] Creating Layer mbox_conf_reshape
I0529 09:14:34.724892 23214 net.cpp:434] mbox_conf_reshape <- mbox_conf
I0529 09:14:34.724896 23214 net.cpp:408] mbox_conf_reshape -> mbox_conf_reshape
I0529 09:14:34.724923 23214 net.cpp:150] Setting up mbox_conf_reshape
I0529 09:14:34.724928 23214 net.cpp:157] Top shape: 1 5142 2 (10284)
I0529 09:14:34.724931 23214 net.cpp:165] Memory required for data: 179329680
I0529 09:14:34.724934 23214 layer_factory.hpp:77] Creating layer mbox_conf_softmax
I0529 09:14:34.724938 23214 net.cpp:100] Creating Layer mbox_conf_softmax
I0529 09:14:34.724941 23214 net.cpp:434] mbox_conf_softmax <- mbox_conf_reshape
I0529 09:14:34.724952 23214 net.cpp:408] mbox_conf_softmax -> mbox_conf_softmax
I0529 09:14:34.725769 23214 net.cpp:150] Setting up mbox_conf_softmax
I0529 09:14:34.725780 23214 net.cpp:157] Top shape: 1 5142 2 (10284)
I0529 09:14:34.725782 23214 net.cpp:165] Memory required for data: 179370816
I0529 09:14:34.725786 23214 layer_factory.hpp:77] Creating layer mbox_conf_flatten
I0529 09:14:34.725790 23214 net.cpp:100] Creating Layer mbox_conf_flatten
I0529 09:14:34.725795 23214 net.cpp:434] mbox_conf_flatten <- mbox_conf_softmax
I0529 09:14:34.725798 23214 net.cpp:408] mbox_conf_flatten -> mbox_conf_flatten
I0529 09:14:34.725828 23214 net.cpp:150] Setting up mbox_conf_flatten
I0529 09:14:34.725833 23214 net.cpp:157] Top shape: 1 10284 (10284)
I0529 09:14:34.725836 23214 net.cpp:165] Memory required for data: 179411952
I0529 09:14:34.725837 23214 layer_factory.hpp:77] Creating layer detection_out
I0529 09:14:34.725852 23214 net.cpp:100] Creating Layer detection_out
I0529 09:14:34.725855 23214 net.cpp:434] detection_out <- mbox_loc
I0529 09:14:34.725858 23214 net.cpp:434] detection_out <- mbox_conf_flatten
I0529 09:14:34.725862 23214 net.cpp:434] detection_out <- mbox_priorbox
I0529 09:14:34.725872 23214 net.cpp:408] detection_out -> detection_out
W0529 09:14:34.725896 23214 detection_output_layer.cpp:49] Failed to create directory: examples/Pelee/results/
I0529 09:14:34.726263 23214 net.cpp:150] Setting up detection_out
I0529 09:14:34.726271 23214 net.cpp:157] Top shape: 1 1 1 7 (7)
I0529 09:14:34.726274 23214 net.cpp:165] Memory required for data: 179411980
I0529 09:14:34.726277 23214 layer_factory.hpp:77] Creating layer detection_eval
I0529 09:14:34.726284 23214 net.cpp:100] Creating Layer detection_eval
I0529 09:14:34.726286 23214 net.cpp:434] detection_eval <- detection_out
I0529 09:14:34.726290 23214 net.cpp:434] detection_eval <- label
I0529 09:14:34.726294 23214 net.cpp:408] detection_eval -> detection_eval
I0529 09:14:34.726419 23214 net.cpp:150] Setting up detection_eval
I0529 09:14:34.726426 23214 net.cpp:157] Top shape: 1 1 2 5 (10)
I0529 09:14:34.726429 23214 net.cpp:165] Memory required for data: 179412020
I0529 09:14:34.726433 23214 net.cpp:228] detection_eval does not need backward computation.
I0529 09:14:34.726435 23214 net.cpp:228] detection_out does not need backward computation.
I0529 09:14:34.726438 23214 net.cpp:228] mbox_conf_flatten does not need backward computation.
I0529 09:14:34.726441 23214 net.cpp:228] mbox_conf_softmax does not need backward computation.
…
